injector_surrogate/grid.pt (torch, 947031 bytes, 5 tensors)

x f4 [19683, 9]
0	0x3eeb851f	0.46
1	0xbca3d70a	-0.02
2	0xbca3d70a	-0.02
3	0xc0800000	-4.0
4	0x3f800000	1.0
5	0xc0e00000	-7.0
6	0xbf800000	-1.0
7	0xbf800000	-1.0
8	0xc0e00000	-7.0
9	0x3eeb851f	0.46
10	0xbca3d70a	-0.02
11	0xbca3d70a	-0.02
12	0xc0800000	-4.0
13	0x3f800000	1.0
14	0xc0e00000	-7.0
15	0xbf800000	-1.0
16	0xbf800000	-1.0
17	0xc0400000	-3.0
18	0x3eeb851f	0.46
19	0xbca3d70a	-0.02
20	0xbca3d70a	-0.02
21	0xc0800000	-4.0
22	0x3f800000	1.0
23	0xc0e00000	-7.0
24	0xbf800000	-1.0
25	0xbf800000	-1.0
26	0x3f800000	1.0
27	0x3eeb851f	0.46
28	0xbca3d70a	-0.02
29	0xbca3d70a	-0.02
30	0xc0800000	-4.0
31	0x3f800000	1.0
32	0xc0e00000	-7.0
33	0xbf800000	-1.0
34	0x40400000	3.0
35	0xc0e00000	-7.0
36	0x3eeb851f	0.46
37	0xbca3d70a	-0.02
38	0xbca3d70a	-0.02
39	0xc0800000	-4.0
40	0x3f800000	1.0
41	0xc0e00000	-7.0
42	0xbf800000	-1.0
43	0x40400000	3.0
44	0xc0400000	-3.0
45	0x3eeb851f	0.46
46	0xbca3d70a	-0.02
47	0xbca3d70a	-0.02
48	0xc0800000	-4.0
49	0x3f800000	1.0
50	0xc0e00000	-7.0
51	0xbf800000	-1.0
52	0x40400000	3.0
53	0x3f800000	1.0
54	0x3eeb851f	0.46
55	0xbca3d70a	-0.02
56	0xbca3d70a	-0.02
57	0xc0800000	-4.0
58	0x3f800000	1.0
59	0xc0e00000	-7.0
60	0xbf800000	-1.0
61	0x40e00000	7.0
62	0xc0e00000	-7.0
63	0x3eeb851f	0.46
64	0xbca3d70a	-0.02
65	0xbca3d70a	-0.02
66	0xc0800000	-4.0
67	0x3f800000	1.0
68	0xc0e00000	-7.0
69	0xbf800000	-1.0
70	0x40e00000	7.0
71	0xc0400000	-3.0
72	0x3eeb851f	0.46
73	0xbca3d70a	-0.02
74	0xbca3d70a	-0.02
75	0xc0800000	-4.0
76	0x3f800000	1.0
77	0xc0e00000	-7.0
78	0xbf800000	-1.0
79	0x40e00000	7.0
80	0x3f800000	1.0
81	0x3eeb851f	0.46
82	0xbca3d70a	-0.02
83	0xbca3d70a	-0.02
84	0xc0800000	-4.0
85	0x3f800000	1.0
86	0xc0e00000	-7.0
87	0x40400000	3.0
88	0xbf800000	-1.0
89	0xc0e00000	-7.0
90	0x3eeb851f	0.46
91	0xbca3d70a	-0.02
92	0xbca3d70a	-0.02
93	0xc0800000	-4.0
94	0x3f800000	1.0
95	0xc0e00000	-7.0
96	0x40400000	3.0
97	0xbf800000	-1.0
98	0xc0400000	-3.0
99	0x3eeb851f	0.46
100	0xbca3d70a	-0.02
101	0xbca3d70a	-0.02
102	0xc0800000	-4.0
103	0x3f800000	1.0
104	0xc0e00000	-7.0
105	0x40400000	3.0
106	0xbf800000	-1.0
107	0x3f800000	1.0
108	0x3eeb851f	0.46
109	0xbca3d70a	-0.02
110	0xbca3d70a	-0.02
111	0xc0800000	-4.0
112	0x3f800000	1.0
113	0xc0e00000	-7.0
114	0x40400000	3.0
115	0x40400000	3.0
116	0xc0e00000	-7.0
117	0x3eeb851f	0.46
118	0xbca3d70a	-0.02
119	0xbca3d70a	-0.02
120	0xc0800000	-4.0
121	0x3f800000	1.0
122	0xc0e00000	-7.0
123	0x40400000	3.0
124	0x40400000	3.0
125	0xc0400000	-3.0
126	0x3eeb851f	0.46
127	0xbca3d70a	-0.02
128	0xbca3d70a	-0.02
129	0xc0800000	-4.0
130	0x3f800000	1.0
131	0xc0e00000	-7.0
132	0x40400000	3.0
133	0x40400000	3.0
134	0x3f800000	1.0
135	0x3eeb851f	0.46
136	0xbca3d70a	-0.02
137	0xbca3d70a	-0.02
138	0xc0800000	-4.0
139	0x3f800000	1.0
140	0xc0e00000	-7.0
141	0x40400000	3.0
142	0x40e00000	7.0
143	0xc0e00000	-7.0
144	0x3eeb851f	0.46
145	0xbca3d70a	-0.02
146	0xbca3d70a	-0.02
147	0xc0800000	-4.0
148	0x3f800000	1.0
149	0xc0e00000	-7.0
150	0x40400000	3.0
151	0x40e00000	7.0
152	0xc0400000	-3.0
153	0x3eeb851f	0.46
154	0xbca3d70a	-0.02
155	0xbca3d70a	-0.02
156	0xc0800000	-4.0
157	0x3f800000	1.0
158	0xc0e00000	-7.0
159	0x40400000	3.0
160	0x40e00000	7.0
161	0x3f800000	1.0
162	0x3eeb851f	0.46
163	0xbca3d70a	-0.02
164	0xbca3d70a	-0.02
165	0xc0800000	-4.0
166	0x3f800000	1.0
167	0xc0e00000	-7.0
168	0x40e00000	7.0
169	0xbf800000	-1.0
170	0xc0e00000	-7.0
171	0x3eeb851f	0.46
172	0xbca3d70a	-0.02
173	0xbca3d70a	-0.02
174	0xc0800000	-4.0
175	0x3f800000	1.0
176	0xc0e00000	-7.0
177	0x40e00000	7.0
178	0xbf800000	-1.0
179	0xc0400000	-3.0
180	0x3eeb851f	0.46
181	0xbca3d70a	-0.02
182	0xbca3d70a	-0.02
183	0xc0800000	-4.0
184	0x3f800000	1.0
185	0xc0e00000	-7.0
186	0x40e00000	7.0
187	0xbf800000	-1.0
188	0x3f800000	1.0
189	0x3eeb851f	0.46
190	0xbca3d70a	-0.02
191	0xbca3d70a	-0.02
192	0xc0800000	-4.0
193	0x3f800000	1.0
194	0xc0e00000	-7.0
195	0x40e00000	7.0
196	0x40400000	3.0
197	0xc0e00000	-7.0
198	0x3eeb851f	0.46
199	0xbca3d70a	-0.02
200	0xbca3d70a	-0.02
201	0xc0800000	-4.0
202	0x3f800000	1.0
203	0xc0e00000	-7.0
204	0x40e00000	7.0
205	0x40400000	3.0
206	0xc0400000	-3.0
207	0x3eeb851f	0.46
208	0xbca3d70a	-0.02
209	0xbca3d70a	-0.02
210	0xc0800000	-4.0
211	0x3f800000	1.0
212	0xc0e00000	-7.0
213	0x40e00000	7.0
214	0x40400000	3.0
215	0x3f800000	1.0
216	0x3eeb851f	0.46
217	0xbca3d70a	-0.02
218	0xbca3d70a	-0.02
219	0xc0800000	-4.0
220	0x3f800000	1.0
221	0xc0e00000	-7.0
222	0x40e00000	7.0
223	0x40e00000	7.0
224	0xc0e00000	-7.0
225	0x3eeb851f	0.46
226	0xbca3d70a	-0.02
227	0xbca3d70a	-0.02
228	0xc0800000	-4.0
229	0x3f800000	1.0
230	0xc0e00000	-7.0
231	0x40e00000	7.0
232	0x40e00000	7.0
233	0xc0400000	-3.0
234	0x3eeb851f	0.46
235	0xbca3d70a	-0.02
236	0xbca3d70a	-0.02
237	0xc0800000	-4.0
238	0x3f800000	1.0
239	0xc0e00000	-7.0
240	0x40e00000	7.0
241	0x40e00000	7.0
242	0x3f800000	1.0
243	0x3eeb851f	0.46
244	0xbca3d70a	-0.02
245	0xbca3d70a	-0.02
246	0xc0800000	-4.0
247	0x3f800000	1.0
248	0xc0800000	-4.0
249	0xbf800000	-1.0
250	0xbf800000	-1.0
251	0xc0e00000	-7.0
252	0x3eeb851f	0.46
253	0xbca3d70a	-0.02
254	0xbca3d70a	-0.02
255	0xc0800000	-4.0

y f8 [19683]
0	0xc01be96ea0000000	-6.97796106338501
1	0xc024a1fa80000000	-10.316364288330078
2	0xc014a68480000000	-5.162614822387695
3	0xc02ecfea00000000	-15.406082153320312
4	0xc0106223a0000000	-4.095839023590088
5	0xc011bb0200000000	-4.432624816894531
6	0xc01ac60740000000	-6.693387031555176
7	0xc00b30b200000000	-3.3987770080566406
8	0xc0165c00c0000000	-5.589846611022949
9	0xc023f9a8e0000000	-9.987616539001465
10	0xc03424b4c0000000	-20.143383026123047
11	0xc0101d1e00000000	-4.028434753417969
12	0xc035bfa5e0000000	-21.748624801635742
13	0xc0102937a0000000	-4.0402512550354
14	0xc010504e60000000	-4.078423976898193
15	0xc01d14c440000000	-7.270279884338379
16	0xc0094a0be0000000	-3.1611554622650146
17	0xc00e148ee0000000	-3.760038137435913
18	0xc010fa8720000000	-4.244656085968018
19	0xc026c2ca40000000	-11.380449295043945
20	0xc013274500000000	-4.788349151611328
21	0xc01c8c6da0000000	-7.137136936187744
22	0xc0153090c0000000	-5.297427177429199
23	0xc003d2ad60000000	-2.477869749069214
24	0xc017960760000000	-5.896512508392334
25	0xc0079a2a40000000	-2.9502758979797363
26	0xc0019e3400000000	-2.2022476196289062
27	0xc02453ff60000000	-10.164057731628418
28	0xc030399480000000	-16.22492218017578
29	0xc013cb5700000000	-4.948574066162109
30	0xc03766e2c0000000	-23.401897430419922
31	0xc0197f3180000000	-6.374212265014648
32	0xc016e9aa60000000	-5.728188991546631
33	0xc02d3507e0000000	-14.603575706481934
34	0xc00b87fc00000000	-3.4413986206054688
35	0xc00cc24860000000	-3.5948646068573
36	0xc021352ec0000000	-8.603872299194336
37	0xc03498ea80000000	-20.597328186035156
38	0xc037c21560000000	-23.75813865661621
39	0xc0264900c0000000	-11.142583847045898
40	0xc03b6856a0000000	-27.40757179260254
41	0xc00bc2c0e0000000	-3.4700944423675537
42	0xc023dfc2a0000000	-9.937031745910645
43	0xc008f8a920000000	-3.1214163303375244
44	0xc006102c00000000	-2.7578964233398438
45	0xc014d59e60000000	-5.208611965179443
46	0xc025437b80000000	-10.63180160522461
47	0xc00a02c500000000	-3.251352310180664
48	0xc01bd976a0000000	-6.962366580963135
49	0xc008e8d440000000	-3.1136860847473145
50	0xc00687eea0000000	-2.816373109817505
51	0xc015da7cc0000000	-5.463366508483887
52	0xc00877d1a0000000	-3.0585052967071533
53	0xc01f4a7d20000000	-7.822742938995361
54	0xc01b008120000000	-6.750492572784424
55	0xc02a9c60e0000000	-13.305426597595215
56	0xc03aef1980000000	-26.933982849121094
57	0xc022ab0f60000000	-9.334101676940918
58	0xc062c3d480000000	-150.11968994140625
59	0xc02803d0c0000000	-12.007452011108398
60	0xc030d16960000000	-16.81801414489746
61	0xc00609dea0000000	-2.75481915473938
62	0xc009513420000000	-3.1646502017974854
63	0xc001cb0680000000	-2.2241334915161133
64	0xc02f7de0e0000000	-15.745856285095215
65	0xc0192a4b40000000	-6.291302680969238
66	0xc01e047fc0000000	-7.504393577575684
67	0xc003c19c20000000	-2.469536066055298
68	0xc008ac8b40000000	-3.084249973297119
69	0xc00dba54c0000000	-3.715981960296631
70	0xc0085bf200000000	-3.0448951721191406
71	0xc00ead47e0000000	-3.8346097469329834
72	0xc0125a15a0000000	-4.587973117828369
73	0xc01cbf3540000000	-7.1867265701293945
74	0xc010955d00000000	-4.145862579345703
75	0xc01cc4bc20000000	-7.192123889923096
76	0xc00be2fa60000000	-3.4858291149139404
77	0xc009ec4a40000000	-3.2403759956359863
78	0xc0079bf900000000	-2.9511585235595703
79	0xc017cd2e20000000	-5.950371265411377
80	0xc052e2f180000000	-75.54598999023438
81	0xc01de60920000000	-7.474644184112549
82	0xc038144040000000	-24.079105377197266
83	0xc0124c2280000000	-4.574350357055664
84	0xc031c3dfe0000000	-17.765134811401367
85	0xc0121a6140000000	-4.525761604309082
86	0xc016f677c0000000	-5.740691184997559
87	0xc02c29dd60000000	-14.081767082214355
88	0xc0082ec5c0000000	-3.0228381156921387
89	0xc015c6e780000000	-5.444242477416992
90	0xc021225b60000000	-8.567103385925293
91	0xc046a9a000000000	-45.3251953125
92	0xc00f9147a0000000	-3.945937395095825
93	0xc02fda23c0000000	-15.926054000854492
94	0xc010003540000000	-4.0002031326293945
95	0xc00913fc20000000	-3.134758234024048
96	0xc024f61b20000000	-10.48067569732666
97	0xc007208d80000000	-2.890894889831543
98	0xc00b9040c0000000	-3.4454360008239746
99	0xc012b7b800000000	-4.679412841796875
100	0xc0323171e0000000	-18.193143844604492
101	0xc013c5b480000000	-4.943071365356445
102	0xc0245b7380000000	-10.17861557006836
103	0xc0194c0180000000	-6.324224472045898
104	0xc0070db420000000	-2.8816912174224854
105	0xc029178240000000	-12.545915603637695
106	0xc00dbbbb80000000	-3.7166662216186523
107	0xc00fb42960000000	-3.9629695415496826
108	0xc029a028a0000000	-12.812809944152832
109	0xc046189280000000	-44.19197082519531
110	0xc018712840000000	-6.110505104064941
111	0xc043297ae0000000	-38.32406234741211
112	0xc01ea21160000000	-7.65826940536499
113	0xc0200ae4a0000000	-8.021275520324707
114	0xc0398f4300000000	-25.559616088867188
115	0xc00cf2eea0000000	-3.618619203567505
116	0xc00a24af20000000	-3.2679121494293213
117	0xc020671a60000000	-8.201373100280762
118	0xc0387515a0000000	-24.457361221313477
119	0xc021fd87a0000000	-8.9951753616333
120	0xc027632340000000	-11.693628311157227
121	0xc030fb2f00000000	-16.981185913085938
122	0xc0106e27e0000000	-4.107573986053467
123	0xc032479880000000	-18.27967071533203
124	0xc0088e5560000000	-3.0694987773895264
125	0xc00203d6a0000000	-2.2518742084503174
126	0xc0122e5da0000000	-4.545279026031494
127	0xc030755ac0000000	-16.458415985107422
128	0xc0068f7ca0000000	-2.8200619220733643
129	0xc01f72f7c0000000	-7.862273216247559
130	0xc00840a120000000	-3.031557321548462
131	0xc005f57ca0000000	-2.7448666095733643
132	0xc029026c60000000	-12.504733085632324
133	0xc0190e01c0000000	-6.263678550720215
134	0xc04be720a0000000	-55.80568313598633
135	0xc020915200000000	-8.283828735351562
136	0xc033a1f760000000	-19.632680892944336
137	0xc0371af560000000	-23.10530662536621
138	0xc0271ff2a0000000	-11.562397956848145
139	0xc02bba74c0000000	-13.864171981811523
140	0xc01dd885a0000000	-7.461447238922119
141	0xc03e49a080000000	-30.28760528564453
142	0xc0051497a0000000	-2.63505482673645
143	0xc003674140000000	-2.425417423248291
144	0xc0083cf540000000	-3.0297646522521973
145	0xc036af8420000000	-22.685609817504883
146	0xc00b0c14c0000000	-3.380898952484131
147	0xc01564f3e0000000	-5.348586559295654
148	0xc006861de0000000	-2.8154866695404053
149	0xc00a4b9600000000	-3.286907196044922
150	0xc0221cb4a0000000	-9.056065559387207
151	0xc005e0e160000000	-2.73480486869812
152	0xc0106c5c00000000	-4.1058197021484375
153	0xc00e55ab80000000	-3.7918310165405273
154	0xc028709220000000	-12.219864845275879
155	0xc0068bf3e0000000	-2.818336248397827
156	0xc01add8180000000	-6.716314315795898
157	0xc003fcc220000000	-2.4984171390533447
158	0xc0100208a0000000	-4.001986026763916
159	0xc01a012ee0000000	-6.501155376434326
160	0xc02e5e11a0000000	-15.183728218078613
161	0xc062bdb3c0000000	-149.92819213867188
162	0xc00a6b5120000000	-3.302400827407837
163	0xc0323e7680000000	-18.243995666503906
164	0xc00713bba0000000	-2.8846352100372314
165	0xc01eb533a0000000	-7.676954746246338
166	0xc0032e4d00000000	-2.3976078033447266
167	0xc01d926900000000	-7.392978668212891
168	0xc02a151f00000000	-13.041252136230469
169	0xc007ffd180000000	-2.999911308288574
170	0xc015a9c880000000	-5.415803909301758
171	0xc00e97eb40000000	-3.824179172515869
172	0xc0335b01c0000000	-19.35549545288086
173	0xc0018dcca0000000	-2.1942379474639893
174	0xc020729960000000	-8.22382640838623
175	0xc00456e320000000	-2.5424253940582275
176	0xc0190053e0000000	-6.250319957733154
177	0xc03251b000000000	-18.319091796875
178	0xc00270f3c0000000	-2.305152416229248
179	0xc00ffd9d20000000	-3.9988348484039307
180	0xc017bbbd80000000	-5.933340072631836
181	0xc0365644e0000000	-22.33698844909668
182	0xc01eee4fe0000000	-7.732726573944092
183	0xc03a6f8cc0000000	-26.435741424560547
184	0xc0250b4f60000000	-10.522089958190918
185	0xc00dba7b80000000	-3.7160558700561523
186	0xc0330329a0000000	-19.012353897094727
187	0xc008937520000000	-3.072000741958618
188	0xc006d51240000000	-2.854038715362549
189	0xc0195f8700000000	-6.343288421630859
190	0xc035ad3940000000	-21.676654815673828
191	0xc0071feec0000000	-2.890592098236084
192	0xc0315a2260000000	-17.352087020874023
193	0xc009e3c4a0000000	-3.2362148761749268
194	0xc015271be0000000	-5.288192272186279
195	0xc035c0dde0000000	-21.753385543823242
196	0xc00166ee40000000	-2.1752591133117676
197	0xc00b3fa540000000	-3.4060769081115723
198	0xc01784f2e0000000	-5.879832744598389
199	0xc0249ee680000000	-10.310352325439453
200	0xc01f06a780000000	-7.756498336791992
201	0xc021962360000000	-8.793238639831543
202	0xc02aa03880000000	-13.312931060791016
203	0xc02d916f60000000	-14.784052848815918
204	0xc04253ef60000000	-36.65574264526367
205	0xc01788d740000000	-5.883633613586426
206	0xc0094c9980000000	-3.1624021530151367
207	0xc00390b140000000	-2.445650577545166
208	0xc02da01000000000	-14.8126220703125
209	0xc015b73620000000	-5.428917407989502
210	0xc019a0cfa0000000	-6.407042026519775
211	0xc01f2b1320000000	-7.792065143585205
212	0xc01e2c1f20000000	-7.543087482452393
213	0xc04f971900000000	-63.180450439453125
214	0xc013cc62e0000000	-4.949595928192139
215	0xc01793f0c0000000	-5.894473075866699
216	0xc0176e1760000000	-5.857511043548584
217	0xc023743d60000000	-9.727030754089355
218	0xc0242fb920000000	-10.093209266662598
219	0xc020022460000000	-8.004183769226074
220	0xc0269ac1e0000000	-11.302260398864746
221	0xc02f038880000000	-15.506900787353516
222	0xc046eb0000000000	-45.8359375
223	0xc012df0200000000	-4.717781066894531
224	0xc0042a0260000000	-2.520512342453003
225	0xc00022a540000000	-2.0169167518615723
226	0xc01bae7fe0000000	-6.920409679412842
227	0xc011ae0d40000000	-4.4199724197387695
228	0xc00cfbbb40000000	-3.622915744781494
229	0xc02299a0e0000000	-9.300055503845215
230	0xc022cbea80000000	-9.398273468017578
231	0xc048d47360000000	-49.65977096557617
232	0xc00d78c400000000	-3.6839675903320312
233	0xc012213860000000	-4.53244161605835
234	0xc001710980000000	-2.1801939010620117
235	0xc0249bc440000000	-10.304231643676758
236	0xc012ad6e00000000	-4.669364929199219
237	0xc00c5221c0000000	-3.5401034355163574
238	0xc0128a32c0000000	-4.6349592208862305
239	0xc029ec9e60000000	-12.962145805358887
240	0xc034bcb400000000	-20.73712158203125
241	0xc026206e80000000	-11.063343048095703
242	0xc02ada40e0000000	-13.426276206970215
243	0xc01bae12e0000000	-6.919993877410889
244	0xc038488120000000	-24.283220291137695
245	0xc015b7c9e0000000	-5.429481029510498
246	0xc032b19300000000	-18.693649291992188
247	0xc019b4d0c0000000	-6.426577568054199
248	0xc0118453c0000000	-4.379225730895996
249	0xc02af9c5e0000000	-13.487837791442871
250	0xc00e5b1280000000	-3.794468879699707
251	0xc01da07d00000000	-7.406726837158203
252	0xc024925ea0000000	-10.28587818145752
253	0xc04c1bbe80000000	-56.21675109863281
254	0xc014144ea0000000	-5.01983118057251
255	0xc0377d3ba0000000	-23.48919105529785

A f4 [9, 9]
0	0xbfc9a8f2	-1.5754683
1	0xbf3fd881	-0.74939734
2	0xbf26fbc8	-0.6522794
3	0xbfb58ee0	-1.4184227
4	0xbe82ecc7	-0.25571272
5	0xbf093728	-0.53599787
6	0xbf7c6940	-0.985981
7	0xbfe1b49e	-1.7633245
8	0xbf2b5395	-0.6692441
9	0xbf3fd881	-0.74939734
10	0x3e9b757e	0.30363077
11	0xbf4705e2	-0.7774335
12	0xbe836e57	-0.2567012
13	0xbe5f552c	-0.21809834
14	0x3fd710c5	1.6801993
15	0x3e70329a	0.23456803
16	0x3ef4ce06	0.47813433
17	0xbf31c211	-0.69436747
18	0xbf26fbc8	-0.6522794
19	0xbf4705e2	-0.7774335
20	0xbf949525	-1.1608015
21	0x3f306a14	0.6891186
22	0x3e5235ad	0.20528288
23	0x3f5a8c6a	0.85370505
24	0x3e840b53	0.2578989
25	0xbf2537a4	-0.64538026
26	0x3f4cd979	0.80019337
27	0xbfb58ee0	-1.4184227
28	0xbe836e57	-0.2567012
29	0x3f306a14	0.6891186
30	0x3e4702f9	0.19434728
31	0x3e41e0dd	0.18933435
32	0xbcf2a192	-0.029618058
33	0xbd44168c	-0.047873065
34	0xbc97a17e	-0.018509623
35	0xbcd9627c	-0.026536219
36	0xbe82ecc7	-0.25571272
37	0xbe5f552c	-0.21809834
38	0x3e5235ad	0.20528288
39	0x3e41e0dd	0.18933435
40	0x3e6d79ce	0.23190996
41	0x3d45da38	0.048303813
42	0x3db358b7	0.087571554
43	0x3cd0127b	0.025399437
44	0x3c094161	0.008377404
45	0xbf093728	-0.53599787
46	0x3fd710c5	1.6801993
47	0x3f5a8c6a	0.85370505
48	0xbcf2a193	-0.02961806
49	0x3d45da43	0.048303854
50	0xbcb6d346	-0.02231754
51	0xbd744a44	-0.059641138
52	0xbd6d8d39	-0.05799601
53	0xbc6e7df0	-0.014556393
54	0xbf7c6940	-0.985981
55	0x3e70329a	0.23456803
56	0x3e840b53	0.2578989
57	0xbd441694	-0.047873095
58	0x3db358b2	0.08757152
59	0xbd744a41	-0.059641127
60	0xbda5bd9d	-0.080928065
61	0xbd5528d9	-0.05204091
62	0xbd073ba6	-0.03301587
63	0xbfe1b49e	-1.7633245
64	0x3ef4ce06	0.47813433
65	0xbf2537a4	-0.64538026
66	0xbc97a181	-0.018509628
67	0x3cd01288	0.025399461
68	0xbd6d8d35	-0.057995994
69	0xbd5528d2	-0.052040882
70	0xbde539ae	-0.11192642
71	0xba032434	-0.0005002648
72	0xbf2b5396	-0.66924417
73	0xbf31c211	-0.69436747
74	0x3f4cd978	0.8001933
75	0xbcd962b9	-0.026536332
76	0x3c094158	0.008377396
77	0xbc6e7e1a	-0.014556432
78	0xbd073ba8	-0.033015877
79	0xba0324e5	-0.0005002751
80	0xbd3c0277	-0.04590079

B f4 [1, 9]
0	0xbf91a37c	-1.1378016
1	0xbf3a0e5a	-0.7267815
2	0xbf379d3d	-0.717243
3	0x3fc58568	1.5431337
4	0xbe250ce7	-0.16118203
5	0x3ef9de7e	0.4880256
6	0x3e5f2945	0.21793087
7	0x3fd4f503	1.6637272
8	0x3e8b9570	0.2726245

y_pred f4 [19683]
0	0xc108ee99	-8.558251
1	0xc0c392b1	-6.1116567
2	0xc0a44b4b	-5.134191
3	0xc098bec4	-4.773287
4	0xc015ef18	-2.3427181
5	0xbfb0cdb7	-1.3812779
6	0xc09241c3	-4.5705276
7	0xc009fba4	-2.155984
8	0xbf9af3f7	-1.2105702
9	0xc08682e3	-4.2034774
10	0xc0340f72	-2.8134427
11	0xc0391f5a	-2.8925385
12	0xc0055cfe	-2.0838008
13	0xbf35b4f6	-0.7097925
14	0xbf4e0ebe	-0.80491245
15	0xc062f70c	-3.5463285
16	0xc00c0de1	-2.188347
17	0xc0132ae2	-2.2994924
18	0xc01c1346	-2.4386764
19	0xc006bba6	-2.1052032
20	0xc04f6a36	-3.2408576
21	0xbffdfd1f	-1.9842871
22	0xbfd55b05	-1.6668402
23	0xc03462a6	-2.818521
24	0xc0a3965b	-5.112104
25	0xc099f11d	-4.810683
26	0xc0bf4efb	-5.978391
27	0xc0ba545f	-5.822799
28	0xc06e6e9a	-3.7255006
29	0xc0463aae	-3.0973315
30	0xc05b80da	-3.4297395
31	0xbfac9a8b	-1.3484663
32	0xbf3c7fb6	-0.7363237
33	0xc093cde5	-4.6188836
34	0xc0236ecc	-2.5536375
35	0xbffa9009	-1.9575206
36	0xc0399106	-2.8994765
37	0xbfedeb23	-1.8587383
38	0xc0126054	-2.2871294
39	0xc00afd30	-2.1717033
40	0xbf92d0a7	-1.1469926
41	0xbfcbb349	-1.5914088
42	0xc0a0d61f	-5.026138
43	0xc0808ef4	-4.0174503
44	0xc08f4ae5	-4.4778924
45	0xc0243b6a	-2.5661263
46	0xc0253ea6	-2.5819488
47	0xc082240c	-4.0669003
48	0xc0603baa	-3.5036416
49	0xc062457e	-3.5354915
50	0xc0a12ac0	-5.0364685
51	0xc1005fb0	-8.023361
52	0xc10123c8	-8.071236
53	0xc1196970	-9.588242
54	0xc05f506a	-3.489283
55	0xbfdee24b	-1.7412809
56	0xbfbb302b	-1.4624075
57	0xc01f3d7c	-2.4881277
58	0xbf41932e	-0.75615203
59	0xbefc9264	-0.49330437
60	0xc0a236b3	-5.069177
61	0xc0569b46	-3.3532271
62	0xc046cf5c	-3.1064062
63	0xbfffab23	-1.9974102
64	0xbfa729fb	-1.3059686
65	0xc0055aa0	-2.0836563
66	0xc02a56ba	-2.6615434
67	0xbffe3973	-1.9861282
68	0xc031e8ea	-2.779841
69	0xc0dd0d5d	-6.9078813
70	0xc0c7f3a5	-6.248492
71	0xc0e1dd09	-7.058232
72	0xc0461cda	-3.095511
73	0xc05d7af6	-3.46063
74	0xc0a96fa5	-5.2948785
75	0xc0ad990d	-5.424933
76	0xc0b9cb64	-5.806078
77	0xc0f500d4	-7.656351
78	0xc135628b	-11.336558
79	0xc13bbd58	-11.7337265
80	0xc15999b9	-13.60003
81	0xc13bc701	-11.736085
82	0xc1130654	-9.189045
83	0xc101c735	-8.111135
84	0xc0f4ae9f	-7.646316
85	0xc0a3b08d	-5.1153016
86	0xc081b596	-4.0534163
87	0xc0e470a7	-7.1387515
88	0xc093f5dd	-4.6237626
89	0xc064fc62	-3.5779042
90	0xc0ca9251	-6.330361
91	0xc09ae050	-4.839882
92	0xc09a3169	-4.8185315
93	0xc079f9ee	-3.9058795
94	0xc01b9c7c	-2.431426
95	0xc01b4542	-2.4261022
96	0xc0a20909	-5.063603
97	0xc066bb36	-3.6051764
98	0xc0676a8c	-3.615878
99	0xc060ef5e	-3.5146098
100	0xc0452a0e	-3.0806918
101	0xc083b577	-4.1159015
102	0xc03058be	-2.7554164
103	0xc01599fe	-2.337524
104	0xc058e172	-3.38876
105	0xc0b2827d	-5.5784287
106	0xc0a5a662	-5.1765604
107	0xc0c7cd63	-6.2438216
108	0xc1090e1f	-8.565948
109	0xc0cbc855	-6.3682046
110	0xc0b47787	-5.6395907
111	0xc0bbc757	-5.8680835
112	0xc06bed6c	-3.686366
113	0xc03e525e	-2.9737773
114	0xc0d813dd	-6.7524247
115	0xc092c681	-4.5867314
116	0xc078f884	-3.8901682
117	0xc092ef01	-4.5916753
118	0xc05cd4de	-3.4504924
119	0xc071d1f2	-3.778439
120	0xc063c844	-3.5590982
121	0xc01bc5b4	-2.4339418
122	0xc031c956	-2.7779136
123	0xc0c37aaf	-6.108726
124	0xc09ffcaf	-4.999595
125	0xc0ab81c9	-5.359593
126	0xc04d45a6	-3.207376
127	0xc047db30	-3.1227531
128	0xc0903b77	-4.507259
129	0xc075c3fc	-3.840087
130	0xc0716018	-3.77149
131	0xc0a58135	-5.1720223
132	0xc100e14a	-8.055002
133	0xc10009f8	-8.002434
134	0xc116b42f	-9.41899
135	0xc0b98729	-5.797749
136	0xc07cc15a	-3.9493012
137	0xc0647a9c	-3.5699835
138	0xc08fbcbd	-4.4917893
139	0xc02a3314	-2.6593676
140	0xc012f2e8	-2.2960758
141	0xc0d893bd	-6.7680345
142	0xc09e73d2	-4.951638
143	0xc0935702	-4.604371
144	0xc05050b8	-3.2549267
145	0xc01da272	-2.4630399
146	0xc048fa66	-3.140283
147	0xc0674ff4	-3.614255
148	0xc035a842	-2.8383946
149	0xc06206c2	-3.5316625
150	0xc0f1c905	-7.5557885
151	0xc0d97875	-6.795954
152	0xc0f02afd	-7.5052476
153	0xc053553e	-3.3020778
154	0xc06445ac	-3.5667524
155	0xc0a99e27	-5.3005557
156	0xc0aa7447	-5.326694
157	0xc0b36fc6	-5.607394
158	0xc0eb6e5e	-7.3572226
159	0xc12eefad	-10.933515
160	0xc133af12	-11.230242
161	0xc14ff002	-12.996096
162	0xc15ded28	-13.870399
163	0xc133910f	-11.222915
164	0xc120b682	-10.044558
165	0xc1179cfb	-9.475825
166	0xc0db050d	-6.8443666
167	0xc0b5d33c	-5.6820354
168	0xc10a9d84	-8.663456
169	0xc0c18969	-6.0480237
170	0xc09cdae3	-4.9017196
171	0xc0ed3d3f	-7.4137263
172	0xc0ba5462	-5.8228006
173	0xc0b66ea5	-5.7010064
174	0xc095e6ef	-4.68444
175	0xc04702b6	-3.1095405
176	0xc0403dcc	-3.0037718
177	0xc0b13209	-5.537358
178	0xc07e9f82	-3.9784856
179	0xc078e126	-3.888742
180	0xc063027a	-3.5470262
181	0xc040cf72	-3.0126615
182	0xc07ca2a4	-3.9474268
183	0xc01ee9ea	-2.483027
184	0xbffb7aed	-1.9646889
185	0xc03a973a	-2.9154801
186	0xc0a00a19	-5.0012326
187	0xc08ff72b	-4.498922
188	0xc0aee755	-5.465739
189	0xc1243fce	-10.265577
190	0xc0fef4dd	-7.9673905
191	0xc0e46d35	-7.138331
192	0xc0e869c1	-7.2629094
193	0xc09f6246	-4.9807463
194	0xc0855de6	-4.167712
195	0xc0faf54f	-7.842445
196	0xc0b2711d	-5.576308
197	0xc098f007	-4.7793
198	0xc0a7b0ff	-5.240356
199	0xc07feb2a	-3.9987283
200	0xc0873d43	-4.226228
201	0xc079ca54	-3.9029741
202	0xc02b5a0e	-2.6773715
203	0xc03af004	-2.9208994
204	0xc0c4bac1	-6.147797
205	0xc09e05e9	-4.9382215
206	0xc0a65429	-5.1977735
207	0xc03386de	-2.8051066
208	0xc027aeb6	-2.6200385
209	0xc079dcc8	-3.9041004
210	0xc0488346	-3.1330123
211	0xc03db1b4	-2.9639711
212	0xc088732b	-4.2640586
213	0xc0e16145	-7.0431237
214	0xc0dc7bc3	-6.8901076
215	0xc1034cae	-8.206221
216	0xc0e2019a	-7.0626955
217	0xc0a3a448	-5.113804
218	0xc0944a0e	-4.63404
219	0xc0ae7638	-5.451931
220	0xc061385a	-3.5190644
221	0xc0438a7c	-3.0553274
222	0xc0ed8c41	-7.423371
223	0xc0b03581	-5.5065312
224	0xc0a1e1d9	-5.0588193
225	0xc05e02d8	-3.4689236
226	0xc024e6e4	-2.5765924
227	0xc049d126	-3.1533904
228	0xc0618028	-3.523447
229	0xc0296ac4	-2.6471415
230	0xc04f5b92	-3.239964
231	0xc0e52027	-7.160175
232	0xc0c998bf	-6.299896
233	0xc0dd146f	-6.9087443
234	0xc01dc49e	-2.4651256
235	0xc028475a	-2.629355
236	0xc0886823	-4.262712
237	0xc085eb00	-4.1849365
238	0xc08bafa6	-4.3651915
239	0xc0c07769	-6.0145764
240	0xc117ca90	-9.486954
241	0xc11aee84	-9.683231
242	0xc135940a	-11.348642
243	0xc102cf54	-8.175617
244	0xc0c1850f	-6.0474925
245	0xc0ac6e91	-5.388497
246	0xc0939ae9	-4.61266
247	0xc0200932	-2.5005612
248	0xbfedc593	-1.857592
249	0xc0943897	-4.631908
250	0xc0224b22	-2.5358357
251	0xbff45695	-1.9088923
252	0xc08ca63b	-4.395292
253	0xc054b7f6	-3.323728
254	0xc06e29ac	-3.7212934
255	0xc01fd90e	-2.497623
