injector_surrogate/grid.pt (torch, 947031 bytes, 5 tensors)

x f4 [19683, 9]
00000000: 1f85 eb3e 0ad7 a3bc 0ad7 a3bc 0000 80c0
00000010: 0000 803f 0000 e0c0 0000 80bf 0000 80bf
00000020: 0000 e0c0 1f85 eb3e 0ad7 a3bc 0ad7 a3bc
00000030: 0000 80c0 0000 803f 0000 e0c0 0000 80bf
00000040: 0000 80bf 0000 40c0 1f85 eb3e 0ad7 a3bc
00000050: 0ad7 a3bc 0000 80c0 0000 803f 0000 e0c0
00000060: 0000 80bf 0000 80bf 0000 803f 1f85 eb3e
00000070: 0ad7 a3bc 0ad7 a3bc 0000 80c0 0000 803f
00000080: 0000 e0c0 0000 80bf 0000 4040 0000 e0c0
00000090: 1f85 eb3e 0ad7 a3bc 0ad7 a3bc 0000 80c0
000000a0: 0000 803f 0000 e0c0 0000 80bf 0000 4040
000000b0: 0000 40c0 1f85 eb3e 0ad7 a3bc 0ad7 a3bc
000000c0: 0000 80c0 0000 803f 0000 e0c0 0000 80bf
000000d0: 0000 4040 0000 803f 1f85 eb3e 0ad7 a3bc
000000e0: 0ad7 a3bc 0000 80c0 0000 803f 0000 e0c0
000000f0: 0000 80bf 0000 e040 0000 e0c0 1f85 eb3e
00000100: 0ad7 a3bc 0ad7 a3bc 0000 80c0 0000 803f
00000110: 0000 e0c0 0000 80bf 0000 e040 0000 40c0
00000120: 1f85 eb3e 0ad7 a3bc 0ad7 a3bc 0000 80c0
00000130: 0000 803f 0000 e0c0 0000 80bf 0000 e040
00000140: 0000 803f 1f85 eb3e 0ad7 a3bc 0ad7 a3bc
00000150: 0000 80c0 0000 803f 0000 e0c0 0000 4040
00000160: 0000 80bf 0000 e0c0 1f85 eb3e 0ad7 a3bc
00000170: 0ad7 a3bc 0000 80c0 0000 803f 0000 e0c0
00000180: 0000 4040 0000 80bf 0000 40c0 1f85 eb3e
00000190: 0ad7 a3bc 0ad7 a3bc 0000 80c0 0000 803f
000001a0: 0000 e0c0 0000 4040 0000 80bf 0000 803f
000001b0: 1f85 eb3e 0ad7 a3bc 0ad7 a3bc 0000 80c0
000001c0: 0000 803f 0000 e0c0 0000 4040 0000 4040
000001d0: 0000 e0c0 1f85 eb3e 0ad7 a3bc 0ad7 a3bc
000001e0: 0000 80c0 0000 803f 0000 e0c0 0000 4040
000001f0: 0000 4040 0000 40c0 1f85 eb3e 0ad7 a3bc
00000200: 0ad7 a3bc 0000 80c0 0000 803f 0000 e0c0
00000210: 0000 4040 0000 4040 0000 803f 1f85 eb3e
00000220: 0ad7 a3bc 0ad7 a3bc 0000 80c0 0000 803f
00000230: 0000 e0c0 0000 4040 0000 e040 0000 e0c0
00000240: 1f85 eb3e 0ad7 a3bc 0ad7 a3bc 0000 80c0
00000250: 0000 803f 0000 e0c0 0000 4040 0000 e040
00000260: 0000 40c0 1f85 eb3e 0ad7 a3bc 0ad7 a3bc
00000270: 0000 80c0 0000 803f 0000 e0c0 0000 4040
00000280: 0000 e040 0000 803f 1f85 eb3e 0ad7 a3bc
00000290: 0ad7 a3bc 0000 80c0 0000 803f 0000 e0c0
000002a0: 0000 e040 0000 80bf 0000 e0c0 1f85 eb3e
000002b0: 0ad7 a3bc 0ad7 a3bc 0000 80c0 0000 803f
000002c0: 0000 e0c0 0000 e040 0000 80bf 0000 40c0
000002d0: 1f85 eb3e 0ad7 a3bc 0ad7 a3bc 0000 80c0
000002e0: 0000 803f 0000 e0c0 0000 e040 0000 80bf
000002f0: 0000 803f 1f85 eb3e 0ad7 a3bc 0ad7 a3bc
00000300: 0000 80c0 0000 803f 0000 e0c0 0000 e040
00000310: 0000 4040 0000 e0c0 1f85 eb3e 0ad7 a3bc
00000320: 0ad7 a3bc 0000 80c0 0000 803f 0000 e0c0
00000330: 0000 e040 0000 4040 0000 40c0 1f85 eb3e
00000340: 0ad7 a3bc 0ad7 a3bc 0000 80c0 0000 803f
00000350: 0000 e0c0 0000 e040 0000 4040 0000 803f
00000360: 1f85 eb3e 0ad7 a3bc 0ad7 a3bc 0000 80c0
00000370: 0000 803f 0000 e0c0 0000 e040 0000 e040
00000380: 0000 e0c0 1f85 eb3e 0ad7 a3bc 0ad7 a3bc
00000390: 0000 80c0 0000 803f 0000 e0c0 0000 e040
000003a0: 0000 e040 0000 40c0 1f85 eb3e 0ad7 a3bc
000003b0: 0ad7 a3bc 0000 80c0 0000 803f 0000 e0c0
000003c0: 0000 e040 0000 e040 0000 803f 1f85 eb3e
000003d0: 0ad7 a3bc 0ad7 a3bc 0000 80c0 0000 803f
000003e0: 0000 80c0 0000 80bf 0000 80bf 0000 e0c0
000003f0: 1f85 eb3e 0ad7 a3bc 0ad7 a3bc 0000 80c0
0.46 -0.02 -0.02 -4.0 1.0 -7.0 -1.0 -1.0
-7.0 0.46 -0.02 -0.02 -4.0 1.0 -7.0 -1.0
-1.0 -3.0 0.46 -0.02 -0.02 -4.0 1.0 -7.0
-1.0 -1.0 1.0 0.46 -0.02 -0.02 -4.0 1.0
-7.0 -1.0 3.0 -7.0 0.46 -0.02 -0.02 -4.0
1.0 -7.0 -1.0 3.0 -3.0 0.46 -0.02 -0.02
-4.0 1.0 -7.0 -1.0 3.0 1.0 0.46 -0.02
-0.02 -4.0 1.0 -7.0 -1.0 7.0 -7.0 0.46
-0.02 -0.02 -4.0 1.0 -7.0 -1.0 7.0 -3.0
0.46 -0.02 -0.02 -4.0 1.0 -7.0 -1.0 7.0
1.0 0.46 -0.02 -0.02 -4.0 1.0 -7.0 3.0
-1.0 -7.0 0.46 -0.02 -0.02 -4.0 1.0 -7.0
3.0 -1.0 -3.0 0.46 -0.02 -0.02 -4.0 1.0
-7.0 3.0 -1.0 1.0 0.46 -0.02 -0.02 -4.0
1.0 -7.0 3.0 3.0 -7.0 0.46 -0.02 -0.02
-4.0 1.0 -7.0 3.0 3.0 -3.0 0.46 -0.02
-0.02 -4.0 1.0 -7.0 3.0 3.0 1.0 0.46
-0.02 -0.02 -4.0 1.0 -7.0 3.0 7.0 -7.0
0.46 -0.02 -0.02 -4.0 1.0 -7.0 3.0 7.0
-3.0 0.46 -0.02 -0.02 -4.0 1.0 -7.0 3.0
7.0 1.0 0.46 -0.02 -0.02 -4.0 1.0 -7.0
7.0 -1.0 -7.0 0.46 -0.02 -0.02 -4.0 1.0
-7.0 7.0 -1.0 -3.0 0.46 -0.02 -0.02 -4.0
1.0 -7.0 7.0 -1.0 1.0 0.46 -0.02 -0.02
-4.0 1.0 -7.0 7.0 3.0 -7.0 0.46 -0.02
-0.02 -4.0 1.0 -7.0 7.0 3.0 -3.0 0.46
-0.02 -0.02 -4.0 1.0 -7.0 7.0 3.0 1.0
0.46 -0.02 -0.02 -4.0 1.0 -7.0 7.0 7.0
-7.0 0.46 -0.02 -0.02 -4.0 1.0 -7.0 7.0
7.0 -3.0 0.46 -0.02 -0.02 -4.0 1.0 -7.0
7.0 7.0 1.0 0.46 -0.02 -0.02 -4.0 1.0
-4.0 -1.0 -1.0 -7.0 0.46 -0.02 -0.02 -4.0

y f8 [19683]
00000000: 0000 00a0 6ee9 1bc0 0000 0080 faa1 24c0
00000010: 0000 0080 84a6 14c0 0000 0000 eacf 2ec0
00000020: 0000 00a0 2362 10c0 0000 0000 02bb 11c0
00000030: 0000 0040 07c6 1ac0 0000 0000 b230 0bc0
00000040: 0000 00c0 005c 16c0 0000 00e0 a8f9 23c0
00000050: 0000 00c0 b424 34c0 0000 0000 1e1d 10c0
00000060: 0000 00e0 a5bf 35c0 0000 00a0 3729 10c0
00000070: 0000 0060 4e50 10c0 0000 0040 c414 1dc0
00000080: 0000 00e0 0b4a 09c0 0000 00e0 8e14 0ec0
00000090: 0000 0020 87fa 10c0 0000 0040 cac2 26c0
000000a0: 0000 0000 4527 13c0 0000 00a0 6d8c 1cc0
000000b0: 0000 00c0 9030 15c0 0000 0060 add2 03c0
000000c0: 0000 0060 0796 17c0 0000 0040 2a9a 07c0
000000d0: 0000 0000 349e 01c0 0000 0060 ff53 24c0
000000e0: 0000 0080 9439 30c0 0000 0000 57cb 13c0
000000f0: 0000 00c0 e266 37c0 0000 0080 317f 19c0
00000100: 0000 0060 aae9 16c0 0000 00e0 0735 2dc0
00000110: 0000 0000 fc87 0bc0 0000 0060 48c2 0cc0
00000120: 0000 00c0 2e35 21c0 0000 0080 ea98 34c0
00000130: 0000 0060 15c2 37c0 0000 00c0 0049 26c0
00000140: 0000 00a0 5668 3bc0 0000 00e0 c0c2 0bc0
00000150: 0000 00a0 c2df 23c0 0000 0020 a9f8 08c0
00000160: 0000 0000 2c10 06c0 0000 0060 9ed5 14c0
00000170: 0000 0080 7b43 25c0 0000 0000 c502 0ac0
00000180: 0000 00a0 76d9 1bc0 0000 0040 d4e8 08c0
00000190: 0000 00a0 ee87 06c0 0000 00c0 7cda 15c0
000001a0: 0000 00a0 d177 08c0 0000 0020 7d4a 1fc0
000001b0: 0000 0020 8100 1bc0 0000 00e0 609c 2ac0
000001c0: 0000 0080 19ef 3ac0 0000 0060 0fab 22c0
000001d0: 0000 0080 d4c3 62c0 0000 00c0 d003 28c0
000001e0: 0000 0060 69d1 30c0 0000 00a0 de09 06c0
000001f0: 0000 0020 3451 09c0 0000 0080 06cb 01c0
00000200: 0000 00e0 e07d 2fc0 0000 0040 4b2a 19c0
00000210: 0000 00c0 7f04 1ec0 0000 0020 9cc1 03c0
00000220: 0000 0040 8bac 08c0 0000 00c0 54ba 0dc0
00000230: 0000 0000 f25b 08c0 0000 00e0 47ad 0ec0
00000240: 0000 00a0 155a 12c0 0000 0040 35bf 1cc0
00000250: 0000 0000 5d95 10c0 0000 0020 bcc4 1cc0
00000260: 0000 0060 fae2 0bc0 0000 0040 4aec 09c0
00000270: 0000 0000 f99b 07c0 0000 0020 2ecd 17c0
00000280: 0000 0080 f1e2 52c0 0000 0020 09e6 1dc0
00000290: 0000 0040 4014 38c0 0000 0080 224c 12c0
000002a0: 0000 00e0 dfc3 31c0 0000 0040 611a 12c0
000002b0: 0000 00c0 77f6 16c0 0000 0060 dd29 2cc0
000002c0: 0000 00c0 c52e 08c0 0000 0080 e7c6 15c0
000002d0: 0000 0060 5b22 21c0 0000 0000 a0a9 46c0
000002e0: 0000 00a0 4791 0fc0 0000 00c0 23da 2fc0
000002f0: 0000 0040 3500 10c0 0000 0020 fc13 09c0
00000300: 0000 0020 1bf6 24c0 0000 0080 8d20 07c0
00000310: 0000 00c0 4090 0bc0 0000 0000 b8b7 12c0
00000320: 0000 00e0 7131 32c0 0000 0080 b4c5 13c0
00000330: 0000 0080 735b 24c0 0000 0080 014c 19c0
00000340: 0000 0020 b40d 07c0 0000 0040 8217 29c0
00000350: 0000 0080 bbbb 0dc0 0000 0060 29b4 0fc0
00000360: 0000 00a0 28a0 29c0 0000 0080 9218 46c0
00000370: 0000 0040 2871 18c0 0000 00e0 7a29 43c0
00000380: 0000 0060 11a2 1ec0 0000 00a0 e40a 20c0
00000390: 0000 0000 438f 39c0 0000 00a0 eef2 0cc0
000003a0: 0000 0020 af24 0ac0 0000 0060 1a67 20c0
000003b0: 0000 00a0 1575 38c0 0000 00a0 87fd 21c0
000003c0: 0000 0040 2363 27c0 0000 0000 2ffb 30c0
000003d0: 0000 00e0 276e 10c0 0000 0080 9847 32c0
000003e0: 0000 0060 558e 08c0 0000 00a0 d603 02c0
000003f0: 0000 00a0 5d2e 12c0 0000 00c0 5a75 30c0
00000400: 0000 00a0 7c8f 06c0 0000 00c0 f772 1fc0
00000410: 0000 0020 a140 08c0 0000 00a0 7cf5 05c0
00000420: 0000 0060 6c02 29c0 0000 00c0 010e 19c0
00000430: 0000 00a0 20e7 4bc0 0000 0000 5291 20c0
00000440: 0000 0060 f7a1 33c0 0000 0060 f51a 37c0
00000450: 0000 00a0 f21f 27c0 0000 00c0 74ba 2bc0
00000460: 0000 00a0 85d8 1dc0 0000 0080 a049 3ec0
00000470: 0000 00a0 9714 05c0 0000 0040 4167 03c0
00000480: 0000 0040 f53c 08c0 0000 0020 84af 36c0
00000490: 0000 00c0 140c 0bc0 0000 00e0 f364 15c0
000004a0: 0000 00e0 1d86 06c0 0000 0000 964b 0ac0
000004b0: 0000 00a0 b41c 22c0 0000 0060 e1e0 05c0
000004c0: 0000 0000 5c6c 10c0 0000 0080 ab55 0ec0
000004d0: 0000 0020 9270 28c0 0000 00e0 f38b 06c0
000004e0: 0000 0080 81dd 1ac0 0000 0020 c2fc 03c0
000004f0: 0000 00a0 0802 10c0 0000 00e0 2e01 1ac0
00000500: 0000 00a0 115e 2ec0 0000 00c0 b3bd 62c0
00000510: 0000 0020 516b 0ac0 0000 0080 763e 32c0
00000520: 0000 00a0 bb13 07c0 0000 00a0 33b5 1ec0
00000530: 0000 0000 4d2e 03c0 0000 0000 6992 1dc0
00000540: 0000 0000 1f15 2ac0 0000 0080 d1ff 07c0
00000550: 0000 0080 c8a9 15c0 0000 0040 eb97 0ec0
00000560: 0000 00c0 015b 33c0 0000 00a0 cc8d 01c0
00000570: 0000 0060 9972 20c0 0000 0020 e356 04c0
00000580: 0000 00e0 5300 19c0 0000 0000 b051 32c0
00000590: 0000 00c0 f370 02c0 0000 0020 9dfd 0fc0
000005a0: 0000 0080 bdbb 17c0 0000 00e0 4456 36c0
000005b0: 0000 00e0 4fee 1ec0 0000 00c0 8c6f 3ac0
000005c0: 0000 0060 4f0b 25c0 0000 0080 7bba 0dc0
000005d0: 0000 00a0 2903 33c0 0000 0020 7593 08c0
000005e0: 0000 0040 12d5 06c0 0000 0000 875f 19c0
000005f0: 0000 0040 39ad 35c0 0000 00c0 ee1f 07c0
00000600: 0000 0060 225a 31c0 0000 00a0 c4e3 09c0
00000610: 0000 00e0 1b27 15c0 0000 00e0 ddc0 35c0
00000620: 0000 0040 ee66 01c0 0000 0040 a53f 0bc0
00000630: 0000 00e0 f284 17c0 0000 0080 e69e 24c0
00000640: 0000 0080 a706 1fc0 0000 0060 2396 21c0
00000650: 0000 0080 38a0 2ac0 0000 0060 6f91 2dc0
00000660: 0000 0060 ef53 42c0 0000 0040 d788 17c0
00000670: 0000 0080 994c 09c0 0000 0040 b190 03c0
00000680: 0000 0000 10a0 2dc0 0000 0020 36b7 15c0
00000690: 0000 00a0 cfa0 19c0 0000 0020 132b 1fc0
000006a0: 0000 0020 1f2c 1ec0 0000 0000 1997 4fc0
000006b0: 0000 00e0 62cc 13c0 0000 00c0 f093 17c0
000006c0: 0000 0060 176e 17c0 0000 0060 3d74 23c0
000006d0: 0000 0020 b92f 24c0 0000 0060 2402 20c0
000006e0: 0000 00e0 c19a 26c0 0000 0080 8803 2fc0
000006f0: 0000 0000 00eb 46c0 0000 0000 02df 12c0
00000700: 0000 0060 022a 04c0 0000 0040 a522 00c0
00000710: 0000 00e0 7fae 1bc0 0000 0040 0dae 11c0
00000720: 0000 0040 bbfb 0cc0 0000 00e0 a099 22c0
00000730: 0000 0080 eacb 22c0 0000 0060 73d4 48c0
00000740: 0000 0000 c478 0dc0 0000 0060 3821 12c0
00000750: 0000 0080 0971 01c0 0000 0040 c49b 24c0
00000760: 0000 0000 6ead 12c0 0000 00c0 2152 0cc0
00000770: 0000 00c0 328a 12c0 0000 0060 9eec 29c0
00000780: 0000 0000 b4bc 34c0 0000 0080 6e20 26c0
00000790: 0000 00e0 40da 2ac0 0000 00e0 12ae 1bc0
000007a0: 0000 0020 8148 38c0 0000 00e0 c9b7 15c0
000007b0: 0000 0000 93b1 32c0 0000 00c0 d0b4 19c0
000007c0: 0000 00c0 5384 11c0 0000 00e0 c5f9 2ac0
000007d0: 0000 0080 125b 0ec0 0000 0000 7da0 1dc0
000007e0: 0000 00a0 5e92 24c0 0000 0080 be1b 4cc0
000007f0: 0000 00a0 4e14 14c0 0000 00a0 3b7d 37c0
-6.97796106338501 -10.316364288330078 -5.162614822387695 -15.406082153320312 -4.095839023590088 -4.432624816894531 -6.693387031555176 -3.3987770080566406
-5.589846611022949 -9.987616539001465 -20.143383026123047 -4.028434753417969 -21.748624801635742 -4.0402512550354 -4.078423976898193 -7.270279884338379
-3.1611554622650146 -3.760038137435913 -4.244656085968018 -11.380449295043945 -4.788349151611328 -7.137136936187744 -5.297427177429199 -2.477869749069214
-5.896512508392334 -2.9502758979797363 -2.2022476196289062 -10.164057731628418 -16.22492218017578 -4.948574066162109 -23.401897430419922 -6.374212265014648
-5.728188991546631 -14.603575706481934 -3.4413986206054688 -3.5948646068573 -8.603872299194336 -20.597328186035156 -23.75813865661621 -11.142583847045898
-27.40757179260254 -3.4700944423675537 -9.937031745910645 -3.1214163303375244 -2.7578964233398438 -5.208611965179443 -10.63180160522461 -3.251352310180664
-6.962366580963135 -3.1136860847473145 -2.816373109817505 -5.463366508483887 -3.0585052967071533 -7.822742938995361 -6.750492572784424 -13.305426597595215
-26.933982849121094 -9.334101676940918 -150.11968994140625 -12.007452011108398 -16.81801414489746 -2.75481915473938 -3.1646502017974854 -2.2241334915161133
-15.745856285095215 -6.291302680969238 -7.504393577575684 -2.469536066055298 -3.084249973297119 -3.715981960296631 -3.0448951721191406 -3.8346097469329834
-4.587973117828369 -7.1867265701293945 -4.145862579345703 -7.192123889923096 -3.4858291149139404 -3.2403759956359863 -2.9511585235595703 -5.950371265411377
-75.54598999023438 -7.474644184112549 -24.079105377197266 -4.574350357055664 -17.765134811401367 -4.525761604309082 -5.740691184997559 -14.081767082214355
-3.0228381156921387 -5.444242477416992 -8.567103385925293 -45.3251953125 -3.945937395095825 -15.926054000854492 -4.0002031326293945 -3.134758234024048
-10.48067569732666 -2.890894889831543 -3.4454360008239746 -4.679412841796875 -18.193143844604492 -4.943071365356445 -10.17861557006836 -6.324224472045898
-2.8816912174224854 -12.545915603637695 -3.7166662216186523 -3.9629695415496826 -12.812809944152832 -44.19197082519531 -6.110505104064941 -38.32406234741211
-7.65826940536499 -8.021275520324707 -25.559616088867188 -3.618619203567505 -3.2679121494293213 -8.201373100280762 -24.457361221313477 -8.9951753616333
-11.693628311157227 -16.981185913085938 -4.107573986053467 -18.27967071533203 -3.0694987773895264 -2.2518742084503174 -4.545279026031494 -16.458415985107422
-2.8200619220733643 -7.862273216247559 -3.031557321548462 -2.7448666095733643 -12.504733085632324 -6.263678550720215 -55.80568313598633 -8.283828735351562
-19.632680892944336 -23.10530662536621 -11.562397956848145 -13.864171981811523 -7.461447238922119 -30.28760528564453 -2.63505482673645 -2.425417423248291
-3.0297646522521973 -22.685609817504883 -3.380898952484131 -5.348586559295654 -2.8154866695404053 -3.286907196044922 -9.056065559387207 -2.73480486869812
-4.1058197021484375 -3.7918310165405273 -12.219864845275879 -2.818336248397827 -6.716314315795898 -2.4984171390533447 -4.001986026763916 -6.501155376434326
-15.183728218078613 -149.92819213867188 -3.302400827407837 -18.243995666503906 -2.8846352100372314 -7.676954746246338 -2.3976078033447266 -7.392978668212891
-13.041252136230469 -2.999911308288574 -5.415803909301758 -3.824179172515869 -19.35549545288086 -2.1942379474639893 -8.22382640838623 -2.5424253940582275
-6.250319957733154 -18.319091796875 -2.305152416229248 -3.9988348484039307 -5.933340072631836 -22.33698844909668 -7.732726573944092 -26.435741424560547
-10.522089958190918 -3.7160558700561523 -19.012353897094727 -3.072000741958618 -2.854038715362549 -6.343288421630859 -21.676654815673828 -2.890592098236084
-17.352087020874023 -3.2362148761749268 -5.288192272186279 -21.753385543823242 -2.1752591133117676 -3.4060769081115723 -5.879832744598389 -10.310352325439453
-7.756498336791992 -8.793238639831543 -13.312931060791016 -14.784052848815918 -36.65574264526367 -5.883633613586426 -3.1624021530151367 -2.445650577545166
-14.8126220703125 -5.428917407989502 -6.407042026519775 -7.792065143585205 -7.543087482452393 -63.180450439453125 -4.949595928192139 -5.894473075866699
-5.857511043548584 -9.727030754089355 -10.093209266662598 -8.004183769226074 -11.302260398864746 -15.506900787353516 -45.8359375 -4.717781066894531
-2.520512342453003 -2.0169167518615723 -6.920409679412842 -4.4199724197387695 -3.622915744781494 -9.300055503845215 -9.398273468017578 -49.65977096557617
-3.6839675903320312 -4.53244161605835 -2.1801939010620117 -10.304231643676758 -4.669364929199219 -3.5401034355163574 -4.6349592208862305 -12.962145805358887
-20.73712158203125 -11.063343048095703 -13.426276206970215 -6.919993877410889 -24.283220291137695 -5.429481029510498 -18.693649291992188 -6.426577568054199
-4.379225730895996 -13.487837791442871 -3.794468879699707 -7.406726837158203 -10.28587818145752 -56.21675109863281 -5.01983118057251 -23.48919105529785

A f4 [9, 9]
00000000: 1cdd 4e3e cb3e 323e 85a8 44bb 8b0e f13f
00000010: 8998 b2bf 421d d53d aa3e 85bf 0491 87bf
00000020: b592 46bf cb3e 323e 1dce 613e da64 a7bc
00000030: e98c aebf ab1a b7bf cb5e 9d3f 6a1a 0ec0
00000040: 7637 04c0 7e4b f43f 84a8 44bb da64 a7bc
00000050: 0ad2 9b3f 0bd0 7dbe 677b f13e 247e 6bbf
00000060: 4347 62be be70 43bf c986 ed3e 8b0e f13f
00000070: e98c aebf 0bd0 7dbe 1938 953e e23f 473e
00000080: e56d 15bd 23ac 8ebd b963 8dbd 73b7 e1bc
00000090: 8998 b2bf ab1a b7bf 677b f13e e23f 473e
000000a0: 5090 df3e 55ae 8b3d 2f76 d73d a8f8 923d
000000b0: 1429 5e3c 451d d53d cb5e 9d3f 247e 6bbf
000000c0: e36d 15bd 69ae 8b3d 6c24 133d b744 89bd
000000d0: 3e02 9dbd 3023 84bc aa3e 85bf 6a1a 0ec0
000000e0: 4347 62be 22ac 8ebd 2f76 d73d b544 89bd
000000f0: 8daa a3bb aa84 23bd 23fd 15bd 0391 87bf
00000100: 7637 04c0 be70 43bf b963 8dbd adf8 923d
00000110: 3302 9dbd ac84 23bd 2511 1c3b ec01 11bc
00000120: b692 46bf 7e4b f43f c986 ed3e a1b7 e1bc
00000130: eb28 5e3c 2823 84bc 1ffd 15bd e701 11bc
00000140: af37 e3b9
0.20201534 0.17406766 -0.0030007672 1.8832563 -1.39528 0.10405971 -1.0409749 -1.059113
-0.7756761 0.17406766 0.22051282 -0.020433832 -1.3636752 -1.4305013 1.2294554 -2.2203622
-2.065885 1.9085538 -0.003000767 -0.020433832 1.2173474 -0.24786393 0.4716446 -0.9198935
-0.22097497 -0.76343906 0.46391895 1.8832563 -1.3636752 -0.24786393 0.29144362 0.19457963
-0.036481757 -0.06966426 -0.06903786 -0.027553296 -1.39528 -1.4305013 0.4716446 0.19457963
0.4366479 0.068203606 0.105205886 0.07176334 0.0135595985 0.10405973 1.2294554 -0.9198935
-0.03648175 0.068203755 0.035923406 -0.067025594 -0.07666443 -0.01613006 -1.0409749 -2.2203622
-0.22097497 -0.069664255 0.105205886 -0.06702558 -0.0049946965 -0.03992144 -0.036618363 -1.0591129
-2.065885 -0.76343906 -0.06903786 0.071763374 -0.07666435 -0.039921448 0.002381393 -0.008850556
-0.77567613 1.9085538 0.46391895 -0.027553381 0.01355956 -0.016130045 -0.03661835 -0.008850551
-0.00043338301

B f4 [1, 9]
00000000: e91e 0040 8058 4240 bd18 bebe 45f6 72bf
00000010: bcfc 45bd d33e 8c3e 6e76 07bf 470b f1be
00000020: 7aed 233f
2.0018866 3.0366516 -0.3712825 -0.9490703 -0.04833673 0.2739168 -0.52915084 -0.47078916
0.64034235

y_pred f4 [19683]
00000000: bccb eec0 e889 bbc0 d5b6 88c0 3a29 9cc0
00000010: d0ef 63c0 ac6a 10c0 d525 0ec0 64c8 97bf
00000020: 4301 28be b55c 77c0 97d8 5bc0 f831 41c0
00000030: e1d8 23c0 c575 1ac0 2cf0 11c0 eada 96bf
00000040: b256 a8bf 8c8d bbbf 989f dabe b59e 95bf
00000050: 9450 f6bf 988a ccbe 7a5b b6bf afa7 1dc0
00000060: 8838 97be 0249 cdbf 763f 3bc0 cf0c 98c0
00000070: 295c 62c0 377c 15c0 7a4b 80c0 83fa 44c0
00000080: 973b 0ac0 b02c 4cc0 40b1 22c0 ae26 f4bf
00000090: 6cd3 30c0 7d15 2ec0 1535 2cc0 f611 53c0
000000a0: 0c75 62c0 a8b5 72c0 e168 70c0 7cf6 88c0
000000b0: 4d27 9ac0 ecfc 6ebf d900 04c0 f61f 4dc0
000000c0: f7be 2fc0 cb10 85c0 dcb0 b2c0 886b 8fc0
000000d0: 5bad c5c0 ea5d fcc0 4e70 b2bf 9403 11bf
000000e0: 918d 7d3e dd77 1fc0 4043 f9bf c251 b5bf
000000f0: f3cf 60c0 b81a 50c0 0143 40c0 10cd 81bf
00000100: a2dd adbf 2ea9 dbbf 71e7 58c0 5b88 80c0
00000110: c40b 95c0 5b00 b6c0 8125 d3c0 6bb9 f0c0
00000120: a01b 4bbf bdce 13c0 0db4 75c0 7e44 8ec0
00000130: ead8 c7c0 0bee 00c1 df58 00c1 51ab 21c1
00000140: 2a35 43c1 9d18 3bc1 69dd 1ec1 97d9 02c1
00000150: c3ff 03c1 9e99 d8c0 7aa2 a9c0 fe59 97c0
00000160: 3709 62c0 f63b 16c0 e3ac dac0 3eb6 c7c0
00000170: 5f2e b5c0 c45b 95c0 a675 8bc0 42fe 81c0
00000180: b12d 1bc0 7582 19c0 b6b4 18c0 1683 08c0
00000190: 5b95 2dc0 2485 53c0 1e44 9fbf 4ed5 06c0
000001a0: 1ee6 3ec0 08cb 8ebe 525b b6bf 7d5f 25c0
000001b0: d7e6 05c1 5fba dfc0 d415 b4c0 257d d8c0
000001c0: 5a7a b5c0 50e6 92c0 ceb8 a2c0 84c6 88c0
000001d0: f985 5ec0 a0c3 a3c0 1630 9dc0 500b 97c0
000001e0: b053 99c0 a7d0 9bc0 62bc 9ec0 f16f 8cc0
000001f0: 6cfd 97c0 a7f9 a3c0 20a5 01c0 987d 3fc0
00000200: 9733 7ec0 7386 3ec0 f43f 87c0 76ab afc0
00000210: 2580 76c0 504d acc0 56c9 ddc0 53b8 8cc0
00000220: 4110 5ac0 5f8d 1bc0 f848 94c0 8d52 7bc0
00000230: b1f0 4ec0 d065 99c0 a2d6 8bc0 616c 7dc0
00000240: 1d51 30c0 3ef0 3bc0 e36c 48c0 cc99 88c0
00000250: de79 97c0 b2c8 a6c0 3b97 b6c0 d087 cec0
00000260: 28e7 e6c0 22c7 a2bf 3b02 28c0 697e 7fc0
00000270: 9f03 82c0 7663 b6c0 1132 ebc0 a5e1 d8c0
00000280: 0029 0bc1 8f18 2ac1 015b 5fc1 8485 40c1
00000290: 69e7 21c1 8c7a 1ac1 4f2d 00c1 ea2e ccc0
000002a0: 5bc0 a8c0 cb6c 7ac0 6436 24c0 b4ca fac0
000002b0: 7e9f e2c0 0ce3 cac0 61ea 99c0 adcf 8ac0
000002c0: 7b47 78c0 0259 dabf 3c30 c2bf 73c2 abbf
000002d0: 9ae1 efbf e699 12c0 8e20 2ec0 9e2a febd
000002e0: cced 52bf 3cc6 c4bf 6eeb d93f 6c2a 383f
000002f0: 90f0 8dbe eb56 20c1 fbb2 07c1 da8c dec0
00000300: 18ce f1c0 ba96 c9c0 21ce a1c0 8b7a a0c0
00000310: b253 81c0 3137 45c0 d23c b0c0 b674 a4c0
00000320: 5c1b 99c0 aa3d 8ac0 1386 87c0 383d 85c0
00000330: 7195 43c0 4347 50c0 92d6 5dc0 3693 93bf
00000340: ce71 fabf c185 31c0 0219 9fbf cf1c 15c0
00000350: ae8a 5bc0 8acf a0bf 1b19 28c0 fe53 80c0
00000360: dcf3 adc0 160f 89c0 2b32 49c0 4cf5 99c0
00000370: 1542 7cc0 0f77 45c0 ee82 83c0 5a7e 61c0
00000380: 5bd4 3cc0 41fa 21c0 4030 23c0 bc43 25c0
00000390: 54be 4bc0 5615 5fc0 d649 73c0 c49a 70c0
000003a0: 6609 8bc0 2a34 9ec0 7113 5c3e 28d1 79bf
000003b0: 5787 0bc0 1688 dbbf 8f1a 4cc0 50a7 95c0
000003c0: b061 64c0 9d6c aac0 2717 e3c0 7aff d5c0
000003d0: 3b52 adc0 be13 85c0 e0df 9dc0 4986 7cc0
000003e0: 532a 3ec0 ed98 46c0 7980 19c0 0c8b dabf
000003f0: 9b45 7bc0 a7ea 74c0 376d 6fc0 99c7 5cc0
-7.46237 -5.8605843 -4.2723184 -4.8800325 -3.561512 -2.2565107 -2.221059 -1.1858029
-0.16406731 -3.8650334 -3.4350946 -3.0186749 -2.5601122 -2.413438 -2.280284 -1.1785557
-1.3151457 -1.4652572 -0.42699885 -1.1689059 -1.924334 -0.3994949 -1.4246666 -2.4633596
-0.29535317 -1.6037905 -2.9257483 -4.7515635 -3.536875 -2.3357065 -4.0092134 -3.07779
-2.159887 -3.1902275 -2.5420685 -1.9074304 -2.7629042 -2.7200615 -2.6907399 -3.2979712
-3.538394 -3.7923374 -3.7564013 -4.2800884 -4.8172975 -0.9335468 -2.0625517 -3.2050757
-2.7460306 -4.1583 -5.5840893 -4.4818764 -6.1774116 -7.886464 -1.3940523 -0.56646085
0.24761035 -2.4916909 -1.9473648 -1.4165576 -3.5126922 -3.2516308 -3.0040896 -1.0140705
-1.3583262 -1.7161005 -3.389126 -4.016645 -4.657686 -5.6875434 -6.598328 -7.522634
-0.7933903 -2.3094933 -3.8391144 -4.445861 -6.245229 -8.058116 -8.021697 -10.104325
-12.2004795 -11.693509 -9.929055 -8.1781225 -8.249942 -6.768752 -5.3010836 -4.7297354
-3.5318124 -2.3474097 -6.8336043 -6.2409964 -5.6619105 -4.667452 -4.3581114 -4.0622873
-2.4246638 -2.3985875 -2.3860297 -2.1330009 -2.712241 -3.3050013 -1.2442663 -2.106769
-2.9827952 -0.27889276 -1.4246619 -2.5839531 -8.368857 -6.9915004 -5.6276646 -6.7652764
-5.6711855 -4.5906143 -5.085059 -4.274233 -3.476927 -5.11763 -4.91212 -4.720131
-4.7914658 -4.8692203 -4.960496 -4.3886647 -4.7496853 -5.124225 -2.0257034 -2.9920406
-3.9718988 -2.9769561 -4.226557 -5.4896803 -3.8515713 -5.3844376 -6.930827 -4.3975005
-3.407242 -2.4305036 -4.6339073 -3.9269135 -3.2334406 -4.7936783 -4.3699503 -3.95974
-2.7549508 -2.9365382 -3.131646 -4.268774 -4.7336264 -5.211999 -5.7059608 -6.4540787
-7.2157173 -1.271702 -2.6251361 -3.9920905 -4.062942 -5.699641 -7.3498616 -6.7775445
-8.69751 -10.630996 -13.959718 -12.032597 -10.118997 -9.654919 -8.011062 -6.380727
-5.273481 -3.9128902 -2.5658197 -7.837244 -7.0819693 -6.3402157 -4.8098607 -4.337851
-3.8793628 -1.7058413 -1.517097 -1.3418716 -1.8740723 -2.2906432 -2.720737 -0.12410472
-0.823941 -1.5372996 1.7024972 0.7193973 -0.27722597 -10.02122 -8.481196 -6.954694
-7.556408 -6.2996492 -5.056412 -5.014959 -4.0414667 -3.0814936 -5.5074244 -5.139247
-4.78459 -4.3200274 -4.2351165 -4.163723 -3.0559962 -3.2543495 -3.4662213 -1.15293
-1.956598 -2.7737887 -1.2429507 -2.3298833 -3.4303393 -1.2563336 -2.6265323 -4.010253
-5.436018 -4.2830915 -3.143687 -4.8111935 -3.9415333 -3.0853918 -4.1097326 -3.523337
-2.9504611 -2.5308993 -2.54982 -2.5822592 -3.1834917 -3.4856772 -3.8013816 -3.7594461
-4.3448973 -4.9438677 0.21491791 -0.9758477 -2.1801355 -1.7150905 -3.189121 -4.676674
-3.5684624 -5.3257585 -7.096576 -6.687436 -5.416288 -4.15866 -4.9335785 -3.945696
-2.9713333 -3.1030838 -2.3984663 -1.7073684 -3.9261234 -3.826822 -3.741041 -3.4496825
