injector_surrogate/results/model_1hidden_20nodes_500epoch_0.02.pth (torch, 4695 bytes, 5 tensors)

network.0.weight f4 [20, 9]
0.667888 -0.124510296 -0.13193695 -0.11828081 -0.39395863 -1.4677874 3.1670194 -1.708032
-1.499582 -0.07160168 0.0072821425 0.1277385 0.40272543 0.3162583 2.8395889 -4.533899
0.86343235 0.84592605 -0.7284467 0.4650167 -0.12187485 0.18718508 -0.498953 0.5821313
0.045109566 -0.7588006 3.8700013 -1.5426631 0.022920687 0.12441549 3.1045702 2.3085809
0.004432242 -0.3040983 -0.7222374 -1.1662929 -2.1718063 -0.1772156 0.23631412 1.6297935
0.4068663 0.015974788 0.2827531 0.6107683 0.50535995 0.43199408 0.1544427 -0.11947528
-2.852648 -0.9487072 0.078709096 -0.032594014 -0.074070305 -0.23704864 -0.6393732 0.15334997
-0.12259106 -0.0020458177 -0.5902301 0.54174227 -0.89399123 0.016205918 -1.3981661 -0.5798743
0.04520539 0.13336517 0.77581674 -0.8149282 0.86366874 -0.752313 -0.8997972 -0.36732826
0.20899108 -1.6023661 -1.6865394 0.33549005 0.29113257 -0.17287585 -0.3588189 3.077279
3.0503454 -1.1782244 -0.04837977 0.13283888 0.84664446 1.6653911 -0.10469085 0.1927439
-1.2519335 0.1353052 -1.0846331 -0.16144714 0.15076214 -1.0845462 -1.5403253 0.3198626
-0.061907783 0.82880163 0.97294223 -0.06665582 0.28264353 -0.080930315 0.39772946 -0.47934172
0.38326567 -0.23565137 1.6730907 1.0852065 -0.18050912 -0.7834447 -0.60060894 -0.25321746
-0.3918622 0.10526481 -0.19934028 -0.03415719 -0.21365613 -0.18621536 0.077169456 -0.053794775
0.066632695 -0.24732703 -0.9058285 -1.7818524 -0.90622765 0.1271732 -0.2845665 -0.04036473
0.08701121 -0.7436894 -2.013438 0.44183266 0.30038747 -2.1480947 -0.98867255 0.7867076
0.22118507 -0.26799858 1.5193621 -4.5851526 0.44093245 -0.10182769 0.6895408 0.48870012
-0.08877352 -0.02630577 -0.04634438 0.66460776 0.44786942 -3.0833995 -2.6601646 1.2073607
1.7632008 0.2945286 2.0843382 1.7888187 0.098619215 0.020754397 -0.063048035 -0.10728284
0.0028304816 -0.06098981 -0.06214174 -0.24641615 0.30012387 -0.15037282 0.11966521 2.6486893
1.7292191 -1.04171 -1.5464764 0.4790834 0.071483 -0.03628262 0.08700672 0.10067316
-3.120617 -1.8446622 0.5622467 0.20117965
00000000: b5fa 2a3f 41ff febd 7b1a 07be 363d f2bd
00000010: f2b4 c9be 75e0 bbbf 72b0 4a40 cba0 dabf
00000020: 4ef2 bfbf e7a3 92bd 0a9f ee3b e2cd 023e
00000030: 0732 ce3e 9cec a13e d3bb 3540 b315 91c0
00000040: e709 5d3f 9c8e 583f 7c7b 3abf ab16 ee3e
00000050: 8599 f9bd 72ad 3f3e c576 ffbe 8f06 153f
00000060: cfc4 383d c240 42bf 1aae 7740 fc75 c5bf
00000070: 2ac4 bb3c 8ccd fe3d 47b1 4640 cabf 1340
00000080: 573c 913b c6b2 9bbe 8de4 38bf 1649 95bf
00000090: e0fe 0ac0 0278 35be 54fc 713e 139d d03f
000000a0: c850 d03e 8fdd 823c 04c5 903e 505b 1c3f
000000b0: 455f 013f 542e dd3e 3a26 1e3e 75af f4bd
000000c0: c991 36c0 7ade 72bf 3c32 a13d 4d81 05bd
000000d0: 2cb2 97bd e1bc 72be f6ad 23bf c607 1d3e
000000e0: 0611 fbbd 2013 06bb 5219 17bf 9faf 0a3f
000000f0: 9cdc 64bf 46c2 843c 1bf7 b2bf a472 14bf
00000100: 4929 393d e190 083e ed9b 463f 229f 50bf
00000110: 6519 5d3f 9697 40bf 1c59 66bf 7312 bcbe
00000120: c201 563e 551a cdbf 86e0 d7bf 5ac5 ab3e
00000130: 540f 953e 5e06 31be 1cb7 b7be 24f2 4440
00000140: dc38 4340 0fd0 96bf de29 46bd ea06 083e
00000150: b1bd 583f 892b d53f 2868 d6bd a85e 453e
00000160: 5b3f a0bf 728d 0a3e 42d5 8abf 6652 25be
00000170: 6461 1a3e 69d2 8abf 6129 c5bf 08c5 a33e
00000180: 0493 7dbd 582c 543f be12 793f d982 88bd
00000190: a7b6 903e cbbe a5bd 32a3 cb3e 476c f5be
000001a0: 663b c43e 984e 71be d627 d63f 0ce8 8a3f
000001b0: 62d7 38be d58f 48bf 82c1 19bf b8a5 81be
000001c0: 2aa2 c8be 1495 d73d dc1f 4cbe 69e8 0bbd
000001d0: acc8 5abe 3daf 3ebe 050b 9e3d e957 5cbd
000001e0: b976 883d 4c43 7dbe 60e4 67bf bd13 e4bf
000001f0: 89fe 67bf b139 023e b3b2 91be 7d55 25bd
00000200: ef32 b23d 6e62 3ebf 2bdc 00c0 e437 e23e
00000210: 63cc 993e 627a 09c0 a519 7dbf ab65 493f
00000220: 577e 623e 1c37 89be 757a c23f 92b9 92c0
00000230: e6c1 e13e 098b d0bd bf85 303f e736 fa3e
00000240: e4ce b5bd 337f d7bc 9bd3 3dbd bc23 2a3f
00000250: 244f e53e 6b56 45c0 2340 2ac0 cc8a 9a3f
00000260: 90b0 e13f 74cc 963e cc65 0540 03f8 e43f
00000270: dff8 c93d 2005 aa3c 541f 81bd 1bb7 dbbd
00000280: 9a7f 393b 73d0 79bd 5688 7ebd 8454 7cbe
00000290: d6a9 993e 55fb 19be 0913 f53d 2084 2940
000002a0: 0d57 dd3f c156 85bf f0f2 c5bf 6b4a f53e
000002b0: ae65 923d 169d 14bd 9430 b23d bb2d ce3d
000002c0: 30b8 47c0 e41d ecbf 66ef 0f3f 0a02 4e3e

network.0.bias f4 [20]
0.23858792 -0.8358416 0.6546999 0.16701905 0.8521276 1.9222312 1.1522245 0.7693798
-0.7803023 -0.66786766 0.6377881 -0.957182 1.3633178 1.3266826 2.3475184 1.3583256
0.058475666 -0.9891394 -1.6847094 2.0455842
00000000: 6450 743e b7f9 55bf 6a9a 273f 0b07 2b3e
00000010: 0925 5a3f ac0b f63f 187c 933f 13f6 443f
00000020: e4c1 47bf 60f9 2abf 1546 233f e109 75bf
00000030: 3381 ae3f bcd0 a93f be3d 1640 9ddd ad3f
00000040: 2e84 6f3d 3d38 7dbf 8fa4 d7bf daea 0240

network.2.weight f4 [20, 20]
-0.075299054 -0.011364746 -0.07630245 0.04589358 -0.00939157 0.05343806 -0.08048126 -0.0055064023
-0.023865465 0.056632645 0.04552519 -0.02058751 -0.023727136 -0.041157085 -0.06425738 -0.014885385
-0.0062525827 0.029174041 0.031469062 0.01634902 -2.186816 1.2962489 -0.06288659 0.3353376
-0.18216264 0.8803265 1.0138971 1.2106298 0.10198159 -1.9359456 1.664013 -0.21853624
-0.09014812 0.65743965 -1.9542508 0.42532527 0.45523882 -0.30660638 -0.023515424 1.3991077
-0.019322177 -0.02045214 -0.010401141 0.03516929 0.034479704 -0.0072260145 -0.030094912 0.010458437
-0.1110132 0.015375562 -0.14506245 -0.11827134 -0.14509954 -0.008555511 -0.04440696 -0.044443138
-0.008925802 -0.0077609685 -0.031218661 0.054061476 -0.20464607 -0.51911736 -0.5516802 0.8213039
1.343805 2.0529509 0.86113393 0.65630966 0.30904204 0.12649946 -1.0587524 0.54347295
-0.8054012 -0.027116973 0.78491116 -7.74794e-05 -1.0751317 -0.4363332 -0.78185576 0.4291929
0.0013741517 -0.009308809 0.013586481 -0.049321905 -0.0014210852 -0.046917837 0.017695483 0.033655163
-0.02761233 -0.02357342 -0.026345966 -0.035664298 0.03255219 0.0081471605 -0.04035001 0.019774178
0.020766338 -0.0086063845 -0.01373259 -0.027755318 -0.19522476 0.0146657685 -0.1922279 1.0287646
-1.444199 1.7209139 0.32460782 1.4300947 -0.052816898 -0.5784208 0.93955654 -0.7170312
0.6713276 -1.4278884 -0.25290918 0.26197034 1.9486555 0.5081362 -0.8990627 1.2735994
-0.09499677 -0.35845464 0.25538725 1.106924 0.4748927 1.3937186 0.33613697 0.18634036
0.2730142 0.63510764 0.36293593 1.1272507 -0.9134188 -0.21132615 0.6136348 -0.25795946
-0.38390958 -0.57686895 0.35001498 0.21943669 -0.45077217 0.09294516 0.8590732 -0.88375306
-0.079065606 -0.9513707 -2.3623405 -0.20222075 1.2356975 0.014566255 1.5242478 2.0623841
-1.0658407 -0.20737518 -0.2285284 -0.39796788 0.3597524 0.32891333 1.2488643 1.4616575
0.29277027 0.5545953 0.5825409 0.46629804 0.20600002 0.5456327 -1.9159914 -0.05460597
1.2531329 0.2773561 1.6952246 1.7104727 -1.6538585 -0.227596 -0.42280486 -0.06327352
0.31533104 -0.010707268 -0.01861562 0.6352719 1.1118158 0.7934326 0.43856388 1.5249567
0.9883837 1.1321883 0.22817181 -0.72213334 -0.10529308 -0.22747965 1.645042 -0.052341312
0.0041923234 -0.8491867 0.827474 -0.93416965 0.8180177 -0.022442974 0.23787248 -0.13048834
-0.10970785 0.04120217 0.08309358 1.7730435 -0.3443192 -0.439804 -0.28917372 -1.1197062
-0.086058006 -0.7404137 1.0289809 -1.463856 -0.33646265 0.24458838 -0.51842344 0.73062116
-0.6589003 -0.20671563 0.168769 1.1427153 0.39023107 -0.3780218 -0.64472246 0.1357673
-0.049745183 2.1605518 -0.47506812 1.1542027 -0.11630775 1.1561357 0.4881893 -0.021758204
-0.42901772 -0.39096054 -1.4597445 1.1694554 -0.15075447 -0.5013666 -0.89410245 -0.13005938
0.01507718 -0.047286075 -0.0063859094 0.022302425 0.025801426 0.08486085 0.008950504 0.0304172
-0.0010526862 -0.049561776 -0.05550626 0.063760005 0.011196893 0.056185298 -0.004228025 0.006166094
00000000: 6436 9abd 3333 3abc 7544 9cbd e8fa 3b3d
00000010: 1adf 19bc dee1 5a3d 5cd3 a4bd 0d6f b4bb
00000020: 8281 c3bc a2f7 673d 9f78 3a3d 23a7 a8bc
00000030: 695f c2bc 5594 28bd 6099 83bd d4e1 73bc
00000040: 77e2 ccbb 66fe ee3c b4e5 003d 61ee 853c
00000050: cbf4 0bc0 7ceb a53f afca 80bd 5fb1 ab3e
00000060: d888 3abe 145d 613f 61c7 813f ebf5 9a3f
00000070: b9db d03d 11cd f7bf 61fe d43f f7c7 5fbe
00000080: 949f b8bd f74d 283f e424 fabf 3cc4 d93e
00000090: 1015 e93e 83fb 9cbe 6ba3 c0bc f615 b33f
000000a0: 8b49 9ebc 3f8b a7bc 8c69 2abc ac0d 103d
000000b0: 973a 0d3d 34c8 ecbb 9b89 f6bc dd59 2b3c
000000c0: e35a e3bd c8e9 7b3c 408b 14be 3f38 f2bd
000000d0: f994 14be 6a2c 0cbc 13e4 35bd 020a 36bd
000000e0: 873d 12bc b94f febb 47be ffbc 916f 5d3d
000000f0: bd8e 51be e0e4 04bf ea3a 0dbf f940 523f
00000100: cd01 ac3f 8c63 0340 4673 5c3f e903 283f
00000110: c23a 9e3e 1389 013e 3385 87bf 0b21 0b3f
00000120: c62e 4ebf 6a24 debc f0ef 483f 707c a2b8
00000130: ea9d 89bf 1167 dfbe b327 48bf 2cbf db3e
00000140: e11c b43a fa83 18bc d599 5e3c c405 4abd
00000150: b543 baba eb2c 40bd 1ef6 903c ffd9 093d
00000160: 4133 e2bc 0b1d c1bc 7fd3 d7bc ba14 12bd
00000170: 7255 053d ab7b 053c 0d46 25bd 75fd a13c
00000180: 2b1e aa3c cb01 0dbc a8fe 60bc 1f5f e3bc
00000190: 00e9 47be b148 703c 64d7 44be 8fae 833f
000001a0: 83db b8bf e846 dc3f ff32 a63e 580d b73f
000001b0: 8856 58bd 6313 14bf c786 703f 5b8f 37bf
000001c0: 20dc 2b3f 0cc5 b6bf 507d 81be fa20 863e
000001d0: 8b6d f93f 3715 023f f928 66bf 4e05 a33f
000001e0: ab8d c2bd 5e87 b7be 1ec2 823e b0af 8d3f
000001f0: 2325 f33e 5f65 b23f 251a ac3e 02d0 3e3e
00000200: 84c8 8b3e 6a96 223f bdd2 b93e c049 903f
00000210: d1d5 69bf e265 58be 2c17 1d3f 4313 84be
00000220: cc8f c4be afad 13bf 2a35 b33e 03b4 603e
00000230: 9ccb e6be 085a be3d 39ec 5b3f a43d 62bf
00000240: 26ed a1bd 088d 73bf 9630 17c0 f512 4fbe
00000250: 562b 9e3f 4da7 6e3c 8d1a c33f 1afe 0340
00000260: 786d 88bf 295a 54be 5903 6abe 72c2 cbbe
00000270: 7731 b83e 5467 a83e c9da 9f3f 9817 bb3f
00000280: fce5 953e f5f9 0d3f 6721 153f 9ebe ee3e
00000290: abf1 523e 96ae 0b3f 353f f5bf 82aa 5fbd
000002a0: a966 a03f 9e01 8e3e 1ffd d83f c5f0 da3f
000002b0: a3b1 d3bf ed0e 69be e179 d8be 8c95 81bd
000002c0: 1273 a13e 896d 2fbc c97f 98bc 2ea1 223f
000002d0: fb4f 8e3f 661e 4b3f 728b e03e c831 c33f
000002e0: b706 7d3f 8ceb 903f dfa5 693e bbdd 38bf
000002f0: e6a3 d7bd 6df0 68be bc90 d23f d863 56bd
00000300: c25f 893b 4d64 59bf 56d5 533f be25 6fbf
00000310: 9c69 513f 54da b7bc d894 733e bc9e 05be
00000320: 82ae e0bd 9bc3 283d f82c aa3d 17f3 e23f
00000330: 9b4a b0be fd2d e1be 940e 94be 8852 8fbf
00000340: 2e3f b0bd c18b 3dbf a5b5 833f a25f bbbf
00000350: d544 acbe 6075 7a3e 66b7 04bf fd09 3b3f
00000360: b1ad 28bf 43ad 53be c8d1 2c3e 7f44 923f
00000370: 5ecc c73e 138c c1be 880c 25bf 9506 0b3e
00000380: 9bc1 4bbd 7b46 0a40 213c f3be eabc 933f
00000390: c232 eebd 41fc 933f f3f3 f93e 433e b2bc
000003a0: 36a8 dbbe fb2b c8be e8d8 babf b7b0 953f
000003b0: 615f 1abe 9059 00bf e6e3 64bf 492e 05be
000003c0: 4706 773c 0baf 41bd e440 d1bb 93b3 b63c
000003d0: 835d d33c 86cb ad3d 22a5 123c 7e2d f93c
000003e0: 4afa 89ba 4a01 4bbd 885a 63bd 9b94 823d
000003f0: 2c73 373c 8e22 663d 3f8b 8abb f20c ca3b

network.2.bias f4 [20]
-0.016150836 -1.0036362 -0.04052643 -0.13694362 0.022782963 -0.96039516 -0.65266126 0.3017263
0.52840203 -1.0018511 -0.64435494 -1.1473268 -0.023821142 -1.1542346 0.015032746 -0.25637344
0.59672946 -0.01586705 -0.33640942 0.0037738564
00000000: c24e 84bc 2777 80bf 0bff 25bd f33a 0cbe
00000010: 56a3 ba3c 75dc 75bf cf14 27bf df7b 9a3e
00000020: 5b45 073f a83c 80bf 72f4 24bf 9bdb 92bf
00000030: 8e24 c3bc f6bd 93bf e84b 763c 6143 83be
00000040: 43c3 183f 9efb 81bc db3d acbe ce52 773b

network.4.weight f4 [1, 20]
0.0021047054 -0.24344014 0.012722997 0.11157759 0.0014769642 0.07533162 -0.14090033 0.37924635
-0.36875123 0.07861294 -0.069880486 -0.093172476 0.003611404 -0.29749778 0.004579664 0.14184368
-0.24789079 -0.004274964 -0.11847477 0.071783155
00000000: 19ef 093b 5f48 79be 1e74 503c cb82 e43d
00000010: b296 c13a 7747 9a3d 2d48 10be 942c c23e
00000020: f6cc bcbe d2ff a03d 801d 8fbd 36d1 bebd
00000030: 4ead 6c3b a151 98be 0211 963b 783f 113e
00000040: 15d7 7dbe ff14 8cbb e6a2 f2bd 0c03 933d
