injector_surrogate/results/model5.pth (torch, 31489 bytes, 11 tensors)

network.0.weight f4 [40, 9]
000000 e6 40 f3 3d 03 f7 de 3e ef 31 9a 3b 38 60 e8 3e
       0.11877613 0.4354783 0.0047056596 0.4538591
000010 ec 5b a5 3f e3 03 cc be 4b f0 77 be a2 4d a0 bc
       1.2918677 -0.39846715 -0.24212758 -0.019568268
000020 fd 5e 17 be 07 cf 41 bf 54 d4 c8 be 4f cb d7 3d
       -0.14782329 -0.75706524 -0.39224494 0.10536825
000030 b7 d5 d6 3d c0 a6 24 bf 6b cd d4 3e da 73 89 be
       0.104899816 -0.6431694 0.4156297 -0.268462
000040 26 87 17 3f c3 4a db 3f 89 7d 0b 3c c6 37 8f bb
       0.59190595 1.713219 0.008513817 -0.0043706624
000050 16 60 23 3d 89 c6 d5 3d cd c8 b6 3d 1d 11 d5 bf
       0.039886557 0.10438258 0.089250185 -1.6645848
000060 b0 de d5 bf f5 41 61 be 6b 7f 6b be 4c cb 0f 3e
       -1.6708584 -0.21997817 -0.22997825 0.14042395
000070 ba 43 df 3e 4b 53 e7 be 37 65 d5 3e 56 f5 89 3e
       0.4360636 -0.45180735 0.41678783 0.2694499
000080 fb 8e 3a 3f f7 36 30 3f 89 f5 8f be ff 17 49 bf
       0.7287442 0.6883387 -0.28117016 -0.7855224
000090 32 a3 bc 39 a1 c4 50 3a 46 7e ac ba 49 c4 06 3b
       0.00035979744 0.00079638703 -0.0013160191 0.0020563772
0000a0 85 52 48 3a 0b d5 12 bb 2a 4c 13 bb 30 2c 5e 3a
       0.0007641691 -0.0022404816 -0.0022475817 0.00084752124
0000b0 14 23 31 3a d0 df b0 b8 ac b4 7f b8 ef 88 b8 b9
       0.0006757241 -8.434022e-05 -6.0965e-05 -0.00035197238
0000c0 2e 6e a3 b8 93 35 0e ba bf 35 9a 38 a9 16 83 3a
       -7.792968e-05 -0.00054248533 7.353303e-05 0.001000126
0000d0 73 23 15 38 3f 46 e2 39 71 15 38 bf fe 7b 29 3d
       3.5557383e-05 0.00043158417 -0.71907717 0.041378014
0000e0 69 f1 ad 3e a9 b9 46 bf d8 39 cd bf 33 22 8b 3e
       0.33973244 -0.77627045 -1.6033278 0.2717453
0000f0 df be b1 3e a2 9d 81 3d 22 56 56 3e 74 06 00 3d
       0.34715936 0.06328894 0.20931295 0.031256154
000100 0c 3e 30 be b0 7c 7a 3e 59 ef 65 3e 4b 2d a1 3d
       -0.17211169 0.24461627 0.22454585 0.07869967
000110 37 cb 09 3e 5c d4 09 be ab 76 b5 3c 56 77 b9 bd
       0.13456427 -0.13459915 0.022151312 -0.09055965
000120 41 d1 8f bd d7 6c 90 bd b1 71 08 3e 4d 1f aa bc
       -0.07022334 -0.070520096 0.1332462 -0.020766879
000130 97 ec 91 bb f1 de 27 bf 95 2e 07 3f 66 51 62 3f
       -0.0044532525 -0.65574557 0.52805454 0.88405454
000140 cd 26 ac 3e b3 95 2b bd 3e 11 a6 3d 22 18 00 3e
       0.33623353 -0.04189081 0.081087574 0.12509206
000150 fd 8a 05 3d eb 02 5c 3e 8b bf bf 3f 99 34 d3 3f
       0.032603253 0.21485488 1.4980329 1.6500427
000160 f1 be 59 bf b2 96 ee be a2 f2 af b9 86 08 48 3a
       -0.8505698 -0.46599346 -0.00033559377 0.00076306646
000170 35 29 fd b9 13 26 8e 3a 55 4e ae 38 46 03 e1 ba
       -0.00048286622 0.0010845087 8.311557e-05 -0.0017167113
000180 01 e5 2d ba 19 a4 80 b9 87 e2 42 ba 59 6f 67 bd
       -0.00066335505 -0.00024536325 -0.0007434268 -0.056502674
000190 13 83 2e bc 29 85 fe bd e8 26 88 3f 3b 4e 42 3f
       -0.010651368 -0.12427742 1.0636873 0.7590062
0001a0 bd d4 dc 3e 8a 07 d9 3e 31 d6 ca 3e 4a 7c 17 3f
       0.43131056 0.42388564 0.3961654 0.59174025
0001b0 62 a8 8d 3e ca 98 25 3f 43 2d 1e 3f 18 41 8b 3d
       0.27667528 0.6468626 0.61787814 0.06799525
0001c0 d1 75 81 3e 1f 72 dd 3e 63 7b 07 3e d4 59 40 bd
       0.252852 0.4325113 0.13230662 -0.046960667
0001d0 f7 23 2f 3d 0f 33 39 3b 35 0d f9 3a ca 69 c1 3a
       0.042758908 0.0028259193 0.0019001128 0.0014756259
0001e0 ca 67 82 39 44 8b 48 ba 07 cf 14 bb d2 ae 86 ba
       0.0002487286 -0.0007650147 -0.0022706406 -0.0010275489
0001f0 a2 b4 84 39 60 c5 02 ba d4 82 4c 3e 72 e3 8c 3d
       0.00025311584 -0.00049885176 0.19971782 0.06879319
000200 b9 42 25 be d5 20 64 bd 2d 6f 95 bc c2 44 c8 bc
       -0.16138734 -0.055695374 -0.01824149 -0.024446849
000210 13 ba 05 3d 3e c5 ab 3e 35 08 fc bd bd 8b 5d 3a
       0.032648157 0.3354892 -0.12306253 0.00084513036
000220 40 bb 31 39 ac 9f cd 38 f9 35 c3 39 c5 9e b1 b9
       0.00016949791 9.804903e-05 0.0003723351 -0.00033878363
000230 8e 9e 0c ba 60 f3 c8 b8 a4 6e 42 3a f8 9e 36 3a
       -0.00053642027 -9.582075e-05 0.00074169994 0.0006966437
000240 5b 99 e3 3a ce 5b bd 3a 2c 05 c4 39 2f 10 41 3a
       0.0017364429 0.0014446916 0.00037387887 0.0007364777
000250 50 75 c9 37 a9 d7 11 bb 1b 2e ce ba 27 9b c4 39
       2.4015695e-05 -0.0022253788 -0.0015730293 0.0003749963
000260 33 07 47 38 05 ca 26 b9 39 51 2a b9 33 0f bb b9
       4.7452002e-05 -0.00015906252 -0.00016242721 -0.00035678744
000270 2e af 88 b9 1e 3b d5 b9 1b 8c 66 39 6b ee 2d 3a
       -0.0002607046 -0.00040670572 0.00021986703 0.00066349533
000280 aa d8 49 35 eb 8e da 38 ce 45 c4 be 96 40 d1 3e
       7.519362e-07 0.000104216706 -0.38334507 0.40869588
000290 a7 2c 8e 3e 55 a4 3c be fe 2c 91 be 59 de c6 be
       0.27768442 -0.18422063 -0.2835464 -0.38841513
0002a0 b1 d4 29 bf 6f 44 55 3f fc 2e 47 3f 2e 03 19 c0
       -0.66340166 0.83307546 0.7780607 -2.390819
0002b0 1f 79 c3 3e 95 73 fe be 4d 24 15 3e 5c 2e e4 3e
       0.38178346 -0.49697557 0.14564629 0.4456662
0002c0 2f d7 87 bd 0e 5b d9 3d b0 eb 26 3d 00 bb 03 3b
       -0.0663284 0.106130704 0.040752113 0.0020100474
0002d0 96 62 0d 3e 8b 71 31 3e c4 83 75 be 7c 35 09 c0
       0.13807139 0.1732847 -0.23976046 -2.1438894
0002e0 8c c3 db bf dc ef 3a 3e d4 22 66 3e 52 90 76 3d
       -1.7169051 0.18255562 0.22474223 0.06019623
0002f0 f8 48 c5 3d 62 f1 0c 3f 3c f0 a6 be 73 88 b4 3a
       0.09633058 0.5505582 -0.3260516 0.0013773575
000300 23 98 46 3f c7 54 f1 3f 56 2a f5 3e be 9d 37 3f
       0.7757589 1.8853997 0.47883862 0.7172507
000310 32 5c 02 3e 5a fe 25 3e b9 c6 d5 3c 5b 06 11 b9
       0.12730482 0.16210309 0.026095735 -0.00013830645
000320 bf ae 3e 3d 97 aa d6 3d ee de 7f 3e 9e fd 92 be
       0.04655337 0.10481756 0.24987385 -0.2870912
000330 cb 24 3a c0 65 27 57 bd 69 b8 61 3c db a6 2c 3e
       -2.9084957 -0.052527804 0.013776877 0.16860525
000340 59 f7 0e 3d 48 2c e8 3e ed 35 85 3f 3e 5e 7f bf
       0.034903858 0.45346284 1.0407082 -0.9975318
000350 86 4b 4f 3c 02 f9 53 3c 28 38 d7 3d 46 6b c0 bb
       0.012652284 0.012937786 0.10508758 -0.005872163
000360 42 fc 35 3f b9 5d a7 3e 3f 31 a7 be c9 6c 8d 3e
       0.7108804 0.32688692 -0.3265476 0.2762206
000370 dc 19 41 3e 96 00 7b 3e 26 7f 3f 3e b8 2d ef 3e
       0.18857521 0.24511942 0.18700847 0.46714568
000380 bb 89 6f 3f 2f bd 6b bd f2 4b 6d 38 f7 b0 92 3c
       0.93569535 -0.057553466 5.6575933e-05 0.017906649
000390 48 e3 3a bd f3 e2 9d bd ab f7 3a be 07 8d fb be
       -0.04562691 -0.07709303 -0.1825854 -0.49131033
0003a0 88 63 e7 bf 8c 9b cb bf 72 84 32 40 39 0f db bd
       -1.807725 -1.5906844 2.7893338 -0.10696263
0003b0 6c 71 9d 3d 10 ed bb 3d 61 35 80 bd 66 68 25 bb
       0.07687649 0.091760755 -0.06260181 -0.0025239228
0003c0 06 26 5d bd aa 6e 5e bd 7a 17 04 3e a4 45 70 3f
       -0.05399134 -0.054304756 0.1289958 0.93856263
0003d0 11 df a9 3c 8f 46 3a be 4b a5 d9 3d e9 6f a3 be
       0.02073625 -0.18190978 0.1062723 -0.31921318
0003e0 37 b8 bb be 25 11 43 bf 22 35 39 bf b3 27 df be
       -0.36663982 -0.76198035 -0.723467 -0.43584976
0003f0 2b 27 45 be 16 72 cb bb 65 83 27 3e c2 50 e3 3b
       -0.19253223 -0.0062086685 0.16358717 0.0069371173

network.0.bias f4 [40]
000000 66 6d 9c bf ef 31 54 3f c0 88 12 40 a9 43 69 bf
       -1.2220886 0.8288869 2.2895966 -0.91118866
000010 79 18 5e 36 bf c7 d6 37 b8 12 40 3f 16 26 fc 3b
       3.3094823e-06 2.5603802e-05 0.7502856 0.00769497
000020 10 97 4a bf 0e ed 91 bf 73 27 04 3a e7 32 f1 bf
       -0.79136753 -1.1400468 0.0005041279 -1.8843659
000030 cc 62 c3 bf 78 06 8d ba 02 67 d9 3c 5e ed d5 b9
       -1.5264525 -0.0010759374 0.026538376 -0.00040803378
000040 4c 66 30 ba b2 3e 85 39 e5 df 0d bf 24 54 a5 3e
       -0.00067291106 0.00025414448 -0.5541976 0.32290757
000050 96 c3 e3 3f 78 f1 c4 bf 24 9f 1d 40 c5 4c d2 3e
       1.7794063 -1.538619 2.4628382 0.41074196
000060 c0 99 aa bf 49 b3 cf 3f 70 9a ea bf 45 b8 99 3f
       -1.3328171 1.6226588 -1.832838 1.200936
000070 96 3b 16 bf b2 ad e5 bf 94 9c 05 3c 5c 08 0b 3f
       -0.5868467 -1.7943633 0.008155007 0.5430963
000080 14 89 9d 3f b2 19 81 3f e8 08 79 bf 03 72 12 3e
       1.2307458 1.0085967 -0.97279215 0.14301305
000090 df ea 19 3c ff 35 ad bf f0 8f 18 3f 46 da 07 3f
       0.009394377 -1.3532103 0.5959463 0.53067434

network.2.weight f4 [40, 40]
000000 02 8a 87 3e 64 71 a4 bd 45 4e 6e be 69 d7 72 bd
       0.2647248 -0.0802944 -0.23272045 -0.059287462
000010 f0 d1 d7 39 43 75 35 3b 73 25 8b be a4 16 95 3b
       0.0004116441 0.0027688302 -0.2717701 0.004549818
000020 fe e0 5a 3d f5 53 4f 3f d0 5f bc 3a e7 50 83 3e
       0.053437226 0.80987483 0.0014371816 0.2564766
000030 73 f9 20 be d1 79 15 ba 8c b9 ae bd 63 00 91 3a
       -0.15720157 -0.0005702051 -0.08531484 0.0011062737
000040 a7 05 b6 b9 71 e3 9f 3a 26 74 8c 3e 33 58 ea 3e
       -0.00034717956 0.001219852 0.27432364 0.45770416
000050 54 dd a1 be 47 0d eb 3e 54 ef a3 3d 14 a1 4c be
       -0.31614172 0.45908567 0.080046326 -0.19983321
000060 0d 67 2d bf 8e 83 5e 3f 89 44 7e 3e 52 3b 8c 3f
       -0.6773537 0.86919487 0.24830832 1.0955603
000070 c8 d1 07 bf f1 25 eb 3d b6 40 22 3e bb c0 95 be
       -0.53054476 0.11481846 0.15844998 -0.29248604
000080 ad e2 c9 bd e5 bb e1 3e 71 a2 ec bd eb 6b af bd
       -0.09857688 0.44088665 -0.11554421 -0.085655056
000090 e7 ba e3 bd 07 86 f5 3e e6 f6 b3 3c 2c e9 13 3e
       -0.11119633 0.47953817 0.021968316 0.14444417
0000a0 a8 1b 7d 3d 32 9b 99 be a4 ea 98 be b2 66 5d 3c
       0.061793953 -0.30001217 -0.29866517 0.013513254
0000b0 68 0f 4f 3b 3a 2c 7c ba 64 6a e7 3d 93 10 3c bc
       0.0031594876 -0.00096196274 0.11299589 -0.011478561
0000c0 2a 9a a9 3f 04 95 95 3f b7 6b 6d 3b 94 0b c2 bd
       1.3250172 1.1686101 0.0036227533 -0.094748646
0000d0 14 0a ee 3e 26 fd eb 3b a7 6a 99 3d 0c ca 36 3b
       0.46492064 0.0072018085 0.074910454 0.0027891425
0000e0 46 cb 97 3b da e7 8c b9 e5 0f 72 3f 28 6b 7e be
       0.0046323864 -0.00026875624 0.94555503 -0.24845564
0000f0 fc e4 64 3e 4f 6f 92 3e 16 bd ac be 7d 29 b3 3e
       0.22352976 0.28600547 -0.3373801 0.3499259
000100 e8 60 a4 3f fa f5 f1 3f 4f dc af 3d 3a ce 2f bf
       1.2842073 1.8903191 0.085869424 -0.6867405
000110 85 54 07 bf b8 b6 58 bf 34 e7 87 3c 70 3d bc 3e
       -0.5286334 -0.84653807 0.016589738 0.36765623
000120 8a 4d f0 be 1e 9d 00 be af 04 96 be b5 ef 6d bf
       -0.46934158 -0.12559935 -0.29300448 -0.9294389
000130 21 32 64 3d 92 36 63 3f cb 20 b1 bd 9c e0 ba 3f
       0.05571187 0.8875514 -0.08648833 1.4599795
000140 54 ff b9 3e b9 6c ac 3d ec 4d 99 be 37 1d 83 be
       0.36327612 0.08419175 -0.29942262 -0.25608227
000150 80 bd 80 ba 51 d0 2f 3a 75 a1 88 bf 0a 10 ef bd
       -0.00098221 0.0006706762 -1.0674273 -0.11672981
000160 b9 e2 58 bd d7 3e 9d 3e 3b 55 e3 ba f3 68 bb 3e
       -0.052950595 0.30712005 -0.0017344126 0.36603507
000170 68 36 bf 3e fa eb 7d 39 96 e0 71 bd 7e 37 fb 39
       0.37346196 0.00024215868 -0.059052072 0.00047915796
000180 eb fd ec b9 81 92 2a 3a d2 56 ee 3e e1 89 c9 be
       -0.0004520261 0.0006506816 0.46550614 -0.39363006
000190 7e 46 55 bf d9 7a c3 3e fb 79 9b be cb 4f 13 bf
       -0.8331069 0.38179663 -0.303665 -0.5754363
0001a0 21 64 8c be b3 2e 0c bf 3f 08 94 bd f6 ef f8 be
       -0.27420142 -0.5475876 -0.07228135 -0.48620576
0001b0 65 29 f9 be 5a 01 2e 3f d3 44 03 be a5 7c 9f 3e
       -0.48664394 0.6797081 -0.12819223 0.31149784
0001c0 f2 db 6c bc cf 37 60 3e 9e 52 2e be 67 06 da be
       -0.014456736 0.2189629 -0.17023703 -0.4258301
0001d0 0d cf 22 bc aa 3d fa bd ff 0a 9e be 82 76 75 be
       -0.00993706 -0.12218793 -0.30867764 -0.23970988
0001e0 1c 4b e5 3e 7c 5f e6 bc dc 0b c9 be 1a 6e 44 bd
       0.44783866 -0.028121702 -0.3926686 -0.047956564
0001f0 b8 d2 63 b8 71 bf a1 ba 0d b1 9f bf 19 9b 85 bd
       -5.4317265e-05 -0.0012340379 -1.2475907 -0.06523723
000200 55 f9 5f be 15 9f 22 bf 87 a6 4a b9 57 b3 8f bc
       -0.21872456 -0.6352399 -0.00019326257 -0.01754157
000210 9d 55 00 3e 7e d8 f7 ba 94 2e 78 3c 5b 06 43 ba
       0.12532659 -0.0018909124 0.015147824 -0.00074396067
000220 92 01 32 ba a4 1b a0 ba c5 fb 0e bd 98 84 40 3f
       -0.0006790395 -0.0012215269 -0.034908075 0.7520232
000230 39 94 2e 3e 46 c6 64 3f f1 c2 b4 be 9e c3 70 3c
       0.1704873 0.8936504 -0.35304978 0.014695076
000240 fa 4b 83 3d ab 14 97 3e 3b ee 39 3f 19 59 cb 3d
       0.06410976 0.29507956 0.72629136 0.099291034
000250 19 27 20 be ee 5e 36 bd de 14 eb bd 8a 1b 56 be
       -0.15639915 -0.044524126 -0.114785895 -0.20908943
000260 ff 8c d4 bd fc 7a c2 bd 4b 4d 75 3e c9 e4 43 bf
       -0.10378455 -0.09496114 0.23955266 -0.76520973
000270 64 23 10 3d 5b cc 44 3e 30 3b 21 bd ae 92 f8 bd
       0.03519 0.1921858 -0.039363086 -0.12137352
000280 ca 17 18 3c 74 ca fc bd cc 7c 09 c0 8c 55 e5 3d
       0.0092830155 -0.12343302 -2.148242 0.111979574
000290 28 90 3f 3b e1 85 d4 b9 db 3a c4 bd 81 fb 9a 3e
       0.002923021 -0.0004053554 -0.09581538 0.30270007
0002a0 9b a4 6c 3e 81 e5 04 bf 95 13 d8 37 11 cf 3a bf
       0.23109667 -0.51912695 2.5758325e-05 -0.7297221
0002b0 b3 7d c4 bd 75 10 2a bb 9f c8 8c bc 52 a6 05 3b
       -0.09594288 -0.002594975 -0.017185507 0.0020393324
0002c0 8d d7 a9 ba ce f6 2c 3a 48 73 5d bd e3 bc 16 3e
       -0.0012957916 0.0006598056 -0.05406502 0.14720492
0002d0 98 e8 27 3e 1c 63 e6 bd f3 8f a8 3f 55 2c b7 3e
       0.16397321 -0.11249372 1.316893 0.3577601
0002e0 72 9d 0a 3e 5e 6b 7a 3e ba 94 a8 3e ea 1e 9c 3e
       0.13536623 0.2445502 0.3292597 0.30492336
0002f0 9b 33 39 bd 44 70 ea be e8 b8 bd 3e 73 69 a4 bd
       -0.04521523 -0.45788777 0.37055135 -0.08027925
000300 56 d9 cf 3d 2e 28 a7 be 4a b8 68 3f 1f b2 f2 be
       0.101488754 -0.32647842 0.909062 -0.4740152
000310 80 c1 08 be 65 04 b9 3e 99 4f bf bd 5f 7f 34 bd
       -0.13355064 0.36136165 -0.09341354 -0.044066783
000320 5c dd f1 3e 0e e1 f7 be 80 ed e5 3e fd b2 62 3e
       0.47239196 -0.4841389 0.4490776 0.22138591
000330 a8 a6 ce ba e3 0e e0 3a 11 cc 55 3f 10 f6 1b 3e
       -0.001576622 0.001709428 0.83514506 0.15230584
000340 76 63 4c be 1f 32 85 3e 1f 4e 6c 3a 18 a6 21 bf
       -0.19959816 0.26014802 0.00090143265 -0.63144064
000350 ea 6f af 3e 75 4f 4a 3a 32 79 3a bd f9 cd a8 3a
       0.3426507 0.00077175285 -0.045525737 0.0012878767
000360 1d ba bf b9 79 d3 83 3a 50 d2 18 3e e1 09 98 be
       -0.00036569024 0.0010057531 0.14923978 -0.29695037
000370 6e 07 9e be 0b aa 4d 3e 1d e0 93 3e 45 bd ab 3e
       -0.30865043 0.20084397 0.28881922 0.3354284
000380 cf d4 75 3c 86 eb f8 be 89 6a 8f 3d fa cc 7e bf
       0.015004351 -0.4861719 0.07002742 -0.9953152
000390 71 0b 5e bf ee 23 43 3e 0c a4 5e bd d1 e0 15 3f
       -0.8673621 0.19056675 -0.054355666 0.5854617
0003a0 83 ff c0 3d 55 46 88 bf af fe da 3e 42 ba 4f 3e
       0.09423735 -1.0646464 0.42772433 0.20285895
0003b0 91 f1 95 bc f5 01 62 be 59 a7 80 3e 8b e8 44 3e
       -0.018303664 -0.22071059 0.25127676 0.19229333
0003c0 1b 27 aa be e1 5e 00 be 18 36 05 be 21 77 53 3c
       -0.3323296 -0.12536193 -0.13008916 0.0129068205
0003d0 24 29 4a 3a 35 aa 46 39 5e 12 e8 bd 1c 13 90 bd
       0.0007711819 0.00018946159 -0.11331628 -0.07034895
0003e0 8a 08 93 3c 40 06 bd 3e 9a e8 a0 ba 9a 2f 10 3f
       0.017948408 0.3691883 -0.0012276352 0.56322634
0003f0 dd 69 03 3f 60 93 12 3b ce 97 29 3e 01 aa d0 39
       0.5133341 0.0022365674 0.16561815 0.00039799514

network.2.bias f4 [40]
000000 61 d3 b9 3e 0e 42 ec 3f a2 5d 0a 3d 92 83 b4 bf
       0.36294082 1.8457658 0.0337807 -1.4102652
000010 9a e8 0f bf 46 c3 1e 3f b1 d9 28 bf b2 76 50 be
       -0.56214297 0.62016714 -0.6595717 -0.20357779
000020 ee 13 c0 bf 7f 66 99 bf d2 1b 00 bf d4 48 11 40
       -1.5006082 -1.1984404 -0.5004245 2.27007
000030 01 c1 09 c0 ff 4f 66 be 3c 1f c5 bd 65 a6 e1 be
       -2.152405 -0.22491454 -0.09625098 -0.4407226
000040 97 f7 4c 3f 78 cf 0f c0 f8 5d 8b bf 7d 46 91 bf
       0.8006529 -2.247038 -1.0888052 -1.1349636
000050 45 55 4e 3e b0 d9 9c be 1e ce ca bf 86 9b ac 3e
       0.20149715 -0.30634832 -1.5844152 0.33712405
000060 a2 98 91 bf 0a 39 2e 3e 0a ea 46 be 94 b2 07 bf
       -1.1374705 0.17013946 -0.19425216 -0.53006864
000070 d1 44 01 3e 85 9e 23 3f d0 b1 23 3e b0 1d 16 3f
       0.12623908 0.63913757 0.15985799 0.5863905
000080 14 bd b3 bc e0 27 a1 bf e1 b4 87 be 2e 06 6d 3f
       -0.021940745 -1.2590294 -0.26505187 0.92587554
000090 a4 a0 75 3f 89 1f 45 bf 38 7c b6 3f 0d 9d e7 3f
       0.95948243 -0.77001244 1.4256659 1.8094803

network.4.weight f4 [40, 40]
000000 68 40 32 3f b6 a4 82 be c6 74 16 3e e7 31 17 be
       0.69629526 -0.2551629 0.14692983 -0.1476513
000010 5c 3d 75 3f ab a8 4b 3e 63 e4 6f 3e 94 8e f0 3e
       0.9579675 0.1988856 0.23426966 0.46983778
000020 2c 46 3d bf d9 68 db be ae bc 98 3e e1 35 3b bf
       -0.739352 -0.4285343 0.2983145 -0.7312909
000030 87 8a 8d 3f 42 d4 11 3e e7 e8 73 3e 3f 91 00 3f
       1.10579 0.14241126 0.23819314 0.5022163
000040 39 56 9d 3e ac 12 41 3e 47 20 d1 3d 5c 7d 60 3f
       0.30729845 0.18854779 0.102112345 0.87691283
000050 52 f5 08 be 83 0b 12 3c e6 f6 0e bf bf c5 cf 3e
       -0.13374832 0.008913877 -0.5584549 0.40580556
000060 91 45 01 3e 5f 1a db 3b a1 2a 8a be cf 8d 33 3c
       0.12624194 0.0066864933 -0.26985648 0.010959103
000070 0c 03 ee be 5c 33 8d be ff 5e 3f be 44 eb 18 3d
       -0.464867 -0.27578247 -0.18688582 0.03733374
000080 7b d8 f4 bd c9 26 55 be d3 25 f2 bd 91 a7 ad 3d
       -0.11955353 -0.20815577 -0.11823621 0.084792264
000090 b3 34 93 bd 80 c3 6b be 09 37 a4 be d5 80 87 3e
       -0.07187786 -0.23023796 -0.32073238 0.2646548
0000a0 85 07 ab be 08 84 a2 3d 44 64 d9 be 30 dd 11 bf
       -0.33404174 0.07935339 -0.4245931 -0.5697813
0000b0 f2 ee 07 3f 26 73 93 bd 58 44 4f be 03 10 75 bc
       0.53098977 -0.07199697 -0.20240915 -0.014957431
0000c0 af 42 e5 be d8 50 20 3d 93 93 c5 3d 94 01 d6 3d
       -0.44777438 0.0391396 0.09647288 0.1044952
0000d0 e4 3f 9a be 4b e2 19 3b 73 eb 2b 3e 37 7b d1 3e
       -0.3012687 0.0023480828 0.16789035 0.40914318
0000e0 57 f1 4b 3e 46 08 5a 3e 2b c1 d1 be 94 49 94 3e
       0.19916283 0.21292219 -0.40967688 0.28962386
0000f0 76 f4 ff be cd 42 5b be 6b d1 1c be c0 1c 7b 3c
       -0.49991196 -0.21412201 -0.15314262 0.015326679
000100 e9 3e 6a 3c 86 d3 de 3c 24 30 ae 3c cb 24 dd 3e
       0.0142972255 0.027200472 0.02126319 0.43192133
000110 82 95 f3 be e2 34 10 3f 61 63 e0 bc b3 6d 03 bf
       -0.47575003 0.5633069 -0.027391138 -0.5133926
000120 87 88 b6 bf a0 c7 af be 0a ee 8a bf 35 7b bd 3e
       -1.4260415 -0.3433199 -1.0853894 0.37008062
000130 59 c7 61 3d 23 2f 45 3e 88 08 4a 3f 4a ed f7 3d
       0.055121753 0.19256262 0.7891927 0.12105806
000140 5b c9 f8 3e 2f c9 f2 3d b8 6f 4d be 5b c9 4e 3e
       0.48591122 0.11854779 -0.20062149 0.20193999
000150 ce 7e a1 be 47 02 6e 3e 4c ef fd bc 3d db fd be
       -0.31542057 0.23243056 -0.030997895 -0.49581328
000160 e1 04 7b 3d d4 46 3a 3e 68 f2 f8 3d 19 d6 15 3e
       0.06128395 0.18191081 0.1215561 0.14632453
000170 a5 51 51 bd 80 ef 56 bc 3d d8 01 3f 32 b6 95 be
       -0.051103253 -0.013118625 0.5072058 -0.29240566
000180 2c 2d 86 3d 51 d7 0c bf 3e b2 3f be e2 ee 1c be
       0.065515846 -0.55016047 -0.18720338 -0.15325502
000190 19 a4 89 3e f9 d6 7c bd 9b 50 a4 bd cf 65 78 be
       0.2688301 -0.06172845 -0.08023187 -0.24257587
0001a0 5d 0c 98 3f b1 e4 fc 3d ea 39 29 3e 8d ef 19 3f
       1.1878773 0.12348307 0.16525999 0.6013115
0001b0 95 ea e7 3e 13 77 e0 3e 5e a5 12 bf b3 a5 bf 3e
       0.4529616 0.43840846 -0.5728358 0.37431106
0001c0 88 10 ca 3e 3b 07 ac be 8a 38 4e 3e a0 54 22 3e
       0.39465737 -0.33599266 0.20138755 0.15852594
0001d0 31 66 f8 3e 83 fc 7b 3f 70 d4 fd 3d 60 6c e5 bd
       0.48515466 0.9843218 0.12394035 -0.112023115
0001e0 66 a1 cb 3e cb f4 49 3e 77 83 0b 3f 47 23 16 40
       0.39771575 0.19722287 0.54497474 2.3459032
0001f0 cb a1 19 3f 09 f3 84 3e db 1e 93 3f 9a ef 04 be
       0.600125 0.2596667 1.1493791 -0.12982026
000200 0e 21 a4 3d 4b 2c d4 be 34 52 02 bf e5 89 18 bd
       0.08014117 -0.41440043 -0.5090668 -0.03724088
000210 93 c5 7a bd 6f 0a 27 be b5 c1 f7 3d 3e 63 09 3d
       -0.061223578 -0.16312574 0.120974936 0.03354191
000220 fa e5 52 be 7a 3e dc bf 58 c7 88 3e 3c c9 0c be
       -0.20595542 -1.7206566 0.26714587 -0.1374864
000230 e6 e3 df 3d f0 75 d7 3d ee b6 3f bf 9a 56 58 3c
       0.1093214 0.10520542 -0.74888504 0.013204241
000240 98 72 97 3e af 50 3f 3f ed d4 51 3e aa d3 32 3d
       0.29579616 0.7473249 0.20491381 0.04365889
000250 65 65 d6 3d 51 64 b5 be 98 8b 6a be 2d 18 16 bd
       0.10468558 -0.35428098 -0.22904813 -0.03664415
000260 1e 9b 75 3e a5 54 8f bd 99 66 41 3e 85 bd 45 3d
       0.23984954 -0.069985665 0.18886794 0.048276443
000270 1c d2 bd 3d 92 21 4d 3c e8 c3 3b 3e eb 8d 0a 3f
       0.09268591 0.012520211 0.18336451 0.541228
000280 9b 15 45 bf 76 44 aa be 4c 10 4d be eb 63 d9 bd
       -0.7698609 -0.33255357 -0.20025748 -0.10614761
000290 91 45 10 3f 1b 5d 03 3f 52 ec 29 3f aa dd e9 be
       0.5635615 0.5131394 0.6637622 -0.4567693
0002a0 87 7f 97 be 5d a7 84 be 3e 03 ac be c9 0e 26 3e
       -0.29589483 -0.25908938 -0.33596224 0.16216578
0002b0 28 ea 92 3d a5 f6 08 3e 30 12 fc 3e a1 6b 58 3d
       0.07173568 0.13375337 0.49232626 0.052837018
0002c0 38 dc 28 bf 40 99 32 3f 94 47 43 3f b0 fb 00 bf
       -0.6596103 0.6976509 0.76281095 -0.50384045
0002d0 42 5f a9 be 81 3a 03 3c 20 6d 44 3f 76 c3 d6 bd
       -0.33080488 0.008009554 0.7672901 -0.104865
0002e0 27 4e e5 3e 2b ee ef bd 41 71 ea be 89 8e 1a bf
       0.44786188 -0.11715349 -0.4578953 -0.6037374
0002f0 f1 88 b1 bd 24 7d cb be d1 00 c5 3e 80 a3 47 3e
       -0.086686976 -0.39743912 0.38477185 0.19495964
000300 e9 d2 29 bd 36 4a 2d bd 4b 6d 71 3f c3 64 b8 be
       -0.041460905 -0.0423071 0.9430739 -0.36014375
000310 3e 56 82 3e a3 a7 86 be 8b fe 60 3e 5b f2 77 3f
       0.25456423 -0.26299772 0.219721 0.9685418
000320 4b d7 4f 3e e6 22 91 3d 46 9a 0a be d4 d2 47 be
       0.20296971 0.070867345 -0.13535413 -0.19514018
000330 ec bd d1 3c 6e 7f ec be 7c 26 03 be 14 ee 95 3e
       0.025603257 -0.4619097 -0.1280765 0.29283202
000340 9d 05 e8 3e d5 50 a7 3e 24 89 9d 3c 4a 30 01 bf
       0.45316783 0.32678857 0.019230433 -0.5046431
000350 7d 2e 88 3c 10 31 1b 3f 44 7c a2 be f4 ea 0c c0
       0.01662373 0.6062174 -0.31735432 -2.2018404
000360 84 67 0e 3e b2 3f d3 bd b7 d6 05 3f 5f ba 8c bc
       0.13906676 -0.10314883 0.52280754 -0.017178712
000370 d0 3a b3 3c 4a 32 a2 be 8b 3e 8a 3d e8 8c 29 3e
       0.02187863 -0.31678993 0.067502104 0.16557658
000380 b4 44 0a bd 23 42 84 3e 34 92 b7 be e1 36 ca be
       -0.033756927 0.25831708 -0.35853732 -0.39494994
000390 ba 77 0c 3d 92 49 a0 3f 5b a1 1a 3e dc bc a7 be
       0.034293868 1.2522452 0.15100615 -0.32761276
0003a0 a7 be 66 bb 11 1d b5 3d 01 65 58 3f 88 a1 80 3e
       -0.0035208852 0.088434346 0.8452912 0.2512324
0003b0 c7 cd d9 3c 4c fd b6 3e f2 b7 b8 bd 92 08 1d 3f
       0.02658738 0.35740125 -0.0901946 0.613412
0003c0 51 b1 c9 bc 70 af 86 3d cb de e4 3c 2a 5f 92 be
       -0.024620684 0.06576431 0.027938267 -0.2858823
0003d0 18 75 0c 3e 01 c6 37 bf 7c 21 8f 3b 62 a5 db bd
       0.13716543 -0.71786505 0.0043680053 -0.10724904
0003e0 75 a2 03 3f 01 01 11 3e c7 f0 4d 3e 49 c2 47 3e
       0.51419765 0.14160539 0.2011138 0.19507708
0003f0 5e 32 a9 be dc e9 d1 be 72 62 a1 3c 5c 9d 4a 3f
       -0.3304624 -0.40998733 0.019700263 0.7914636

network.4.bias f4 [40]
000000 b6 84 01 3e f0 e5 28 bf 80 09 86 3f da 5c 34 3e
       0.12648281 -0.65975857 1.0471649 0.17613545
000010 ee 60 14 bf 72 46 8b bf 62 20 01 3f bf 8d 31 bf
       -0.579604 -1.0880873 0.5044004 -0.6935691
000020 2f 3d 35 bf de ce 2e 3f 77 7e ce be 7a cf 00 c0
       -0.70796484 0.68284404 -0.4033086 -2.0126634
000030 ee f9 08 40 cb 26 c3 bc 41 e0 1b bf 2a 8c ef 3e
       2.1402545 -0.023822209 -0.6088906 0.46786624
000040 13 78 d3 3f 61 e3 06 40 f7 f5 52 c0 1a d8 ff bf
       1.6521019 2.107628 -3.2962625 -1.9987824
000050 12 45 97 3f 74 e3 51 bf 7a 14 d8 bf 12 04 40 3e
       1.1817954 -0.8198769 -1.6881249 0.18751553
000060 fa 4b 45 be 5c 79 b1 3d 2e 6f ca 3b 04 11 b0 3d
       -0.19267264 0.086657256 0.0061778044 0.085969955
000070 f1 e5 5e be bc a1 9f 3e 5b 1b 98 3d 88 92 0f bf
       -0.21767403 0.3117808 0.07427093 -0.56082964
000080 76 ed 05 3f c6 1b 9f 3f f5 50 5d bf 1e 87 8c bf
       0.5231546 1.2430351 -0.86451656 -1.0978734
000090 a3 da 99 3f 2f 55 95 3f ef 3d 78 3f 39 36 c7 be
       1.2019848 1.1666621 0.96969503 -0.38908556

network.6.weight f4 [40, 40]
000000 46 32 36 be 1f bc 0e bd 73 51 5d bf 6a 09 07 bf
       -0.17792615 -0.034847375 -0.86452407 -0.5274874
000010 ee c7 93 be 19 bd e5 be c7 33 2f 40 97 12 3b be
       -0.28863472 -0.44870833 2.7375352 -0.1826881
000020 ce 6c b2 3e e7 67 1e bf 95 ed c1 be 74 00 fa be
       0.34848636 -0.6187729 -0.37876573 -0.4882847
000030 c7 19 03 be 81 da 03 bf b7 4f 6c be 28 f0 19 c0
       -0.12802802 -0.51505286 -0.23077284 -2.405283
000040 6c 99 a5 be cb b2 a0 be 64 b6 3e 3d bc 4a 8e be
       -0.32343614 -0.31386408 0.04656066 -0.27791393
000050 8f 32 bb 3e 07 9e e4 3d 2c 2c 0c bf 36 ef 4c be
       0.3656201 0.11162954 -0.547549 -0.20013127
000060 fe ec 4e 3f 7c 79 55 3c d2 87 b4 3e 91 09 3e be
       0.8083037 0.013029452 0.35259873 -0.18558337
000070 1e 84 98 be 49 34 19 be 97 05 5e be 1c 48 65 3e
       -0.29788297 -0.14961351 -0.2168182 0.22390789
000080 49 34 05 3e e2 4e 97 3c 85 28 bb 3e e2 a7 90 bd
       0.13008226 0.018470231 0.3655435 -0.07063271
000090 a0 c2 8d be 0c ed 32 bf de 60 b4 3e 01 4f 3f 3f
       -0.2768755 -0.69892955 0.35230154 0.74729925
0000a0 ef 0a 19 bd 29 bb da bd fe ea 49 bf f9 3a 5f be
       -0.037363943 -0.10680229 -0.78874195 -0.2179984
0000b0 ed 33 89 3e cd e6 06 3e d6 3b 2d 3f 68 ec f7 bd
       0.2679743 0.13173981 0.6766943 -0.12105638
0000c0 80 95 9d 3f c4 c2 68 be db b2 89 3e 7e d8 ad 3d
       1.2311249 -0.22730547 0.26894268 0.08488558
0000d0 1e 27 3d be e1 02 d0 be 65 a5 59 bd be 9a 0f bf
       -0.18471953 -0.40627196 -0.05313625 -0.5609549
0000e0 b9 d4 a9 3e dc f6 6e 3d aa 25 96 3e 78 3d 8b be
       0.33170107 0.058340892 0.2932561 -0.27195334
0000f0 11 e0 b5 3d 17 0e 9e be e3 a2 cf bd a5 c7 90 3d
       0.08880628 -0.30870125 -0.1013849 0.07069329
000100 c7 55 26 3e 8d f9 87 bf 42 ec 12 3f 57 a0 b6 be
       0.16243659 -1.0623032 0.5739175 -0.35669205
000110 82 93 fd be 27 43 c2 bd 7e 03 42 be 75 b5 ee be
       -0.49526602 -0.094854645 -0.18946645 -0.46622816
000120 e7 bc 04 be 12 e1 22 bf a1 2d 98 bd c5 33 a7 3e
       -0.12962686 -0.6362468 -0.07430578 0.32656685
000130 55 37 a5 3f 91 fb 07 3e 11 01 92 bd 9d 81 a6 3e
       1.2907511 0.13279559 -0.0712911 0.32520762
000140 66 72 58 be 7e e3 ae be ff 6c 8f be ce e3 15 3e
       -0.2113739 -0.34157938 -0.28012845 0.14637682
000150 7a 40 f3 3e 17 da 39 bf 29 f0 9a 3f e0 d5 0f be
       0.4751013 -0.72598404 1.2104541 -0.1404643
000160 4a a2 9b 3d eb 39 b1 3c 1f e9 34 be 05 25 5b 3e
       0.075993136 0.021634063 -0.17667054 0.2140084
000170 70 0c 48 bd 98 c9 ef 3e 1d 9f 74 be 40 7b 8e 3e
       -0.048839986 0.4683349 -0.23888822 0.27828407
000180 96 42 11 be 86 7f 32 3e 74 7a ff 3d 0b 85 d2 be
       -0.14185557 0.17431459 0.12474528 -0.4111713
000190 d5 30 28 be 42 07 85 bc c8 c8 0f 3e 24 ae 43 3e
       -0.16424878 -0.016238812 0.14041436 0.19109398
0001a0 bd 6c ea 3f 5b 2d dc 3e 95 5e 84 bf 54 63 19 bf
       1.8314434 0.43003353 -1.0341364 -0.5991719
0001b0 f3 df bd 3e 9b 12 a3 be 83 5c 2b be 6d ce 85 3e
       0.37084922 -0.31850132 -0.16734509 0.26134053
0001c0 4d 7c 48 bb 11 2d db bd 59 74 80 bf 3c b1 06 bf
       -0.0030591667 -0.10701955 -1.0035506 -0.5261419
0001d0 d6 c5 11 bc 31 51 5f bf c9 e2 05 c0 2f d2 34 be
       -0.008897265 -0.87233263 -2.0919669 -0.17658304
0001e0 74 94 22 3e 30 2f 68 be 1e 44 0a 3d 68 b7 bf 3e
       0.15876943 -0.2267425 0.033756368 0.37444615
0001f0 d8 ba f4 3d 5c 21 19 be 7b 0c 47 3e c9 b7 02 3e
       0.119497 -0.14954132 0.19438355 0.12765421
000200 3c 70 5c 3f b5 75 71 3e 70 b0 fc 3e 45 a8 4e bc
       0.86108756 0.23580058 0.4935336 -0.012613361
000210 98 37 8b 3c 6c b8 c1 3e a9 04 2e 3d d6 cb 16 bf
       0.016994283 0.37836015 0.042484913 -0.5890478
000220 59 3c 97 3e e2 26 3e 3e 71 ae 33 bf 4d bd f2 be
       0.2953823 0.1856952 -0.7018805 -0.4741005
000230 f3 c4 7d be 38 17 07 be cc b8 85 3d 0b 01 e7 be
       -0.24782161 -0.13192451 0.06529388 -0.45117983
000240 e0 a9 7f 3f 3d e5 b0 3e 19 5f 34 3e d8 8e c3 bd
       0.99868584 0.34549895 0.17614402 -0.0954873
000250 93 aa 91 bd 99 66 00 3f fd 9a 81 be 7f 06 a2 be
       -0.071126126 0.5015655 -0.2531356 -0.3164558
000260 89 3a 1d 3f 88 06 04 be 5b 74 b6 bf f4 0a 4f bc
       0.6141744 -0.12893116 -1.4254259 -0.012636889
000270 24 37 2e 3e e5 53 8f 3f 78 17 04 be 52 59 5c be
       0.17013222 1.1197478 -0.12899578 -0.21518448
000280 e7 47 12 be ed c5 f7 3e b7 dc 3d bd e1 62 b2 3c
       -0.14285241 0.48393193 -0.04635307 0.021775665
000290 57 8e 9d be 07 a9 3c 3f ac 47 8e 3f 5a 31 0f bf
       -0.3077266 0.73695415 1.1115623 -0.5593468
0002a0 bb 8d 22 3e cd 9f 3d bf f0 24 c5 3f a9 91 53 bf
       0.15874378 -0.7407196 1.5401897 -0.82644135
0002b0 2e d3 dd bf 3f f5 73 3d b1 2e 19 be 0b 56 79 bf
       -1.7330072 0.059560057 -0.14959218 -0.97396916
0002c0 d0 cd 26 3e aa a6 9c 3f e7 9e 1a 3e 06 28 30 be
       0.16289449 1.2238362 0.15099679 -0.17202768
0002d0 1a c3 2f 3e ab 07 a2 3d 71 8a e4 bd b9 60 22 3f
       0.17164269 0.07911619 -0.11159218 0.6342884
0002e0 d2 94 15 40 d3 10 0a 3f be a5 0d bf c1 ed be 3e
       2.3372083 0.5393192 -0.5533103 0.37290767
0002f0 45 7a 4c 3e 21 6b 2f 3f cd 95 94 be 0f 2f 0a bf
       0.19968517 0.6852284 -0.2902054 -0.53978056
000300 32 53 27 bf 29 48 99 3e 05 bb 06 3f eb b8 f6 3e
       -0.6536132 0.29937866 0.5262912 0.48187956
000310 09 59 4a 3d ca 02 1a bf 09 d8 c1 be 48 cd e5 bd
       0.049401317 -0.60160506 -0.37860134 -0.11220795
000320 22 7f fa bc c4 d4 80 bc 04 9a ab 3e f2 8b 10 bf
       -0.0305782 -0.015726455 0.33515942 -0.5646354
000330 fa 93 c1 3e 60 14 a1 3d e0 1d 24 bf b0 44 9a bd
       0.3780821 0.07865214 -0.64108086 -0.07532632
000340 b9 d8 50 3e bf 5d 38 bd 60 4d 81 bf 57 9e 0b 3f
       0.20395173 -0.04501128 -1.0101738 0.5453848
000350 f8 1d 12 bf e4 cc 51 3e 5c 07 b7 3e cf ca ab bd
       -0.5707698 0.20488316 0.35747802 -0.08388292
000360 5b e1 c6 3d f8 65 b6 bf 86 4a 04 bc 51 0e e6 3e
       0.09710952 -1.4249868 -0.008074408 0.44932798
000370 96 7f d7 be ed c9 ab be 41 b3 2e be 72 d1 78 3e
       -0.42089528 -0.33552495 -0.17060567 0.24298647
000380 59 bf 00 3d 23 55 22 bd b8 00 56 3c b9 05 12 3e
       0.031432483 -0.039631974 0.013061695 0.14259996
000390 2e c1 38 be 74 01 46 3e f4 d1 c9 3f ad ad ac 3d
       -0.18042442 0.19336492 1.5767198 0.084315635
0003a0 8f 32 70 3d c1 1f 4c 3e 09 f3 ab be 6c d5 9b 3e
       0.058641966 0.19933988 -0.3358386 0.30436265
0003b0 b2 53 90 3d 51 09 13 bf 8e f4 d9 3c 46 1b 48 3e
       0.070472136 -0.5743609 0.02660587 0.19541654
0003c0 74 15 ba 3f e1 8d 52 bd 58 59 a3 bd 92 de 33 bd
       1.4537797 -0.051404838 -0.07976025 -0.04391343
0003d0 03 28 a2 be 51 ea 38 3f 39 23 20 bf 7e db b6 3e
       -0.31671152 0.7223254 -0.62553746 0.35714334
0003e0 b8 e0 91 3f 3e 26 d0 3e c9 1e 22 3e 80 7a 57 3e
       1.1396704 0.40654176 0.15832056 0.21042824
0003f0 36 85 1d 3e cd 84 e0 bd a1 97 f0 3b b4 a1 c2 3e
       0.15382847 -0.1096283 0.0073422943 0.38013995

network.6.bias f4 [40]
000000 05 89 95 3f 26 8c 61 bf a1 69 cd be ab 27 4f 3d
       1.168244 -0.88104475 -0.4011965 0.05057494
000010 8d 0a 75 3e 79 6d be bd 95 fd 7f be 04 fe 1b 3d
       0.23929806 -0.09298224 -0.24999078 0.038084045
000020 08 39 78 be a1 99 2a bf d0 28 f6 3f f9 d6 76 3f
       -0.24240506 -0.6664067 1.9231205 0.9642177
000030 0e 13 d4 bf b3 af 9f 3f 78 81 e7 3e 1a e9 c2 be
       -1.6568315 1.2475494 0.45215964 -0.38068467
000040 98 60 c7 be a6 76 d6 be 0b 3a b9 be 35 13 ba bf
       -0.38940883 -0.41887397 -0.36177096 -1.4537112
000050 c4 d1 9b be cc ec c7 bf 98 e7 2b 3f 93 f6 bf bf
       -0.30433476 -1.561914 0.6715026 -1.4997123
000060 f7 0e a0 be 32 97 09 c0 6d 22 fb be 1d b3 45 3e
       -0.31261417 -2.1498532 -0.49049702 0.19306608
000070 63 53 26 be 0e d0 fa 3d c8 27 85 be 75 fa 84 bf
       -0.16242747 0.122467145 -0.26006913 -1.0388933
000080 56 20 d7 be 73 e1 57 be d8 7f b2 3d 3d bb 9d bf
       -0.42016858 -0.21082096 0.087157905 -1.2322766
000090 b6 68 b2 bf d2 77 70 3f b6 8c 89 bf 11 cb cc 3e
       -1.3938205 0.9393283 -1.0746067 0.39998677

network.8.weight f4 [40, 40]
000000 d7 7f be bd 27 6a a2 3e 63 4d 72 be 61 cd d2 3b
       -0.09301727 0.31721613 -0.23662333 0.0064331745
000010 06 2f 98 bc a3 fe 9e be 32 2e 82 3e 0b f7 85 bd
       -0.01857711 -0.31053647 0.2542587 -0.0654126
000020 c3 06 97 bd 4f e9 22 3f 30 0e 8d be f8 b9 f8 3d
       -0.073743366 0.6363725 -0.27549887 0.12144846
000030 f5 a7 47 3d 8a 0d f4 3c 89 f4 d2 bd 0e 58 a3 bd
       0.04874416 0.029791612 -0.10300548 -0.079757795
000040 b5 dd 20 be 44 da 64 3e d1 92 dd 3e c6 9d 46 3e
       -0.15709575 0.22348887 0.43276075 0.19396123
000050 a5 66 a9 3e 74 44 92 be dd 07 a5 3d 6c 89 32 3e
       0.33086124 -0.2856785 0.080581404 0.17435235
000060 b9 c6 5b be 44 56 8e 3e 72 c9 30 3d 3e cd 47 be
       -0.21462525 0.2780019 0.043160863 -0.19511887
000070 69 fe d2 bd 78 5c ed 3d e6 fe b8 3d 3a 26 ac bc
       -0.10302431 0.11589903 0.09032993 -0.021014322
000080 50 4b 8b bc 0f 6f 9c be 44 03 a3 3e 65 33 04 3f
       -0.017003685 -0.3055348 0.3183843 0.5164092
000090 d2 c8 de bd a7 76 f3 be 82 c3 50 be 79 b3 8f bd
       -0.10878147 -0.47551462 -0.2038708 -0.070166536
0000a0 dc 00 f9 3a a7 b9 09 bc 00 93 6b bb 4c ae 01 3b
       0.0018997448 -0.008406079 -0.0035945773 0.0019787727
0000b0 c5 ae 11 3a 3b 9f 76 bb 8e 4f 4a 3b 62 0c bb bb
       0.0005557354 -0.003763153 0.0030870172 -0.0057082633
0000c0 97 ae 08 bc 9a 50 09 bc d2 50 55 3b 42 da 58 bb
       -0.008342407 -0.008381033 0.0032549393 -0.0033089076
0000d0 23 f5 96 39 36 c7 cb 3b d9 fe 45 3b 93 ce 56 3b
       0.0002879287 0.006218816 0.0030211715 0.0032776936
0000e0 50 13 08 bb 8f 84 b4 3b 0e 67 38 bc c7 8f 04 bb
       -0.0020763464 0.0055089663 -0.011255039 -0.00202273
0000f0 84 15 a8 3a 9a 40 06 3b 5d c4 4f 3b 47 7a ba 3a
       0.0012823795 0.0020485283 0.0031702735 0.0014227115
000100 76 fe 93 3a a8 ce 10 bc c5 ce 00 3c 39 33 9e bb
       0.0011291045 -0.008838333 0.007861798 -0.0048278836
000110 7a f1 21 bb 38 73 3d bb 3f 2a 9b 3a d9 a4 41 39
       -0.0024710582 -0.0028907787 0.0011838152 0.00018467325
000120 c8 ae 01 3c fb 90 07 bc 76 04 1c 3c 46 3e 88 3b
       0.007915206 -0.008274312 0.009522548 0.004157814
000130 ca 30 4a 3b 30 8b a8 3b 3e 7f 1c bb dd 11 3b 3b
       0.0030851834 0.0051435456 -0.0023879553 0.0028544583
000140 0d 5e 7a be b0 ec 12 be c8 df 09 3e 1a 87 f1 be
       -0.2444994 -0.14348102 0.13464272 -0.47173387
000150 2f 76 0d 3e d5 75 a4 3d 18 6e 6a bd ab 97 06 bd
       0.13814615 0.08030287 -0.0572339 -0.032859486
000160 5b 08 90 3d 27 a3 ad bd fd 73 a0 be 02 df 8e 3e
       0.07032844 -0.084783845 -0.31338492 0.27904516
000170 57 0c 2a 3e bd 43 9b 3e b7 5b 55 be 97 fd 5e bd
       0.1660627 0.30325118 -0.20835768 -0.05444106
000180 e8 39 a9 3e bb 3d 95 bd cb 66 9e 3c c7 cc e4 3d
       0.3305199 -0.07287165 0.019336125 0.11171871
000190 06 0c ae bb ea 79 8c be a7 1b f7 bd a8 bd 3f 3e
       -0.005311492 -0.27436763 -0.12065821 0.18724692
0001a0 84 83 89 bd 77 a8 99 bd cd b6 80 be 46 ad b1 3d
       -0.06714538 -0.07502835 -0.25139466 0.086756274
0001b0 8e 7a 40 be 2d a3 3c bd 77 27 d6 be e7 60 06 be
       -0.18796751 -0.046054054 -0.41826984 -0.13122903
0001c0 0b 73 56 be 46 c2 1f be 8b d2 f7 bd 10 f8 61 3d
       -0.20942323 -0.15601453 -0.12100705 0.05516821
0001d0 74 50 81 bd 5e 41 b9 be ec dc 35 be 5f 2b d4 bd
       -0.06314173 -0.36182684 -0.17760056 -0.10359835
0001e0 b2 9e bb 3e 62 82 ae bf 9c ac b6 3e c2 8b cd 3e
       0.36644512 -1.363354 0.35678566 0.4014569
0001f0 23 bc c5 be df 18 36 3f ef 06 0d bf b6 74 83 3e
       -0.386201 0.711317 -0.55088705 0.2567498
000200 69 ce 22 3f 2a 7b 48 bf 01 44 8c 3f 14 c4 20 bf
       0.63596207 -0.78312933 1.0958253 -0.6279919
000210 63 69 82 bd b0 4a 15 bf e8 f0 bf 3e c4 ad f6 bc
       -0.06367757 -0.5831709 0.37488484 -0.030112155
000220 df d0 7b 3e 09 36 21 bf 4d f8 62 bf f5 6c b7 be
       0.24591397 -0.62973076 -0.88660127 -0.35825315
000230 7c 8b 1c bf c8 37 c5 be f4 74 c5 be 52 c6 e0 be
       -0.61150336 -0.3851912 -0.3856579 -0.43901306
000240 6b 65 bd 3e 8d c7 45 be 70 78 1a bf 75 2f 0c 3f
       0.36991438 -0.19314404 -0.60340023 0.54759914
000250 93 39 a1 3e c7 a5 8e be 9e d6 f4 bd 63 20 ba 3e
       0.31489238 -0.27860853 -0.119549975 0.36352834
000260 79 16 bf be c1 1a b6 3d 92 3e b2 be a0 82 98 be
       -0.37321833 0.08891822 -0.34813362 -0.2978716
000270 f8 ff 98 3e 00 ae 83 3f 25 9e 36 3e e7 1e aa 3e
       0.2988279 1.0287476 0.17833765 0.33226702
000280 c7 79 06 be b8 be 3d 3f 59 af 3f 3b 42 8c b3 be
       -0.13132392 0.7411914 0.0029248802 -0.35067946
000290 46 10 64 be 41 2d 18 3c 4c ed 30 3f c3 72 5f bd
       -0.22271833 0.009288133 0.69112086 -0.054552805
0002a0 ff 28 6c be 38 0b 04 be 3b 79 73 3f 67 a1 e2 bd
       -0.23062514 -0.12894905 0.9510686 -0.11065941
0002b0 fa 4f 9d 3e 36 fe 8c 3d 64 0e 3a 3d 30 74 0b 3e
       0.3072508 0.068844244 0.04542388 0.13618541
0002c0 16 4b b6 be 0b e9 14 be 42 15 16 bf 30 eb 62 3e
       -0.3560416 -0.14542024 -0.58626187 0.2216003
0002d0 47 27 a6 3e 54 ff 04 bf 6c bf 05 bf ec 7b c2 3d
       0.3245184 -0.519521 -0.5224521 0.094962925
0002e0 f9 51 f6 3d c2 1c 62 be 45 08 51 bc 0f b6 67 3e
       0.12027354 -0.22081283 -0.012758319 0.22628044
0002f0 37 fd 87 3e 5b 51 a0 be 88 f9 8b 3c a1 ee 0b be
       0.26560375 -0.3131207 0.01708676 -0.13665248
000300 41 16 8c bc 81 e1 13 bd b1 ce ed bd 60 9c 1c 3e
       -0.017100455 -0.03610373 -0.11611689 0.15294027
000310 1b f4 65 be 46 60 e7 3e 6b d3 de bd b4 72 b3 bd
       -0.224564 0.45190638 -0.108801685 -0.08762112
000320 9f 40 b1 bb cf 77 77 ba d2 64 8d ba 76 ac 59 3b
       -0.0054093148 -0.0009440155 -0.0010787493 0.0033214367
000330 aa 22 22 3a a9 47 48 3b 0a d7 d4 3b 1a 9c 1b bb
       0.0006184975 0.003056029 0.006495361 -0.0023744167
000340 f2 78 46 3b 70 de 78 bb cc 24 e8 3b d0 b2 54 ba
       0.0030284491 -0.003797438 0.0070844647 -0.00081138033
000350 f4 0a 02 bb e7 c0 d2 b9 15 3f 42 bb 4a 8e 51 bb
       -0.0019842954 -0.00040198045 -0.002963965 -0.003197568
000360 9d 03 a5 3a 3c 43 26 3a 67 92 d3 3a f1 2b 31 bb
       0.0012589578 0.0006342416 0.0016141654 -0.0027034248
000370 cd 1d a3 bb d6 76 f0 bb 19 49 3f ba 72 fc 82 bb
       -0.0049779178 -0.007338385 -0.0007296964 -0.003997379
000380 83 23 78 3b 99 cb f7 3a eb 89 9d 3b 06 e2 10 ba
       0.0037862964 0.0018905281 0.004807701 -0.0005526844
000390 49 af 2f 3b fe 2f 93 3a f2 68 96 ba 48 c1 1a 3b
       0.002680736 0.0011229513 -0.0011475368 0.002361374
0003a0 51 58 ce ba 1c f7 a2 bb 7a 9c 90 3b 94 85 d8 3b
       -0.0015742873 -0.0049733054 0.0044131847 0.0066077206
0003b0 18 8d 30 3b 00 68 7a 3b 0a b0 ee b8 e9 cf 4d 3b
       0.0026939567 0.0038208961 -0.00011381514 0.0031404442
0003c0 1c 22 ae bb f4 aa 52 3b 54 9b aa 3a 8c 4a af 39
       -0.0053141247 0.0032145353 0.0013016262 0.00033434143
0003d0 46 21 51 ba e7 6f 49 3b f9 99 60 b9 2a c6 73 3a
       -0.00079776754 0.0030736865 -0.00021419664 0.0009299243
0003e0 7d 4b 38 3b a6 00 92 39 f0 da f9 3a 10 78 8a ba
       0.0028121166 0.00027847773 0.0019062441 -0.0010564346
0003f0 80 5e b2 b9 8c 3b 11 ba 67 a3 01 bb 22 1c d3 bb
       -0.00034021214 -0.0005540184 -0.0019781233 -0.0064425627

network.8.bias f4 [40]
000000 4a 85 9e 3f bf 33 9c ba a8 f6 ad 3e d2 98 e0 3d
       1.2384427 -0.0011917277 0.33977246 0.10966648
000010 af 54 81 bf 89 5c 9a ba cd 5a 01 bb 3d 85 00 bb
       -1.0103968 -0.0011776845 -0.001973796 -0.0019610666
000020 f8 d4 93 bc 25 33 b1 bb 23 16 6c bf c2 57 0a 40
       -0.018045887 -0.005407708 -0.9222128 2.1616063
000030 2c 37 2c 3c 1c 39 ad bb 6b 43 f4 ba d9 8d 18 bc
       0.010511201 -0.005286349 -0.0018635815 -0.009311163
000040 a3 c8 3f 3f a7 93 54 bc 14 2a 88 bb 63 ac 5d ba
       0.7491552 -0.012974656 -0.0041554067 -0.00084561686
000050 13 25 22 bf 61 fc 4c 3b 4a c9 71 3b 8e 05 71 3b
       -0.6333782 0.003127836 0.003689366 0.0036776992
000060 b6 23 20 3b e6 52 d7 bb 68 8c 97 3b 74 67 2d bd
       0.0024435348 -0.0065711616 0.004624892 -0.04233499
000070 bb 2c d5 3c 1e a7 a9 bb 45 96 a7 ba b8 f1 84 3a
       0.026022306 -0.0051773926 -0.0012785873 0.0010142839
000080 f2 07 2f 3b 03 ce f1 b9 f8 49 a8 3b 88 29 dd be
       0.0026707617 -0.00046120593 0.005135771 -0.43195748
000090 bf 7a 3c bf 39 ad f3 3b 53 59 36 bb bd b5 0d 3c
       -0.73624796 0.0074364212 -0.0027824237 0.008649287

network.10.weight f4 [1, 40]
000000 aa c6 bf bd 55 f8 81 bb da 85 1b bd 00 b5 40 3e
       -0.09364064 -0.003966371 -0.037969448 0.18819046
000010 07 de b6 bd 7e d0 cf b7 61 f0 10 39 4b 99 a4 3a
       -0.08929067 -2.477341e-05 0.00013822458 0.0012557892
000020 92 a6 2e b9 e3 b4 35 3c de 08 72 bd 27 0b 4c 3e
       -0.00016655985 0.01109049 -0.059090488 0.1992613
000030 41 af f3 38 63 18 6a bb d4 91 5c b8 77 e0 46 b5
       0.000116197865 -0.0035720102 -5.25879e-05 -7.408739e-07
000040 2c 87 a6 bd c2 3d 8d 3b fa c3 c2 37 4b cc 01 3a
       -0.08131251 0.0043103406 2.321786e-05 0.00049514015
000050 78 72 38 3e 95 b6 ae 3a 25 84 d0 37 f0 ac 5d 3b
       0.18012416 0.001332956 2.4857067e-05 0.0033825003
000060 33 e9 7d 39 18 73 93 b8 26 83 1e bb 11 e2 74 3d
       0.00024214834 -7.030944e-05 -0.0024187057 0.059785906
000070 6a ae 86 3d 99 62 3f b8 79 00 25 bb 7e a1 e5 b9
       0.065762356 -4.5629775e-05 -0.0025177284 -0.00043798605
000080 ba 01 a0 39 88 fb 9a b8 e9 4a 83 b9 ff b5 fa bd
       0.00030518865 -7.3901436e-05 -0.0002504208 -0.12241744
000090 84 5a 9a 3d 1a d0 96 3b f3 66 b0 3b 08 81 35 38
       0.07536796 0.0046024444 0.0053833663 4.3273933e-05
