injector_surrogate/results/model4_3hidden_30nodes_500epoch_0.01.pth (torch, 15495 bytes, 9 tensors)

network.0.weight f4 [30, 9]
-0.19515532 0.08748525 0.059117083 0.2780799 0.5449466 0.47440073 1.4085159 3.2608972
1.5001434 0.06708841 -0.9238491 -0.37279543 0.07207582 -0.7579675 0.34423095 0.47041225
-0.23289354 -0.35263002 -0.03731738 0.115135245 -0.09087333 0.07007761 0.20611899 -0.15835252
-0.4190134 3.5162182 1.3892387 0.8260207 0.0021169065 -0.12506554 -2.4128764 -1.8790048
0.46745393 0.42254296 0.07510205 0.2792042 0.7673448 0.13838173 -0.29786935 -0.72761405
-0.65603566 0.99127007 0.17431974 0.8515165 1.3238447 -0.016566936 0.012422647 0.03137146
0.23753244 0.21370882 0.26418772 0.065052144 -2.302942 -3.9890654 0.54345554 -0.82417965
-0.7439605 0.50192976 0.7279928 -0.3268488 -0.15339617 -0.49193475 -0.4756989 -0.10940876
-1.4388195 -0.89801455 -0.17420873 -0.23313138 0.08427018 -0.046014424 0.25511253 0.08336618
0.03813745 -0.055377062 -0.10041324 0.50592244 -0.25253475 -2.6691232 -2.670195 -0.04124448
0.09779778 -0.4093178 -0.28450465 0.08898304 -1.1241348 -0.98718965 -0.73780316 -1.3807076
1.7234222 0.8443412 0.030141495 -0.42613015 0.3370053 0.10087456 0.13002843 0.6451885
1.1946114 1.0855259 1.8232061 -0.9844114 0.270061 -0.9464377 0.8282203 0.7244699
0.40911156 1.4000578 1.153751 0.65871775 0.3910869 0.27807027 -0.16480525 1.0963207
3.512638 -0.03342971 -0.2931732 -0.25797883 -0.15513557 -0.0624005 -0.033191256 0.04195654
0.16911872 0.036408905 -3.4088643 -1.8199176 0.13696665 0.28392434 -0.4515804 0.04409574
-0.047100633 0.3295566 0.05124977 -1.9393554 1.1522799 0.37170768 0.051877096 -4.496481
-0.37423018 0.34039003 -1.1933783 -0.32060367 0.18635203 -0.012541193 0.17548586 0.32355702
0.12491398 0.22377291 -0.2085985 -0.09653117 -0.78657645 1.7979425 1.0253094 -1.4262834
-0.6547177 -0.0656474 0.009154177 0.028691579 0.05561461 0.15368252 1.5582775 3.4933913
-0.5395273 -0.26520967 -1.243904 0.19727656 -0.3804837 -1.086175 -0.68716 0.17674783
0.09680052 0.19264138 0.28522927 1.8557588 0.38573024 -0.68959886 0.17185338 0.436177
-0.15444154 -0.029872477 0.1424095 0.060331024 -0.658367 1.1454055 -0.5333918 -0.2838312
-0.3586771 -0.33810136 -0.5457738 -0.24242441 -0.028922014 0.095167205 -0.10424801 0.060592644
1.3383232 2.4774232 0.42147928 0.33550328 0.35902688 0.33033827 3.7084832 -0.12605318
0.15651514 -1.2584013 -2.1264167 -0.109116785 -0.23358896 0.19472772 0.21221484 0.01623091
-0.7837364 -0.32222354 0.39566115 0.24769531 -0.14369847 -0.5069633 0.619407 1.5533863
-2.175527 0.62498665 -0.6742426 0.48760524 0.4196424 -0.18768077 -0.3661799 0.39609328
0.18882076 0.13781875 0.6914913 -0.21374084 0.6477769 2.4364958 0.26146758 0.7829712
-2.2462697 -0.23131923 0.45828667 -0.20820703 0.2077139 -2.3664112 -0.1662488 0.03973241
0.130922 0.059854396 0.13696468 -0.5458737 -0.26497197 0.60060686 2.3745399 1.0808613
-0.06699295 -0.19204126 -0.087106556 -0.065149024 1.9784784 -0.44006205 0.3811835 0.7716895
00000000: ccd6 47be 772b b33d c124 723d 7d60 8e3e
00000010: 9f81 0b3f a7e4 f23e 404a b43f 8ab2 5040
00000020: b304 c03f a665 893d 6081 6cbf 0bdf bebe
00000030: 7d9c 933d 280a 42bf 0a3f b03e e0d9 f03e
00000040: a57b 6ebe ec8b b4be 1cda 18bd 07cc eb3d
00000050: cc1b babd da84 8f3d db10 533e 2a27 22be
00000060: ed88 d6be b809 6140 93d2 b13f 1876 533f
00000070: ccbb 0a3b 2e11 00be 916c 1ac0 3b83 f0bf
00000080: 1f56 ef3e 8d57 d83e 1bcf 993d daf3 8e3e
00000090: b570 443f f1b3 0d3e 5582 98be ea44 3abf
000000a0: f4f1 27bf e0c3 7d3f e080 323e fcfc 593f
000000b0: be73 a93f 62b7 87bc 5c88 4b3c 5c7f 003d
000000c0: b43b 733e 7cd6 5a3e 9d43 873e 0f3a 853d
000000d0: 6763 13c0 d94c 7fc0 e71f 0b3f 70fd 52bf
000000e0: 3274 3ebf 787e 003f bc5d 3a3f ba58 a7be
000000f0: e313 1dbe dfde fbbe ce8e f3be b311 e0bd
00000100: 3d2b b8bf 48e4 65bf c663 32be feb9 6ebe
00000110: d895 ac3d 9f79 3cbd 1c9e 823e e3bb aa3d
00000120: 0436 1c3d 0fd3 62bd 75a5 cdbd 2284 013f
00000130: 3c4c 81be ead2 2ac0 7ae4 2ac0 f9ef 28bd
00000140: 344a c83d 1a92 d1be 98aa 91be bd3c b63d
00000150: a6e3 8fbf 76b8 7cbf abe0 3cbf 07bb b0bf
00000160: 1999 dc3f bf26 583f 4ceb f63c bb2d dabe
00000170: f58b ac3e 5297 ce3d 2c26 053e 132b 253f
00000180: 07e9 983f 83f2 8a3f d15e e93f 6302 7cbf
00000190: 6f45 8a3e be49 72bf 3f06 543f dc76 393f
000001a0: 1277 d13e 1835 b33f 1dae 933f baa1 283f
000001b0: 8b3c c83e 3a5f 8e3e b5c2 28be 3d54 8c3f
000001c0: 10cf 6040 97ed 08bd cc1a 96be cd15 84be
000001d0: dcdb 1ebe ab97 7fbd 8ef3 07bd 9fda 2b3d
000001e0: 752d 2d3e 8121 153d d52a 5ac0 0ff3 e8bf
000001f0: fc40 0c3e 885e 913e 8c35 e7be bc9d 343d
00000200: 98ec 40bd a5bb a83e 47eb 513d cc3c f8bf
00000210: e87d 933f 7850 be3e 147d 543d 2ce3 8fc0
00000220: 199b bfbe 9a47 ae3e 9fc0 98bf 2a26 a4be
00000230: 11d3 3e3e 9379 4dbc 91b2 333e 44a9 a53e
00000240: e7d2 ff3d ba24 653e d89a 55be 22b2 c5bd
00000250: 135d 49bf fb22 e63f 573d 833f 7490 b6bf
00000260: 949b 27bf 2572 86bd 67fb 153c 9a0a eb3c
00000270: 25cc 633d f35e 1d3e a375 c73f b993 5f40
00000280: 761e 0abf 90c9 87be 3f38 9fbf de02 4a3e
00000290: c2ce c2be c807 8bbf b8e9 2fbf 62fd 343e
000002a0: 5a3f c63d c843 453e 9209 923e 8189 ed3f
000002b0: 6f7e c53e 8d89 30bf 55fa 2f3e 9752 df3e
000002c0: ec25 1ebe 20b7 f4bc ccd3 113e aa1d 773d
000002d0: bd8a 28bf a69c 923f 5d8c 08bf 5352 91be
000002e0: 86a4 b7be 9f1b adbe d5b7 0bbf 1b3e 78be
000002f0: dced ecbc 06e7 c23d fb7f d5bd fe2f 783d
00000300: 2d4e ab3f 1a8e 1e40 22cc d73e 16c7 ab3e
00000310: 5fd2 b73e 1922 a93e ca57 6d40 1614 01be
00000320: 8145 203e 4b13 a1bf 3617 08c0 9f78 dfbd
00000330: f231 6fbe b466 473e d94e 593e aff6 843c
00000340: f3a2 48bf 7cfa a4be 1994 ca3e d7a3 7d3e
00000350: b125 13be 59c8 01bf 7591 1e3f 5dd5 c63f
00000360: d63b 0bc0 20ff 1f3f 2a9b 2cbf 65a7 f93e
00000370: 5edb d63e 632f 40be ef7b bbbe bdcc ca3e
00000380: 3b5a 413e 5c20 0d3e 9305 313f e1de 5abe
00000390: b5d4 253f 8cef 1b40 14df 853e cd70 483f
000003a0: e2c2 0fc0 f3de 6cbe 8da4 ea3e 3934 55be
000003b0: f4b2 543e 4873 17c0 203d 2abe 74be 223d
000003c0: 6b10 063e e229 753d 7840 0c3e 61be 0bbf
000003d0: 68aa 87be 5fc1 193f 76f8 1740 aa59 8a3f
000003e0: 9a33 89bd 77a6 44be ec64 b2bd da6c 85bd
000003f0: c83e fd3f d04f e1be 7c2a c33e 718d 453f

network.0.bias f4 [30]
-3.3209863 0.94102776 -3.4192946 0.67046463 -1.2526227 1.2122566 0.8001675 0.50485784
2.412548 1.2855295 -2.4902747 -0.43731558 -3.0616057 1.0851027 -0.5383959 3.0271685
-0.9074469 -3.1677873 1.8569795 -0.3526361 0.7247683 -2.5719059 -0.2443879 -0.37309727
-0.18516898 0.20790155 0.2110267 -2.0921972 -0.1968682 -2.1594214
00000000: 0a8b 54c0 32e7 703f b9d5 5ac0 92a3 2b3f
00000010: f155 a0bf 392b 9b3f c7d7 4c3f 5d3e 013f
00000020: 3067 1a40 3b8c a43f a960 1fc0 d4e7 dfbe
00000030: 59f1 43c0 a5e4 8a3f 50d4 09bf 21bd 4140
00000040: 714e 68bf 07bd 4ac0 81b1 ed3f b88c b4be
00000050: 6a8a 393f 1b9a 24c0 d240 7abe 9b06 bfbe
00000060: f09c 3dbe 25e4 543e 6217 583e 8fe6 05c0
00000070: d197 49be f633 0ac0

network.2.weight f4 [30, 30]
0.048419274 -0.1838982 0.2194628 1.5226613 -0.46404368 1.6123565 -0.024397427 -0.08130496
0.065910496 0.5538811 -0.4861733 -0.15106386 0.41864395 0.56649554 0.023443485 -0.47361857
0.6123018 0.36480853 1.3675642 0.44413137 -0.25816917 -0.6830736 -0.36897635 0.0012586399
0.23796012 0.3061197 0.7310936 -0.10211353 0.82905585 0.2441078 0.25683242 -0.022235822
0.23512654 -0.1710956 -0.16948847 0.10903216 -0.94958866 0.7854451 2.8888936 -0.16419502
-0.12953933 -0.084002696 1.0331342 -1.6718304 -3.0770104 0.08047352 0.43973258 -2.9137623
-0.82657593 0.137623 0.49983713 0.8188407 -0.25377843 0.78678334 -0.3537801 -0.14690545
0.18513887 0.0073515056 -0.45727074 -0.5109347 -0.8250655 -0.5676759 -1.3389384 0.4276579
0.29988128 -1.6957353 0.070684396 0.29304177 0.51505893 -0.44754952 1.5958042 0.105709985
0.48509106 -0.6141506 0.15989225 -0.0019401568 -0.58685106 -0.15158448 -0.058253467 -0.104897305
0.63398284 -0.07053433 0.31438377 0.8844555 -0.28686497 0.13703395 -0.34499398 0.35502183
-0.51406676 0.28532955 1.479375 0.5236106 2.47003 0.08581073 0.0001267991 0.789761
-0.30814907 -0.5600052 -0.58252555 -0.13970864 0.63356245 0.56895596 -0.2636848 0.075826995
0.73084617 0.047389284 0.015327353 1.5638708 -0.31636545 0.19057381 -0.29453433 -0.42656702
0.06879742 0.23990035 0.039158367 -0.19696875 0.26715192 -0.29614282 0.059664913 0.46105424
1.0080268 -0.15277165 -1.259493 -0.5762309 0.34798688 0.038661387 0.0219737 0.21810687
-0.24650717 -0.062185414 0.071548246 0.20509301 1.9234842 0.12794709 0.32317173 0.12964313
0.012428178 2.9648209 -0.08889586 0.43447754 -0.293633 1.0180199 0.67348695 -0.1648189
0.5425573 0.078218035 0.16130903 0.13299271 -0.19853349 -0.2771459 -0.71388274 0.6316044
-0.2858055 0.8725325 -0.56353563 0.15934224 -0.64381176 -0.33339065 -0.09630568 0.33205596
-0.14507346 0.4131184 2.3533816 0.24166399 0.13623188 0.52304083 -0.8361337 -0.4140324
-0.6056668 1.1790146 -0.8800651 2.4343123 0.29105848 -0.06301352 -0.0042641126 -0.07828341
0.28270224 1.368806 -0.87606806 0.38950062 -3.0007875 0.0069236793 0.020324534 0.15057178
-0.30409342 -0.047278333 -0.067486465 0.5859372 -0.6813543 -0.2432867 0.06343585 -0.2392195
-0.139386 0.30250224 0.058466714 0.39410195 -0.9428348 -5.565681 0.23525319 -0.56386673
0.36202517 -1.3699832 0.19135931 -0.42157486 -0.4857464 0.41755798 -0.5899079 0.9144619
-0.36833706 0.44836944 0.03864058 -0.89327693 0.10419453 0.047602642 -0.4383898 -0.12202557
-1.1546023 -1.8812052 0.019870995 0.0688215 0.082022354 -0.47334677 -0.08483331 -0.20486034
0.20984645 -0.18354006 0.121233314 0.07485459 -0.43071863 -0.6607633 0.25340307 0.31503913
-0.38985643 -0.3917184 -0.34415734 0.06904923 -0.14813316 -0.4224947 0.45274395 0.53576374
-0.05899601 0.87485117 -1.2877373 -0.24220936 -0.494374 1.4828811 -0.12136126 0.45592493
-0.57936144 0.3275453 0.90165627 -0.99781287 -0.6776275 -0.19905233 -0.04851588 -0.063583344
00000000: 4a53 463d cf4f 3cbe dbba 603e 91e6 c23f
00000010: 2297 edbe b361 ce3f 1ddd c7bc 3783 a6bd
00000020: 15fc 863d 27cb 0d3f b5eb f8be 7cb0 1abe
00000030: 8058 d63e da05 113f 8d0c c03c 227e f2be
00000040: d0bf 1c3f 2fc8 ba3e 580c af3f 3065 e33e
00000050: c02e 84be e9dd 2ebf 78ea bcbe f2f8 a43a
00000060: d1ab 733e b9bb 9c3e f328 3b3f e620 d1bd
00000070: 013d 543f 65f7 793e 8a7f 833e e627 b6bc
00000080: 03c5 703e af33 2fbe 638e 2dbe 414c df3d
00000090: 3e18 73bf ee12 493f a2e3 3840 bd22 28be
000000a0: f5a5 04be 9b09 acbd be3d 843f 8afe d5bf
000000b0: bded 44c0 4dcf a43d a124 e13e 157b 3ac0
000000c0: 7b9a 53bf 0bed 0c3e a7ea ff3e 8b9f 513f
000000d0: 3fef 81be a26a 493f aa22 b5be 626e 16be
000000e0: 0b95 3d3e e6e4 f03b 641f eabe 9ecc 02bf
000000f0: 7e37 53bf 3553 11bf 5562 abbf faf5 da3e
00000100: 0a8a 993e db0d d9bf fbc2 903d 9209 963e
00000110: e7da 033f 3625 e5be 5043 cc3f 7a7e d83d
00000120: db5d f83e f938 1dbf cbba 233e dc4c feba
00000130: df3b 16bf f638 1bbe 309b 6ebd 66d4 d6bd
00000140: b34c 223f 4e74 90bd e9f6 a03e ad6b 623f
00000150: f7df 92be a152 0c3e 0da3 b0be 6cc5 b53e
00000160: e199 03bf b716 923e 295c bd3f 580b 063f
00000170: f914 1e40 89bd af3d 60f5 0439 c72d 4a3f
00000180: b7c5 9dbe 805c 0fbf 6520 15bf c80f 0fbe
00000190: 2631 223f 19a7 113f b201 87be 2f4b 9b3d
000001a0: bc18 3b3f 441b 423d 941f 7b3c eb2c c83f
000001b0: a7fa a1be c825 433e 34cd 96be fe66 dabe
000001c0: a9e5 8c3d 70a8 753e 8664 203d 2db2 49be
000001d0: 23c8 883e 08a0 97be 3263 743d 4d0f ec3e
000001e0: 0607 813f 2c70 1cbe 1137 a1bf de83 13bf
000001f0: 562b b23e 675b 1e3d 3002 b43c 6857 5f3e
00000200: 606c 7cbe 22b6 7ebd e387 923d e703 523e
00000210: bb34 f63f 9004 033e c476 a53e 2bc1 043e
00000220: 8f9f 4b3c a0bf 3d40 080f b6bd d773 de3e
00000230: 1157 96be 7a4e 823f a469 2c3f 49c6 28be
00000240: 09e5 0a3f c730 a03d 322e 253e 3e2f 083e
00000250: 5d4c 4bbe 11e6 8dbe 05c1 36bf d3b0 213f
00000260: 1955 92be 4a5e 5f3f df43 10bf 9d2a 233e
00000270: d9d0 24bf 2eb2 aabe ea3b c5bd 3d03 aa3e
00000280: 238e 14be 4184 d33e ce9d 1640 c476 773e
00000290: 5f80 0b3e 01e6 053f dc0c 56bf 0efc d3be
000002a0: fb0c 1bbf f3e9 963f f24b 61bf c6cb 1b40
000002b0: 9e05 953e 3b0d 81bd f8b9 8bbb 0d53 a0bd
000002c0: 59be 903e 0935 af3f ff45 60bf a06c c73e
000002d0: e70c 40c0 08e0 e23b a37f a63c 7d2f 1a3e
000002e0: 22b2 9bbe eda6 41bd 5836 8abd fbff 153f
000002f0: 3c6d 2ebf 2620 79be a8ea 813d f5f5 74be
00000300: 34bb 0ebe 93e1 9a3e cb7a 6f3d bbc7 c93e
00000310: 9f5d 71bf 0f1a b2c0 36e6 703e 9259 10bf
00000320: 5d5b b93e 9c5b afbf b2f3 433e a9d8 d7be
00000330: c1b3 f8be 29ca d53e 3404 17bf 2d1a 6a3f
00000340: ad96 bcbe ae90 e53e 9645 1e3d ccad 64bf
00000350: f163 d53d fdfa 423d a174 e0be 8be8 f9bd
00000360: 02ca 93bf 55cb f0bf 7fc8 a23c 49f2 8c3d
00000370: 56fb a73d 825a f2be 16bd adbd e9c6 51be
00000380: fde1 563e edf1 3bbe 2c49 f83d 5d4d 993d
00000390: 2787 dcbe c927 29bf 0cbe 813e cf4c a13e
000003a0: 439b c7be 508f c8be 6435 b0be af69 8d3d
000003b0: 38b0 17be 3a51 d8be 0ece e73e d027 093f
000003c0: cda5 71bd 3ff6 5f3f 93d4 a4bf bb05 78be
000003d0: 971e fdbe 0ccf bd3f 418c f8bd fe6e e93e
000003e0: 0851 14bf 04b4 a73e f2d2 663f aa70 7fbf
000003f0: ff78 2dbf 60d4 4bbe 96b8 46bd fc37 82bd

network.2.bias f4 [30]
-0.29993707 0.94815284 -0.00063357526 1.7139167 3.4893818 2.9208684 -2.476247 -1.7061377
0.64509106 -1.7748094 0.82956594 -0.15093789 0.5065635 -0.52695423 -2.0450945 -0.11084741
0.29081842 -0.95618904 1.0640012 2.6780412 3.5767238 -1.3383912 -1.9152819 -3.2413902
2.6656501 -0.84242463 -0.13282739 1.7713819 3.4999537 -0.67321926
00000000: 5a91 99be 25ba 723f 8416 26ba 9f61 db3f
00000010: 0852 5f40 82ef 3a40 d57a 1ec0 b862 dabf
00000020: b024 253f f42c e3bf 6f5e 543f 768f 1abe
00000030: 25ae 013f 79e6 06bf d4e2 02c0 f803 e3bd
00000040: 27e6 943e cec8 74bf 3131 883f 0765 2b40
00000050: 0be9 6440 6750 abbf f527 f5bf f072 4fc0
00000060: 039a 2a40 24a9 57bf e703 08be a4bc e23f
00000070: 3eff 5f40 1958 2cbf

network.4.weight f4 [30, 30]
-0.34719914 1.2963537 -1.1940353 2.643842 -0.6343435 -2.1249943 -0.55687314 -0.33316603
1.0489315 -1.1519766 -1.4701061 -0.4163682 3.5527961 -1.3278095 -1.0723876 -0.2737337
-1.3517784 -0.19964777 0.47351328 1.3976164 0.70550746 0.8792975 0.6677524 1.1360043
1.522182 0.72106016 0.007982759 0.08740238 0.05814269 0.65736294 1.6086192 -0.048897207
0.9502012 0.6278565 -0.26876113 0.71671927 0.05918241 -0.71060467 -0.07290991 0.84078276
-0.8255176 -0.31706357 -0.45701095 0.38524088 0.24893892 -0.70870936 -0.20117386 -0.7074478
0.30366832 2.3213134 0.19098905 -0.287397 -3.0923324 0.5984779 0.13234958 1.2634804
2.3587668 1.4467515 -0.49392363 1.4361843 0.2297091 -0.19756223 -0.5043112 0.49356282
-0.041610368 -0.35949162 -0.35094684 -0.7230577 -0.44900566 0.21797423 0.14847533 0.10469797
-0.5384866 0.44552615 -0.22844447 0.3021652 -0.58368117 -0.530701 0.045591477 0.33972794
-0.074599005 -0.1823931 0.8785982 0.5931274 -0.29951912 0.18721151 0.3704955 0.1800385
0.06995275 -0.025999269 -1.1950455 -0.27982643 0.00080604403 0.025392137 -0.45933437 0.34120536
0.05742441 1.140071 -0.6297831 1.0601177 -0.51598686 -0.22477576 1.1210402 0.13140516
0.19582869 -0.120463446 -0.28055486 0.979326 -0.3601631 -0.05020526 -0.68117714 0.16044655
-0.29308125 0.08021164 0.08742023 0.442646 -0.542878 -0.15607782 -0.25600404 -1.690044
0.47450116 -0.15505894 -1.3859721 -0.9255659 -0.12801224 0.30818436 0.6483285 -0.5782462
-0.37307578 0.26523104 -0.016722877 0.31524986 2.57666 -0.19333369 0.45952928 -0.05002621
-0.09210853 -0.47480473 0.046783563 -0.24813773 0.18213291 0.39641786 1.242772 0.088347845
-0.05372817 0.4237969 0.3671256 -0.29593778 0.092512175 1.4614192 -1.3450874 0.31873465
0.09593141 0.4449653 0.16270086 -0.20279907 -1.012815 -0.10331303 -0.20072751 0.23584186
-0.16023128 0.39179727 -0.8615661 -0.19658439 -0.6783089 0.36150938 -1.3522681 0.25087994
0.11689573 0.91181135 0.078474306 -0.81436926 2.662167 -0.55998164 -0.32184172 0.493694
-0.29116556 0.382836 -0.7725845 -0.2916878 1.5140868 0.70204306 0.05241006 -0.26994073
0.39616844 0.30537564 0.29967788 0.016394598 0.26071492 -2.7578726 -1.0976509 0.19732663
-0.9290038 -0.29022986 -0.31145507 -0.8116877 0.23960796 0.561913 -0.5578521 0.4358011
2.5151987 -0.46066323 0.06878996 -0.40579936 0.33414084 -0.35222355 1.3741618 0.36959046
0.76821524 0.7756325 0.6461573 2.6171372 0.87743515 1.8074323 -2.0702965 -0.008044387
0.017862093 0.18993492 1.0523552 -0.27615455 1.4541348 -0.44132867 -0.053331304 -0.57551813
1.4002348 -0.5070063 0.028468177 -0.44020194 0.1890483 -0.35263127 0.30048907 -0.4706964
0.28519017 1.053355 -1.6418813 0.96568274 1.3225455 1.5943298 0.65538573 -1.00102
0.013117544 -1.5367391 1.1714149 -1.1175916 -1.9542286 0.3943343 0.81168664 0.5634433
0.6403509 0.2627112 -1.0335006 -0.04436109 0.28609234 0.19950096 -0.9215799 0.015269604
00000000: 16c4 b1be ebee a53f 26d6 98bf b534 2940
00000010: 5664 22bf e8ff 07c0 3d8f 0ebf bd94 aabe
00000020: 6343 863f f873 93bf 702c bcbf 362e d5be
00000030: 0361 6340 a9f5 a9bf ff43 89bf d326 8cbe
00000040: 1307 adbf 7770 4cbe 5570 f23e 18e5 b23f
00000050: 239c 343f a419 613f d2f1 2a3f 9768 913f
00000060: dcd6 c23f 6697 383f 1eca 023c 0500 b33d
00000070: 0827 6e3d f048 283f 3ce7 cd3f 7048 48bd
00000080: 6340 733f 34bb 203f 0f9b 89be ea7a 373f
00000090: 4169 723d 30ea 35bf ca51 95bd 8a3d 573f
000000a0: 1f55 53bf 2856 a2be 57fd e9be 4b3e c53e
000000b0: d8e9 7e3e fa6d 35bf 8500 4ebe 4d1b 35bf
000000c0: 6a7a 9b3e 6690 1440 a292 433e b325 93be
000000d0: c6e8 45c0 d935 193f a686 073e bab9 a13f
000000e0: 09f6 1640 272f b93f 8fe3 fcbe e3d4 b73f
000000f0: dd38 6b3e c14d 4abe 8a1a 01bf 44b4 fc3e
00000100: a26f 2abd 490f b8be 4eaf b3be 4f1a 39bf
00000110: 12e4 e5be a334 5f3e eb09 183e e46b d63d
00000120: 42da 09bf 011c e43e 59ed 69be 66b5 9a3e
00000130: 216c 15bf 05dc 07bf 21be 3a3d d2f0 ad3e
00000140: 5dc7 98bd 42c5 3abe d0eb 603f 33d7 173f
00000150: 925a 99be 60b4 3f3e 96b1 bd3e 035c 383e
00000160: 6343 8f3d 6bfc d4bc 40f7 98bf 6945 8fbe
00000170: b34c 533a 2c03 d03c e02d ebbe 78b2 ae3e
00000180: dc35 6b3d d9ed 913f 7739 21bf f0b1 873f
00000190: b717 04bf 9e2b 66be 3f7e 8f3f 138f 063e
000001a0: 5187 483e 8ab5 f6bd e3a4 8fbe 1cb5 7a3f
000001b0: 4c67 b8be 08a4 4dbd a061 2ebf 1a4c 243e
000001c0: bf0e 96be 0046 a43d 6109 b33d 7fa2 e23e
000001d0: 0dfa 0abf ddd2 1fbe f612 83be 5d53 d8bf
000001e0: d1f1 f23e c5c7 1ebe 8967 b1bf e3f1 6cbf
000001f0: a415 03be 57ca 9d3e dbf8 253f f107 14bf
00000200: ca03 bfbe 5dcc 873e 6afe 88bc 6e68 a13e
00000210: ffe7 2440 44f9 45be 6c47 eb3e 48e8 4cbd
00000220: 66a3 bcbd 9b19 f3be 1fa0 3f3d d117 7ebe
00000230: 0d81 3a3e 48f7 ca3e 2713 9f3f b7ef b43d
00000240: 1212 5cbd e8fb d83e e3f7 bb3e 2885 97be
00000250: 0677 bd3d c90f bb3f d32b acbf 3031 a33e
00000260: b077 c43d 7ed2 e33e 0e9b 263e 8faa 4fbe
00000270: eca3 81bf c895 d3bd 838b 4dbe 8780 713e
00000280: ab13 24be a799 c83e 998f 5cbf 6b4d 49be
00000290: a7a5 2dbf c217 b93e 1f17 adbf 5673 803e
000002a0: 0767 ef3d 786c 693f 23b7 a03d 817a 50bf
000002b0: f260 2a40 f55a 0fbf 70c8 a4be 76c5 fc3e
000002c0: a713 95be 1503 c43e 19c8 45bf 1a58 95be
000002d0: 99cd c13f 18b9 333f eeab 563d ac35 8abe
000002e0: 97d6 ca3e 325a 9c3e 616f 993e f74d 863c
000002f0: 6d7c 853e fc80 30c0 d37f 8cbf fe0f 4a3e
00000300: 31d3 6dbf 0299 94be 0a77 9fbe c4ca 4fbf
00000310: ca5b 753e 88d9 0f3f 65cf 0ebf 5221 df3e
00000320: 04f9 2040 0ddc ebbe c0e1 8c3d efc4 cfbe
00000330: 8214 ab3e a556 b4be 89e4 af3f f63a bd3e
00000340: c1a9 443f da8f 463f 916a 253f 2d7f 2740
00000350: 979f 603f f159 e73f bd7f 04c0 9bcc 03bc
00000360: 8653 923c 4d7e 423e 93b3 863f 2164 8dbe
00000370: 1721 ba3f d5f5 e1be ed71 5abd 2855 13bf
00000380: e53a b33f 2acb 01bf 1836 e93c 2662 e1be
00000390: e195 413e 168c b4be b4d9 993e 1eff f0be
000003a0: 7204 923e 56d4 863f 2b29 d2bf fc36 773f
000003b0: 2c49 a93f 0013 cc3f 5cc7 273f 6c21 80bf
000003c0: f8ea 563c deb3 c4bf ecf0 953f 3e0d 8fbf
000003d0: 2a24 fabf 2fe6 c93e b2ca 4f3f d23d 103f
000003e0: 09ee 233f 1582 863e bf49 84bf f9b3 35bd
000003f0: b27a 923e fb49 4c3e a9ec 6bbf 5c2d 7a3c

network.4.bias f4 [30]
0.38402027 1.0200518 1.4103699 -1.1406132 -1.7308939 -2.4053345 2.5979583 2.017412
0.8140023 2.6647885 -1.9401237 1.2948332 -1.4677244 1.8149263 -0.22976016 0.84742785
0.8190073 0.36379513 -0.1681463 0.6141065 -1.0435143 -1.4057325 0.12544568 1.8797892
0.060701057 -1.1679791 -0.8977465 -0.7925295 -0.65439403 0.20148446
00000000: 4e9e c43e 0f91 823f 0087 b43f 9dff 91bf
00000010: ee8d ddbf 00f1 19c0 f344 2640 471d 0140
00000020: 7462 503f e58b 2a40 f955 f8bf 18bd a53f
00000030: 65de bbbf 814f e83f 3f46 6bbe 08f1 583f
00000040: 76aa 513f 5b43 ba3e 8b2e 2cbe 1536 1d3f
00000050: e091 85bf 0bef b3bf d574 003e ef9c f03f
00000060: aca1 783d 5780 95bf b7d2 65bf 37e3 4abf
00000070: 5e86 27bf f151 4e3e

network.6.weight f4 [30, 30]
0.03186289 -0.03795954 -0.034298822 -0.017134732 0.01160511 0.043603167 -0.01200397 -0.021895757
0.009628001 -0.0134752225 0.023466086 -0.022946758 -0.012649734 0.062346365 -0.03221337 -0.07833309
0.022439716 -0.043473963 -0.043480553 0.00911927 -0.005655689 0.01203873 0.030296244 0.019835114
-0.013943835 -0.03398113 -0.013759939 0.0077056345 -0.01608273 0.017145636 0.024928888 -0.036229406
0.011127758 0.026270816 -0.023824884 -0.003613723 0.02652295 0.004928729 -0.035103537 -0.105810486
0.010279762 0.012149656 0.0055589043 0.005930759 0.01577344 -0.050899457 0.024665259 0.029621026
-0.03798561 0.057100095 -0.006774468 -0.018391976 0.012218957 0.0361616 -0.028297925 0.0028174412
-0.040616143 -0.009266757 0.04946524 0.015122609 0.24495485 0.09786758 0.41375545 -0.3369414
-0.11649855 -0.73808223 0.085153915 0.016637985 -0.36093116 0.21901663 -0.32674393 0.8032931
0.6925181 -0.12907642 0.45202327 -0.1057025 0.552917 0.5187263 -0.4648743 0.50811154
0.43803355 -0.3293322 0.38559553 0.14571658 0.20579793 -0.004931409 0.2328442 -0.22691993
0.24495319 -1.3788016 -0.01136299 -0.022978771 0.004562999 -0.016444832 -0.0265277 -0.014895687
0.010377862 -0.0064720972 -0.015097445 0.008085439 0.034282647 0.014852556 -0.04482487 0.04126466
-0.04590565 -0.024308713 -0.039126992 0.10740517 -0.034356512 0.06735902 0.023294134 0.034581665
-0.02338909 0.023122985 -0.01948198 0.032479722 0.02697165 -0.008951654 -0.016866062 0.058875624
-0.19009446 0.092508964 -1.0121428 0.1362553 0.022073671 0.581623 -0.052730467 0.082962394
-0.12851176 0.06412133 0.14638652 -0.46293005 -0.24214347 0.1729844 -0.27944466 -0.35082066
-0.50515664 0.32850134 1.0598104 -0.1978762 0.091145985 0.03730174 0.2872757 0.23908122
-0.26145905 -0.4479166 0.13300306 0.21856174 -1.1563885 -0.20219219 0.03213304 0.041968334
0.009565079 0.02833341 0.044508416 -0.034798406 -0.026308855 0.02873726 -0.017674094 0.01533388
-0.039836343 0.012289002 -0.01030477 0.058861386 -0.004473114 0.05532858 -0.016748317 -0.053630173
0.0040047346 -0.011428645 -0.023438761 -0.035543524 -0.0066021094 0.018115008 -0.04206427 -0.05732735
-0.006226241 0.034077354 -0.0033226223 -0.049503896 0.035925727 0.011523148 0.023892637 0.0028426545
0.0246065 0.014999818 0.020360064 0.07369437 0.0072962972 0.035311945 0.0102239465 0.022313248
-0.10242504 0.0202004 -0.011932697 0.074098185 0.0068843705 0.008669153 -0.018742045 -0.072855346
0.00917812 0.037458338 -0.006306583 -0.035866473 -0.037632678 0.0044554165 0.0070624147 0.0011311161
-0.07614298 0.0009181008 0.16493638 -0.15861459 -0.22054529 0.4636021 -0.41961008 -0.4380555
-0.69908166 -0.19591156 0.20544617 -0.11549088 0.13020517 -0.34408495 -0.14718062 -0.11570652
-0.19421405 0.15033552 0.6465017 0.014735974 -1.1566861 -0.27543086 -0.23719826 -0.38179398
-0.35006186 0.13792075 -0.1512667 0.113081716 -0.25341243 0.18291709 0.64691734 0.36440608
0.0074969707 -0.01973097 0.008699915 -0.008536887 -0.0088046715 -0.028152201 0.02129841 -0.029713862
0.08390853 0.013215798 -0.0036259629 0.015355822 -0.0069003287 0.040131956 -0.0017176587 0.018307602
00000000: a982 023d 767b 1bbd ec7c 0cbd 235e 8cbc
00000010: 5c23 3e3c 3c99 323d 4dac 44bc bb5e b3bc
00000020: c3be 1d3c 2ec7 5cbc f33b c03c d7fa bbbc
00000030: d440 4fbc e75e 7f3d 2bf2 03bd 196d a0bd
00000040: 7fd3 b73c c111 32bd aa18 32bd fe68 153c
00000050: 5c53 b9bb 183e 453c d42f f83c 407d a23c
00000060: af74 64bc cc2f 0bbd 5e71 61bc 8c7f fc3b
00000070: eebf 83bc 0175 8c3c ab37 cc3c 4965 14bd
00000080: 3351 363c e535 d73c 672c c3bc 36d4 6cbb
00000090: a846 d93c 2d81 a13b bac8 0fbd 2bb3 d8bd
000000a0: 726c 283c 5a0f 473c 7827 b63b d056 c23b
000000b0: 4d37 813c f37b 50bd cc0e ca3c cba7 f23c
000000c0: cd96 1bbd cae1 693d 5bfc ddbb c5aa 96bc
000000d0: 0532 483c 301e 143d 0dd1 e7bc d2a4 383b
000000e0: 1d5d 26bd 99d3 17bc 109c 4a3d d2c4 773c
000000f0: 72d5 7a3e cc6e c83d c1d7 d33e 9583 acbe
00000100: cb96 eebd f5f2 3cbf 2d65 ae3d 624c 883c
00000110: f8cb b8be e545 603e fb4a a7be 9ea4 4d3f
00000120: de48 313f 9c2c 04be 986f e73e 8d7a d8bd
00000130: f88b 0d3f 3fcb 043f 0104 eebe 9913 023f
00000140: ef45 e03e 3b9e a8be c76c c53e ba36 153e
00000150: b1bc 523e a897 a1bb b66e 6e3e b35d 68be
00000160: 02d5 7a3e 927c b0bf d62b 3abc fa3d bcbc
00000170: 3685 953b 50b7 86bc 9e50 d9bc 0a0d 74bc
00000180: e807 2a3c e313 d4bb 465b 77bc ca78 043c
00000190: f66b 0c3d 2358 733c 489a 37bd 2205 293d
000001a0: 9007 3cbd 1123 c7bc a043 20bd 3ef7 db3d
000001b0: 6ab9 0cbd 87f3 893d 57d3 be3c 81a5 0d3d
000001c0: 7a9a bfbc 6a6c bd3c ac98 9fbc 7509 053d
000001d0: a6f3 dc3c f5a9 12bc b22a 8abc 9127 713d
000001e0: 1fa8 42be 5775 bd3d e58d 81bf 8286 0b3e
000001f0: d8d3 b43c 3fe5 143f e7fb 57bd 30e8 a93d
00000200: 9698 03be 0b52 833d 59e6 153e 2b05 edbe
00000210: 75f4 77be d322 313e 5f13 8fbe c49e b3be
00000220: f251 01bf 5431 a83e dea7 873f 0fa0 4abe
00000230: bfaa ba3d b6c9 183d cd15 933e b5d1 743e
00000240: f6dd 85be 5355 e5be f431 083e a6ce 5f3e
00000250: 8a04 94bf 780b 4fbe ef9d 033d fde6 2b3d
00000260: d9b6 1c3c 781b e83c 754e 363d c688 0ebd
00000270: ab85 d7bc 676a eb3c 43c9 90bc f43a 7b3c
00000280: 6f2b 23bd cf57 493c 57d5 28bc a318 713d
00000290: 3393 92bb 39a0 623d c433 89bc 50ab 5bbd
000002a0: 263a 833b 363f 3bbc a502 c0bc 1696 11bd
000002b0: 8256 d8bb ed65 943c 954b 2cbd 15d0 6abd
000002c0: 7f05 ccbb b294 0b3d 5ac0 59bb 99c4 4abd
000002d0: db26 133d 96cb 3c3c 7eba c33c d44b 3a3b
000002e0: 9293 c93c ccc1 753c 26ca a63c 13ed 963d
000002f0: c715 ef3b 42a3 103d 5782 273c 46ca b63c
00000300: 38c4 d1bd 4f7b a53c 5c81 43bc cac0 973d
00000310: 4996 e13b 1009 0e3c eb88 99bc 2f35 95bd
00000320: d35f 163c ea6d 193d 74a7 cebb b9e8 12bd
00000330: b924 1abd befe 913b d46b e73b f541 943a
00000340: daf0 9bbd b4ac 703a 15e5 283e dd6b 22be
00000350: a0d6 61be 415d ed3e 22d7 d6be cf48 e0be
00000360: 04f7 32bf 0a9d 48be 7b60 523e 7c86 ecbd
00000370: 8154 053e e72b b0be 84b6 16be 8af7 ecbd
00000380: 0ce0 46be 8ef1 193e 2381 253f 286f 713c
00000390: 4a0e 94bf 4605 8dbe 1ae4 72be 807a c3be
000003a0: 4f3b b3be 193b 0d3e a8e5 1abe 6397 e73d
000003b0: 46bf 81be 9e4e 3b3e 609c 253f 6f93 ba3e
000003c0: 26a9 f53b d8a2 a1bc 178a 0e3c 4dde 0bbc
000003d0: 7841 10bc 729f e6bc 017a ae3c 7c6a f3bc
000003e0: 3cd8 ab3d 1387 583c 90a1 6dbb fc96 7b3c
000003f0: 271c e2bb 6861 243d 1023 e1ba d3f9 953c

network.6.bias f4 [30]
0.0080005815 -0.01645029 1.3149998 0.01122723 1.3778882 0.03208715 0.08006604 -1.6031495
-0.052785903 -0.040495843 -0.70403194 0.018573012 -0.015571887 -0.02134186 1.1189167 0.03358149
-0.16538322 0.010892891 -0.023646357 0.021758392 -0.62339383 -0.060713876 0.018107899 -0.00823345
-2.039099 0.024749942 -2.2436376 0.006591712 -0.5162076 0.0052850484
00000000: df14 033c c2c2 86bc ea51 a83f 6af2 373c
00000010: a45e b03f d16d 033d aaf9 a33d 0134 cdbf
00000020: 0836 58bd f8de 25bd 703b 34bf 6e26 983c
00000030: 3a21 7fbc 20d5 aebc aa38 8f3f bf8c 093d
00000040: 385a 29be 1978 323c 01b6 c1bc a83e b23c
00000050: bd96 1fbf 1daf 78bd 0457 943c 98e5 06bc
00000060: 9980 02c0 64c0 ca3c c297 0fc0 4aff d73b
00000070: 2e26 04bf 332e ad3b

network.8.weight f4 [1, 30]
-0.008918476 -0.002326207 0.13367753 -0.007922439 -0.03632831 -0.0009908994 -0.004195961 -0.37769577
0.0021339627 0.0009119016 -0.15682681 0.0070488504 0.0005658176 -0.0007398538 0.005342272 0.0036657192
-0.03851426 -0.0061068065 0.0022267425 -0.004413124 0.02888018 0.00057657785 -0.00021932367 -0.003545972
0.059398018 0.0041384087 -0.1509759 0.0033148231 -0.19513509 -0.0020240229
00000000: cd1e 12bc 4773 18bb c3e2 083e 1ecd 01bc
00000010: fecc 14bd 11e1 81ba 467e 89bb 5761 c1be
00000020: f4d9 0b3b ae0c 6f3a 3597 20be 0bfa e63b
00000030: 6053 143a bff2 41ba 3a0e af3b 903c 703b
00000040: 21c1 1dbd 9b1b c8bb 8aee 113b f89b 90bb
00000050: 2196 ec3c 7c25 173a 40fa 65b9 8a63 68bb
00000060: 564b 733d 7d9b 873b 6d99 1abe 813d 593b
00000070: 7ed1 47be 78a5 04bb
