injector_surrogate/results/model_1.pth (torch, 2903 bytes, 5 tensors)

linear1.weight f4 [10, 9]
000000 36 a0 9d be 55 77 34 be 96 a0 62 3e eb aa 9b bf
       -0.30786294 -0.17623647 0.22131571 -1.2161535
000010 6e 7c 24 3d 35 7d 49 bf db ce b7 3f fb 48 40 c0
       0.040157728 -0.78706676 1.4360002 -3.0044544
000020 de 88 29 3f ce 76 95 3e 4f 87 2c bd 35 f4 dd 3d
       0.6622447 0.29192203 -0.042121228 0.108375944
000030 22 24 73 bd d7 ad bc 3e 97 1e 43 40 d2 90 c8 3f
       -0.05936063 0.3685138 3.048742 1.5669196
000040 af 48 8d be 6d e1 99 bf b3 3d ef 3d 57 44 a0 3d
       -0.27594516 -1.202192 0.1168169 0.07825535
000050 15 20 b6 bd 31 a5 7d bd e3 48 ac bd 70 77 1b 3f
       -0.08892838 -0.061925117 -0.084123395 0.6072912
000060 11 cc 9b 3e 6c 25 8d 3f 08 de 4a bf 5b 80 56 bc
       0.30429128 1.1027045 -0.7924504 -0.013092126
000070 ed 3d 97 3e 9f f5 7b 3e 0f f1 2d c0 81 02 e0 bf
       0.29539433 0.24605416 -2.717838 -1.7500764
000080 23 9b a3 3f 03 cc cc 3f 87 83 15 c0 e8 76 75 bf
       1.2781719 1.599976 -2.3361528 -0.9588456
000090 a8 00 b0 bc f6 86 7c bd a6 92 82 3e 42 3c e4 3e
       -0.021484688 -0.061652146 0.2550251 0.44577223
0000a0 17 02 e8 be 5f d3 2f 3e cc 7c 30 be 85 5d a7 be
       -0.45314094 0.17170475 -0.17235106 -0.32688537
0000b0 ec 5f e3 3e 03 ef 23 3f 3c fb 37 3e ee 5c bc 3e
       0.4440912 0.6403658 0.17966932 0.3678965
0000c0 b4 79 2e 3f 4d 31 be 3f 82 4d 4d c0 94 22 a0 c0
       0.68154454 1.4858795 -3.2078557 -5.004221
0000d0 cb 0e 20 c0 9d a9 18 bd 0e b4 dc be a3 73 31 3e
       -2.500903 -0.03727113 -0.4310612 0.17329268
0000e0 7b e0 8b 3e 13 b1 11 3f 2a c8 25 3f 1d 9e 34 3e
       0.27319703 0.5691082 0.6475855 0.1763844
0000f0 2b 8a e6 bf e0 3f f1 3f cf 25 b1 bc 47 b4 44 3e
       -1.8010916 1.8847618 -0.021624474 0.19209395
000100 8f 22 83 be 22 9f 6e be 3d 28 90 be df 1b bc 3e
       -0.25612304 -0.23302892 -0.281557 0.36740014
000110 17 6b 80 3f 99 60 0c be 8e 0d bb bf f6 cc d5 bf
       1.0032681 -0.13708724 -1.4613512 -1.6703174
000120 4e 94 a8 be 05 a2 48 3e 3f 61 da bc 3d 47 f6 3f
       -0.32925647 0.19593056 -0.026657699 1.924049
000130 4c de 0c 40 5b 80 6a bf 8a 4c 0f 3f c1 0e 21 3f
       2.201068 -0.91602105 0.55976164 0.6291314
000140 72 50 5d bf ff 82 20 3e fc 45 90 bc 8c 38 13 3e
       -0.86450875 0.15674971 -0.017611496 0.1437704
000150 f2 ab 4a 3f 36 c9 b7 3e eb 95 b8 3c a2 f6 fb 3c
       0.7916862 0.358957 0.022532424 0.030757252
000160 56 ad 10 3f 07 b9 a9 bf
       0.5651449 -1.3259591

linear1.bias f4 [10]
000000 4b 03 6d be a1 f8 52 bd 75 37 35 be 97 40 5e be
       -0.23145787 -0.051506642 -0.17696936 -0.21704327
000010 42 ab 38 3c b4 47 10 3f f4 88 8d bf 1f 21 43 3f
       0.0112713 0.5635941 -1.105742 0.76222414
000020 ae f1 d2 bf 91 f5 4b 3e
       -1.6480005 0.19917895

linear2.weight f4 [10, 10]
000000 ec 65 7a bf 5f 0a 34 3e 44 24 94 3f ac e6 3d 3f
       -0.9781177 0.17582081 1.1573567 0.741801
000010 1a 67 87 3e f8 22 7c 3e 8f 96 87 3f 08 a6 e7 3c
       0.26445848 0.24622715 1.0592822 0.028277412
000020 09 c4 8a 3e 29 38 32 3e 28 f4 4c bf 45 79 53 3f
       0.27102688 0.17404236 -0.8006005 0.8260692
000030 e8 b0 96 bd 92 d5 c3 3f 95 ba 53 bd 69 f2 cc bf
       -0.07357961 1.5299551 -0.05169161 -1.6011478
000040 0b 80 79 bf 6e 00 a6 3f 9d ca 45 bf 8c d6 14 3f
       -0.97461003 1.2968881 -0.7726229 0.5813987
000050 22 1b d9 3e 36 df ea 3e b1 62 6b 3e f7 21 a9 bd
       0.42403513 0.4587342 0.22986867 -0.082584314
000060 e4 ba 01 bf 17 84 7a 3f df 7a b5 be 74 24 f9 be
       -0.506758 0.97857803 -0.35445306 -0.48660624
000070 85 09 d5 bc 6e 2a e6 3e fd 58 d4 bb b9 44 94 3f
       -0.026005516 0.44954246 -0.006480335 1.1583472
000080 bc fb 47 3f 45 60 c8 3f 55 a6 1b bf 48 76 f6 bd
       0.7811849 1.5654379 -0.6080068 -0.12034279
000090 89 60 e6 3f 17 29 94 3e 7f 12 2b bf 5d 20 8a 3e
       1.799821 0.289376 -0.668251 0.26977816
0000a0 5d db a2 bf 6b bd 43 bf 39 95 14 be 24 d0 f9 3e
       -1.2723194 -0.76460904 -0.14510049 0.4879161
0000b0 00 dc 86 be 0c 96 16 3f 10 d8 0f be 97 c6 ef be
       -0.26339722 0.58822703 -0.14047265 -0.468312
0000c0 58 e2 01 3f 19 1d a5 3e 1b f3 0b 3f 1f 55 b1 3f
       0.50736 0.32248762 0.54667825 1.3854102
0000d0 03 49 62 3f 06 d1 89 3f 07 f9 69 be fd fe 63 bf
       0.8839266 1.0766914 -0.22848903 -0.89060956
0000e0 9c 94 6f bf 3b 20 b2 3f 77 84 b0 3f b1 82 56 3f
       -0.93586135 1.3916086 1.3790425 0.8379317
0000f0 ce ca e4 3d a6 ba 48 3f 6a 91 f0 3d 3f 15 bc 3f
       0.111714944 0.784098 0.117464855 1.4693984
000100 f4 49 5a 3e 77 62 7f bf 39 d6 23 be 07 b3 44 3f
       0.21317273 -0.9975962 -0.15999688 0.76835674
000110 4c a8 0b bf 38 ad a7 3c d3 52 8c 3f 81 dc 19 c0
       -0.54553676 0.02046834 1.0962776 -2.4040835
000120 ad 5e 93 3e 2a a3 a5 be b1 52 2e 3e 1c 78 c1 3f
       0.2878317 -0.32351047 0.17023732 1.511478
000130 80 0c b0 3e af 54 b0 bf 69 03 87 3f 07 06 1c bf
       0.34384537 -1.3775843 1.0547916 -0.60946697
000140 fe fc 92 3f 50 95 a2 3f ef 6b 3f 3f fe 92 b8 3f
       1.1483457 1.2701817 0.7477407 1.4419858
000150 ea 67 9a bf f7 44 e1 3e d3 ef f6 bf 98 82 34 bf
       -1.2062962 0.43997929 -1.9291939 -0.7051177
000160 cb 8c 7c 3f 5c 87 ad 3d 2b 67 97 be 58 cd 86 bf
       0.98652333 0.084730834 -0.29570898 -1.0531416
000170 72 92 03 bf 2b 7c 9b be 31 d5 9d 3e 26 cd c3 3f
       -0.5139533 -0.3036817 0.30826715 1.5296981
000180 a2 b9 a9 3f 88 44 05 c0 3c 49 32 bf 5c d7 7c bf
       1.3259776 -2.0823078 -0.69642997 -0.9876611

linear2.bias f4 [10]
000000 04 61 95 be 09 eb 6d 3e 33 0d f6 3e 3f 3a c9 3d
       -0.2917558 0.2323419 0.48056945 0.09825563
000010 2d c1 be 3e 62 04 df 3c 4f e1 87 be dc d7 b9 be
       0.37256756 0.02722377 -0.26539084 -0.362975
000020 fc 7c 6c 3f 3a 77 c5 be
       0.9237821 -0.38567525

linear3.weight f4 [1, 10]
000000 b8 38 2e 40 bd c3 97 c0 8e e5 6a c0 a8 64 8c 40
       2.7222118 -4.742644 -3.670261 4.387287
000010 50 91 57 c0 b3 d6 9b 40 80 c4 48 40 7c bd af 40
       -3.3682442 4.8699584 3.1369934 5.4918804
000020 e9 ac ac 40 dd 31 aa 40
       5.396107 5.318587
