injector_surrogate/results/model4_2hidden_30nodes_1500epoch_0.01.pth (torch, 11279 bytes, 7 tensors)

network.0.weight f4 [30, 9]
-4.9123507 0.02707498 -0.10232602 -1.9590751 -0.42091954 0.21517563 0.07156777 -0.16751438
-0.10657419 0.12637043 0.09663856 -0.15181166 -0.1264071 0.073772915 4.54637 2.9448423
-0.61386764 -0.9657263 -0.8228598 -0.7073801 0.19514559 -4.3084493 5.852453 -0.94407386
-1.3674595 -1.3986123 -1.9502956 0.9887821 0.054504946 -0.2077325 -4.446925 -2.3076587
0.14660557 -0.058684148 0.087147675 0.11976436 2.8939128 -0.4880704 0.42641628 -0.6845674
-0.6284603 -0.04849714 -0.17604049 -0.04903559 -0.00918018 0.18353361 0.2315817 -0.21046947
-0.5325001 -0.32452917 3.7172017 3.2879694 -1.0869453 -1.5517164 0.46655992 0.2534844
-0.19624467 1.3527253 3.206906 -0.2213297 -0.55840737 -0.3257802 -0.16953789 -0.03082703
-0.0798536 0.016205199 0.119780175 0.1295586 -0.376559 0.006237805 2.3906734 3.8029606
-0.03554029 0.09643005 -0.18892036 -0.008425453 0.03266741 -4.6813006 -4.7354417 -0.587454
-0.55599785 -0.1219354 0.10177676 0.079463705 -0.17339459 0.15938498 0.14104532 -0.65237397
0.9830622 1.1917145 -0.0703451 0.0059877387 0.057220373 0.037954487 0.011539499 0.4477925
3.9208124 -0.50092566 -0.24130754 -0.21412289 0.06899414 -0.15945423 0.44146383 0.99737763
1.1525869 2.0006483 1.4938985 0.82810754 4.9050097 0.27370262 -0.6025104 -0.3289254
-0.30296186 0.06836879 0.24637973 -0.15711373 0.102036044 -0.12324393 0.08409328 0.07320041
0.16080986 -0.19712707 -2.546996 0.11053959 0.106832154 0.048325747 -0.23224649 0.2217425
-0.3430707 0.99840707 1.7114255 -1.0376474 1.2187114 -0.012273171 -1.4333761 -0.76519954
-0.119474545 0.16601148 -3.9939387 -8.125257 -0.08374148 -0.078950495 -0.6006255 -0.5210014
0.0901954 -0.041811228 -0.03666958 -0.18344939 -0.18069161 0.50625634 0.09207326 -2.8391864
-1.2396272 0.17256755 0.15583915 0.024655828 -0.111936085 -0.066434145 2.4006987 1.839426
0.537895 0.8599429 0.04476743 -0.92176497 -0.8036981 0.02986696 -0.31690955 -0.22247985
-0.34248474 -0.17152162 -0.14369729 1.8460636 0.004709059 0.6721393 0.7552547 1.1015314
0.063452795 -0.22031476 0.1494509 0.20705228 -1.547115 1.4235848 -0.23190323 -0.12452841
0.26689467 -0.29235873 -0.29355568 -0.037155613 -0.20350789 0.61532015 -0.07801709 -0.029016864
2.4067814 4.912898 0.33993316 0.8770117 0.5657936 0.52259856 0.005247 0.075338244
0.034929387 0.17936893 0.11045066 0.23307519 1.408986 3.4991565 1.841443 -1.4695039
0.004781035 0.016412297 3.7314594 2.1821692 0.81668645 0.766359 0.26334757 0.4765255
0.10519702 -0.12965865 0.03216402 -0.09127054 -0.17539462 -1.0864784 -4.2396674 2.0779097
1.0795947 0.22712807 0.019508433 -0.13736781 0.42915216 0.6474429 0.26025912 0.3777429
-6.798398 8.086171 0.014280323 -2.1293695 -1.7257162 -0.051602032 -0.112178676 0.02114527
-0.01701163 0.021038074 0.015002057 -0.99192816 -0.13660467 0.23041993 1.7366507 0.94770324
-0.061606176 -0.14917353 -0.15921262 -0.27297235 2.246786 -0.07126423 -0.4633227 1.1064627
00000000: fa31 9dc0 59cc dd3c 4e90 d1bd f9c2 fabf
00000010: c482 d7be 0057 5c3e 1f92 923d e488 2bbe
00000020: 9243 dabd 4067 013e 70ea c53d 8474 1bbe
00000030: dd70 01be 4116 973d dd7b 9140 4c78 3c40
00000040: 6e26 1dbf d739 77bf f1a6 52bf dd16 35bf
00000050: 3fd4 473e d1de 89c0 4c47 bb40 d3ae 71bf
00000060: ea08 afbf ba05 b3bf 49a3 f9bf d320 7d3f
00000070: 9440 5f3d d4b7 54be 364d 8ec0 aeb0 13c0
00000080: c51f 163e ca5e 70bd 7b7a b23d 0447 f53d
00000090: de35 3940 5de4 f9be 3c53 da3e cf3f 2fbf
000000a0: c6e2 20bf f0a4 46bd f543 34be 8bd9 48bd
000000b0: 7768 16bc 3cf0 3b3e c123 6d3e 4f85 57be
000000c0: ed51 08bf b028 a6be a2e6 6d40 176e 5240
000000d0: 0621 8bbf a59e c6bf f1e0 ee3e b5c8 813e
000000e0: 5df4 48be 1a26 ad3f f33d 4d40 41a4 62be
000000f0: c9f3 0ebf aacc a6be 579b 2dbe f888 fcbc
00000100: 498a a3bd c4c0 843c 4f4f f53d 02ab 043e
00000110: 57cc c0be 8066 cc3b cb00 1940 b563 7340
00000120: b292 11bd 1e7d c53d 5774 41be e90a 0abc
00000130: 43ce 053d 37cd 95c0 bd88 97c0 6363 16bf
00000140: e055 0ebf 44b9 f9bd 5570 d03d debd a23d
00000150: 5a8e 31be d135 233e 2f6e 103e fb01 27bf
00000160: f7a9 7b3f 1a8a 983f 1711 90bd cb34 c43b
00000170: e95f 6a3d 2a76 1b3d 2b10 3d3c 0f45 e53e
00000180: 97ee 7a40 aa3c 00bf 5319 77be 0843 5bbe
00000190: cd4c 8d3d f847 23be 8c07 e23e 2454 7f3f
000001a0: f887 933f 9f0a 0040 1138 bf3f dbfe 533f
000001b0: d7f5 9c40 c022 8c3e 1f3e 1abf e968 a8be
000001c0: d11d 9bbe f004 8c3d f84a 7c3e 6ce2 20be
000001d0: 46f8 d03d 5067 fcbd 1939 ac3d 19ea 953d
000001e0: 57ab 243e aedb 49be fc01 23c0 9562 e23d
000001f0: d1ca da3d 38f1 453d 06d2 6dbe 7710 633e
00000200: f6a6 afbe 9b97 7f3f fe0f db3f a1d1 84bf
00000210: bcfe 9b3f 6915 49bc de78 b7bf 1ee4 43bf
00000220: 12af f4bd eafe 293e b19c 7fc0 0d01 02c1
00000230: a780 abbd ccb0 a1bd 98c2 19bf 5960 05bf
00000240: 5eb8 b83d 4042 2bbd d732 16bd 28da 3bbe
00000250: 3907 39be 049a 013f e890 bc3d 3bb5 35c0
00000260: 1bac 9ebf 8cb5 303e 4c94 1f3e 05fb c93c
00000270: bf3e e5bd a00e 88bd 0ca5 1940 5072 eb3f
00000280: 7db3 093f 3825 5c3f 0d5e 373d caf8 6bbf
00000290: 29bf 4dbf 8eab f43c f841 a2be c2d1 63be
000002a0: 295a afbe 5da3 2fbe 6225 13be d04b ec3f
000002b0: 734e 9a3b 5211 2c3f 5f58 413f fbfe 8c3f
000002c0: 8af3 813d 319a 61be a809 193e 8305 543e
000002d0: dd07 c6bf 0738 b63f 0a78 6dbe c008 ffbd
000002e0: 6ba6 883e 0bb0 95be ee4c 96be 7c30 18bd
000002f0: 5f64 50be 9f85 1d3f 6dc7 9fbd c6b4 edbc
00000300: b508 1a40 7636 9d40 b80b ae3e d783 603f
00000310: d9d7 103f 05c9 053f 07ef ab3b f04a 9a3d
00000320: 1e12 0f3d 7dac 373e f533 e23d 43ab 6e3e
00000330: a759 b43f 2ef2 5f40 67b4 eb3f b418 bcbf
00000340: 3aaa 9c3b 1573 863c 3bd0 6e40 a9a8 0b40
00000350: 5d12 513f 1a30 443f 7ed5 863e 26fb f33e
00000360: 8971 d73d 3dc5 04be 6bbe 033d 0dec babd
00000370: a69a 33be b911 8bbf 5bab 87c0 79fc 0440
00000380: 2930 8a3f 4394 683e 26d0 9f3c 26aa 0cbe
00000390: d5b9 db3e d1be 253f af40 853e 8467 c13e
000003a0: 7a8c d9c0 f560 0141 04f8 693c 9747 08c0
000003b0: 45e4 dcbf a75c 53bd efbd e5bd d838 ad3c
000003c0: f95b 8bbc 0a58 ac3c 30cb 753c 01ef 7dbf
000003d0: 18e2 0bbe 34f3 6b3e 924a de3f ae9c 723f
000003e0: c256 7cbd f2c0 18be a208 23be 08c3 8bbe
000003f0: 58cb 0f40 fbf2 91bd a238 edbe 92a0 8d3f

network.0.bias f4 [30]
4.213908 -1.9739887 -4.255034 1.0114081 -1.470841 -2.3701942 -2.9533155 -1.7730616
5.7905984 -1.4485251 -2.743357 -1.6095955 -3.799376 0.7597107 -1.2885526 7.43091
2.8607998 -3.9372997 1.3474474 -1.6121633 0.3082039 -3.9337459 -3.1615763 -2.429999
3.2793026 4.348144 0.99641883 -0.7502479 -2.5755146 -1.370475
00000000: 56d8 8640 a9ab fcbf 3d29 88c0 d275 813f
00000010: 8544 bcbf 43b1 17c0 1f03 3dc0 aff3 e2bf
00000020: 954c b940 4569 b9bf 2993 2fc0 3a07 cebf
00000030: fa28 73c0 677c 423f 4bef a4bf 04ca ed40
00000040: 5817 3740 b8fc 7bc0 2879 ac3f 5e5b cebf
00000050: e7cc 9d3e 7ec2 7bc0 4457 4ac0 1b85 1bc0
00000060: 18e0 5140 ff23 8b40 4e15 7f3f 3f10 40bf
00000070: 3bd5 24c0 ba6b afbf

network.2.weight f4 [30, 30]
0.10255327 -1.3396642 -1.9582446 1.6683531 0.57630545 -0.12645255 -0.09726335 0.19480945
-1.1297151 0.69875103 0.0871148 -0.45773527 0.54998374 -0.05792434 -0.034137953 -0.31101236
0.31182292 0.77315325 0.31176972 0.46118113 0.17990151 -0.11791847 0.3539214 0.6770025
0.133412 0.069000244 -0.08942889 1.6667745 -0.4886305 0.3193013 0.23519105 2.0188143
0.22493264 -0.6600793 -0.8437338 -0.631764 0.12705109 3.0385375 -1.3630303 -1.7764739
0.5675815 -4.402304 0.49743676 -0.68469197 -1.0836338 0.7669298 0.30050513 0.35788637
-0.18632214 -0.36381173 -0.25459763 0.17435548 1.1635659 -0.82544154 0.6588062 0.6645518
0.015571712 0.15193915 -0.7396437 -0.2918512 0.27470577 -0.012734048 1.129998 0.7903899
-0.6253212 -0.0114637995 -1.234606 -0.25838375 -1.3660529 0.25944513 0.7625479 -0.517899
-0.21704073 0.4295564 -0.07214578 0.72518545 0.85818887 -2.131382 0.3174983 0.73086345
-0.45361626 1.6167811 1.0202161 1.1685218 0.22333787 -0.038251232 -0.55195487 0.06349349
-0.20232643 -0.1772487 0.42943746 -2.0339487 1.7509465 0.5476754 1.1028761 -0.43940184
-0.6746938 1.7751962 -1.0295402 -0.5871703 0.8396246 -1.9034214 -1.4325088 -1.1060138
-0.110221945 -0.034860406 0.49905428 1.0539266 -0.4919749 -0.9029227 -0.5642545 0.32998243
0.9969357 -0.3299989 1.3782418 -1.3262428 -0.5845552 0.6080249 1.3141068 2.2630863
-0.24512944 3.4649367 -0.23949045 -2.4883904 -0.81638217 -0.03176858 -0.078539856 2.6110456
-0.5301284 0.052649166 -1.0240824 1.0785323 -0.53946227 1.2108806 -0.22334597 0.13005361
0.09158008 1.4876189 -0.32222676 0.24461298 0.2687175 -0.2552295 0.570696 -2.1178932
-0.7386981 0.3657246 0.6433535 -0.42288643 -0.21418434 -0.6936001 -0.07096443 -0.4701273
-1.4167446 -0.28290933 -0.717799 0.018772574 -2.318607 0.4739543 0.19731668 -0.4569971
-1.8644702 -1.7883958 0.2480453 0.015099904 1.0381331 -1.2047751 4.186668 -0.43039542
-1.0211226 0.4276197 0.1952051 0.16148137 -2.74575 -0.41205332 2.7833526 0.4568852
0.7167651 0.4215346 0.17746228 -0.04099281 0.26032197 -0.5719002 -0.40227288 -0.30480725
-1.5479299 -0.61069125 -6.27326 1.3023621 -0.6119766 0.48249587 -1.7629814 -3.1314118
1.5482906 -0.902261 0.8472122 1.0128105 -0.42268264 -1.7134943 0.9771634 0.558172
-0.4173097 -1.5519756 0.978763 0.11288739 -4.322141 -0.109468766 -0.99307543 -0.03138349
-0.043054774 -0.7303483 -0.11070169 -0.45046932 -1.3341029 0.88233125 -0.5518385 0.09986828
-0.16667886 -4.0235343 1.6862993 -0.13680412 -0.07045929 -0.437635 -0.096316785 1.0413841
0.013110429 0.10147397 -0.17738295 -1.9457078 -0.4109872 -0.26314107 -0.37361696 0.059631165
-0.6148059 2.7005637 0.11692189 -0.46584406 0.017307479 -1.4007512 -0.19194412 -0.60496724
0.50722235 0.27697134 0.07497605 -0.16062973 0.36295998 0.65862423 -0.1595251 0.36785513
0.119920544 -0.36466104 0.4154957 1.2900865 -0.71824217 0.21152948 -0.77807856 -0.13450143
00000000: 7307 d23d 1e7a abbf c2a7 fabf 988c d53f
00000010: c188 133f c77c 01be 0232 c7bd 217c 473e
00000020: 819a 90bf 59e1 323f 3f69 b23d 475c eabe
00000030: bccb 0c3f 1342 6dbd 3dd4 0bbd 033d 9fbe
00000040: 41a7 9f3e 5fed 453f 48a0 9f3e ef1f ec3e
00000050: 1a38 383e 3d7f f1bd 3035 b53e 0950 2d3f
00000060: 289d 083e 0050 8d3d 7e26 b7bd de58 d53f
00000070: c72d fabe 767b a33e ecd5 703e 4134 0140
00000080: be54 663e f5fa 28bf f0fe 57bf 49bb 21bf
00000090: ae19 023e 6677 4240 c777 aebf 7f63 e3bf
000000a0: 054d 113f addf 8cc0 08b0 fe3e f947 2fbf
000000b0: 83b4 8abf 8355 443f cfdb 993e e23c b73e
000000c0: 3bcb 3ebe 8845 babe 9f5a 82be 3e8a 323e
000000d0: baef 943f 2350 53bf 86a7 283f 1120 2a3f
000000e0: 7e20 7f3c f095 1b3e 4a59 3dbf 856d 95be
000000f0: 3ca6 8c3e 78a2 50bc c6a3 903f fe56 4a3f
00000100: 0d15 20bf a9d2 3bbc 9207 9ebf e04a 84be
00000110: d2da aebf fed5 843e 5736 433f 0795 04bf
00000120: ed3f 5ebe d1ee db3e 2bc1 93bd c1a5 393f
00000130: 44b2 5b3f 9068 08c0 238f a23e de19 3b3f
00000140: 6440 e8be aff2 ce3f 7196 823f 1f92 953f
00000150: afb2 643e 53ad 1cbd ea4c 0dbf e008 823d
00000160: a92e 4fbe af80 35be 3adf db3e 372c 02c0
00000170: 041f e03f 7434 0c3f 0b2b 8d3f 47f9 e0be
00000180: bcb8 2cbf a139 e33f f9c7 83bf cb50 16bf
00000190: a3f1 563f 50a3 f3bf 735c b7bf dc91 8dbf
000001a0: 0bbc e1bd c9c9 0ebd 0b84 ff3e 11e7 863f
000001b0: 22e4 fbbe f125 67bf fc72 10bf 75f3 a83e
000001c0: 2e37 7f3f 9ef5 a8be 3a6a b03f 53c2 a9bf
000001d0: 69a5 15bf 85a7 1b3f a734 a83f 68d6 1040
000001e0: 3603 7bbe 86c1 5d40 fc3c 75be ca41 1fc0
000001f0: 6cfe 50bf c51f 02bd 81d9 a0bd 5f1b 2740
00000200: 7fb6 07bf a7a6 573d 2215 83bf 590d 8a3f
00000210: 331a 0abf 23fe 9a3f ceb4 64be c62c 053e
00000220: 568e bb3d 4c6a be3f e8fa a4be d37b 7a3e
00000230: 5795 893e 71ad 82be 2219 123f 908b 07c0
00000240: 521b 3dbf 4140 bb3e d1b2 243f 9284 d8be
00000250: 2453 5bbe c78f 31bf cd55 91bd 87b4 f0be
00000260: e357 b5bf 7ed9 90be adc1 37bf f1c8 993c
00000270: 0f64 14c0 23aa f23e 620d 4a3e 86fb e9be
00000280: f6a6 eebf 27ea e4bf 96ff 7d3e 9665 773c
00000290: 8ce1 843f 1236 9abf 2ff9 8540 ca5c dcbe
000002a0: 25b4 82bf f8f0 da3e d9e3 473e 5f5b 253e
000002b0: 5eba 2fc0 a7f8 d2be 7322 3240 dbec e93e
000002c0: eb7d 373f 62d3 d73e acb8 353e 14e8 27bd
000002d0: ec48 853e 0d68 12bf b6f6 cdbe b20f 9cbe
000002e0: 9122 c6bf 4356 1cbf 8cbe c8c0 cdb3 a63f
000002f0: 80aa 1cbf b309 f73e 60a9 e1bf 0d69 48c0
00000300: 632e c63f 94fa 66bf e6e2 583f c6a3 813f
00000310: dc69 d8be c853 dbbf 6127 7a3f 5ce4 0e3f
00000320: 9ea9 d5be 23a7 c6bf 3690 7a3f 8131 e73d
00000330: fb4e 8ac0 2931 e0bd 313a 7ebf f98b 00bd
00000340: 345a 30bd 1bf8 3abf 91b7 e2bd eaa3 e6be
00000350: e2c3 aabf 76e0 613f 4a45 0dbf be87 cc3d
00000360: ddad 2abe cbc0 80c0 a8d8 d73f 6116 0cbe
00000370: f64c 90bd b211 e0be bc41 c5bd 134c 853f
00000380: 20cd 563c 96d1 cf3d e0a3 35be f40c f9bf
00000390: ea6c d2be 6dba 86be b94a bfbe cf3f 743d
000003a0: eb63 1dbf 09d6 2c40 be74 ef3d 1d83 eebe
000003b0: 6ac8 8d3c d14b b3bf 008d 44be 22df 1abf
000003c0: 53d9 013f 30cf 8d3e 0b8d 993d 1f7c 24be
000003d0: e4d5 b93e 999b 283f 8c5a 23be 8257 bc3e
000003e0: e798 f53d dab4 babe dabb d43e 8e21 a53f
000003f0: b8de 37bf 2f9b 583e 2830 47bf beba 09be

network.2.bias f4 [30]
-0.7085307 -2.383988 0.2721398 -2.9121888 -4.315343 -4.809897 -1.2422367 2.3917542
-3.6138623 -0.20052624 0.5304476 -3.3345199 -2.3590553 3.3046107 3.3206558 0.9149375
2.814298 -0.9254215 3.5846305 -1.5618285 5.221127 -0.63826823 -4.68818 4.2308583
3.9559464 1.3460449 3.4217956 5.494841 2.0614073 -0.53912276
00000000: 4562 35bf 4293 18c0 e855 8b3e 4d61 3ac0
00000010: 4a17 8ac0 adea 99c0 9d01 9fbf 8012 1940
00000020: 8549 67c0 c056 4dbe 6acb 073f c668 55c0
00000030: c3fa 16c0 be7e 5340 a085 5440 5839 6a3f
00000040: 751d 3440 6ce8 6cbf 966a 6540 ffe9 c7bf
00000050: 7913 a740 8c65 23bf 9205 96c0 3163 8740
00000060: 3a2e 7d40 334b ac3f b3fe 5a40 bdd5 af40
00000070: 19ee 0340 f303 0abf

network.4.weight f4 [30, 30]
0.023456939 0.040767968 0.024101771 -0.024157755 0.058630478 -0.022411004 -0.038556285 0.041541345
0.0027410067 0.025726438 0.004400667 0.030062268 -0.0015054699 -0.024804203 0.030050118 -0.010388864
0.041466184 -0.038557537 -0.033998 0.04403371 -0.01077577 0.011761276 0.019302187 0.025587222
-0.023894494 -0.02374546 0.010012612 -0.02221035 -0.051750977 -0.0069498145 -0.47839546 -0.18021592
0.424833 -0.3608025 -0.31477442 2.2594998 -1.2848474 -0.41694885 0.0049524605 1.1253738
-0.9055982 -1.9575976 0.20457688 -0.21058583 0.7565736 0.12785496 -0.16313006 0.124579675
0.2806201 1.1336468 -0.066444725 -0.5877983 -2.119683 0.13823166 -0.57911676 1.1932567
0.11693288 -2.3851566 -2.3703272 0.032324612 0.012251658 -0.030384425 0.067155525 -0.0017935608
-0.033395555 -0.019882752 -0.018421486 -0.009741371 0.03393599 -0.007247725 0.013025191 0.004373959
-0.014992345 0.040403534 0.0036825268 -0.032998405 0.035812486 -0.0034860899 -0.027669448 0.0069712657
0.005992928 0.009691546 -0.0059383907 0.0091653075 -0.069186635 -0.027409589 0.021200255 0.00621486
0.011299874 -0.04352932 -0.012495501 0.008136179 -0.021441191 -0.023683663 0.001592457 0.042000588
0.0015977516 0.016720379 -0.069889486 0.018363807 -0.0042461045 0.007151999 0.008874618 -0.04242251
-0.043349706 -0.020585096 0.019332185 0.035231575 0.013128522 0.0046184896 0.0041968455 -0.025716051
-0.023772193 -0.023017526 -0.01008172 0.017639663 -0.01874089 0.009564249 0.010840871 0.024412688
-0.3498799 -0.063254446 0.44962278 -0.6035857 0.15137802 -0.06737393 0.4114844 0.1631017
-0.019306066 0.078459404 -0.48183826 -0.12352922 0.21655872 -0.30436608 0.21640123 0.005742586
0.02648472 -0.0011879427 0.21616821 -0.18984231 -0.11213835 -0.3980445 0.072985575 0.20806117
-0.120722145 0.022189518 0.16297306 -0.84647655 0.0586884 -0.48594418 -0.105666995 1.3178588
-0.17075117 0.5579145 0.4985611 0.24060439 -0.42941606 1.0163605 -0.15116641 0.56730366
-1.0085003 -0.40335536 -0.5815741 0.03331592 -0.39167756 -0.08859039 0.57350945 1.013987
-0.1420372 -0.56527144 0.005745494 -1.8661419 -1.9172503 -0.79389423 1.0550847 0.59454644
-0.046916522 -2.1664026 -0.8901147 0.40370846 -0.89156604 -0.155539 -0.4813708 0.33045223
-0.9378403 0.46728313 -0.15511405 -1.0382802 -0.23795825 -0.14093508 0.77602273 0.5429979
-0.6563284 0.4978515 -0.3105763 0.6678175 -0.07554239 0.36006296 0.12177003 -0.46768305
0.14418736 -0.8279998 -0.5037569 0.40186968 0.35841286 0.11121015 0.84696716 -0.81203073
0.5096125 0.013622042 0.007842769 -0.020446133 0.032728054 0.0136706885 -0.03361845 0.010321447
0.01101251 0.016956866 -0.004537496 -0.018672694 0.010646454 -0.046453837 0.036063284 0.07465983
-0.0045659444 -0.002235869 -0.0020482903 0.061562248 0.026610328 -0.06038463 0.041272562 -0.002554204
0.002663995 -0.0029436229 0.025743743 0.04525033 -0.03516499 -0.009112856 0.046834543 -0.0014466994
0.16226149 0.49619493 0.8464937 0.81108236 0.6627494 1.5055954 1.1987778 0.84788173
0.20455685 -0.03814102 -0.7750541 1.1711944 0.13732027 -0.07523214 0.21691144 0.61118233
00000000: c428 c03c 50fc 263d 1471 c53c 7ce6 c5bc
00000010: 8326 703d 4897 b7bc 32ed 1dbd 4227 2a3d
00000020: 76a2 333b 40c0 d23c 7833 903b 2545 f63c
00000030: 3053 c5ba 2f32 cbbc aa2b f63c 0e36 2abc
00000040: 72d8 293d 82ee 1dbd 7d41 0bbd b15c 343d
00000050: db8c 30bc 5eb2 403c 9f1f 9e3c 4b9c d13c
00000060: 63be c3bc d785 c2bc f00b 243c 7bf2 b5bc
00000070: d5f8 53bd 45bb e3bb 40f0 f4be 868a 38be
00000080: b683 d93e 1bbb b8be 1d2a a1be a59b 1040
00000090: e175 a4bf 527a d5be 4048 a23b 400c 903f
000000a0: 49d5 67bf 8f92 fabf 9a7c 513e d0a3 57be
000000b0: cfae 413f 69ec 023e 910b 27be a123 ff3d
000000c0: 70ad 8f3e 571b 913f 2c14 88bd f379 16bf
000000d0: e3a8 07c0 9a8c 0d3e ff40 14bf a3bc 983f
000000e0: 817a ef3d 68a6 18c0 71b3 17c0 d066 043d
000000f0: 2ebb 483c c2e8 f8bc d688 893d ea15 ebba
00000100: c7c9 08bd 27e1 a2bc a8e8 96bc 459a 1fbc
00000110: 7700 0b3d 537e edbb 9c67 553c 6d53 8f3b
00000120: 74a2 75bc 2d7e 253d 8c56 713b 5629 07bd
00000130: 1db0 123d e276 64bb 0aab e2bc 376f e43b
00000140: 5360 c43b 4ac9 1e3c d596 c2bb 162a 163c
00000150: b9b1 8dbd 138a e0bc 28ac ad3c 06a6 cb3b
00000160: 1b23 393c cd4b 32bd eeb9 4cbc 9c4d 053c
00000170: 70a5 afbc 3e04 c2bc fdb9 d03a cf08 2c3d
00000180: a66b d13a 2df9 883c 3822 8fbd b26f 963c
00000190: e822 8bbb 515b ea3b d966 113c 3ac3 2dbd
000001a0: 768f 31bd 13a2 a8bc 885e 9e3c fc4e 103d
000001b0: 0319 573c b356 973b b185 893b 78aa d2bc
000001c0: e7bd c2bc 408f bcbc cc2d 25bc 0e81 903c
000001d0: 7f86 99bc 5eb3 1c3c e99d 313c 1efd c73c
000001e0: 7523 b3be 8c8b 81bd f534 e63e 9884 1abf
000001f0: d702 1b3e 58fb 89bd 15ae d23e 2204 273e
00000200: c127 9ebc 53af a03d 81b3 f6be e3fc fcbd
00000210: 92c1 5d3e dfd5 9bbe 4998 5d3e 4e2c bc3b
00000220: 7cf6 d83c beb4 9bba 335b 5d3e 0666 42be
00000230: cba8 e5bd 7dcc cbbe 7679 953d fd0d 553e
00000240: 2c3d f7bd cbc6 b53c 69e2 263e b0b2 58bf
00000250: 3f63 703d adcd f8be f067 d8bd 99af a83f
00000260: 65d9 2ebe 7cd3 0e3f 6743 ff3e ff60 763e
00000270: 6cdc dbbe 1a18 823f 5ecb 1abe d03a 113f
00000280: 8a16 81bf 9884 cebe 0ae2 14bf 4676 083d
00000290: f689 c8be e16e b5bd 84d1 123f 53ca 813f
000002a0: 3372 11be a1b5 10bf b244 bc3b bddd eebf
000002b0: 7568 f5bf a73c 4bbf 040d 873f 3234 183f
000002c0: 8a2b 40bd 57a6 0ac0 8fde 63bf e0b2 ce3e
000002d0: ac3d 64bf 9e45 1fbe 3c76 f6be 0931 a93e
000002e0: 4d16 70bf bc3f ef3e 38d6 1ebe 5ee6 84bf
000002f0: 54ab 73be 4951 10be 6da9 463f e901 0b3f
00000300: 2305 28bf 64e6 fe3e db03 9fbe 16f6 2a3f
00000310: f8b5 9abd 2c5a b83e 9162 f93d 2774 efbe
00000320: daa5 133e cbf7 53bf 36f6 00bf ddc1 cd3e
00000330: e481 b73e 26c2 e33d d7d2 583f 3fe1 4fbf
00000340: f775 023f fc2e 5f3c f57e 003c a67e a7bc
00000350: da0d 063d 06fb 5f3c 80b3 09bd 491b 293c
00000360: d16d 343c 20e9 8a3c 46af 94bb 7af7 98bc
00000370: 776e 2e3c 6146 3ebd 18b7 133d 41e7 983d
00000380: eb9d 95bb a887 12bb 9c3c 06bb b228 7c3d
00000390: e7fd d93c e055 77bd 6b0d 293d 6f64 27bb
000003a0: 6b96 2e3b cce9 40bb 8be4 d23c 6958 393d
000003b0: 2a09 10bd 174e 15bc 94d5 3f3d 2d9f bdba
000003c0: e027 263e 430d fe3e d0b3 583f 18a3 4f3f
000003d0: f2a9 293f 5ab7 c03f 8d71 993f c70e 593f
000003e0: 5a77 513e c239 1cbd f269 46bf b3e9 953f
000003f0: af9d 0c3e 4f13 9abd 081e 5e3e 7276 1c3f

network.4.bias f4 [30]
-0.036918778 3.4662113 -0.010315414 -0.0069793365 -1.2160825 -3.5680459 -0.67703265 -0.013664627
0.07280599 -6.7248306 -0.03207241 0.05647072 -0.020423248 -0.69693995 0.04791028 -1.1027936
-4.7142663 0.5389711 -0.022210276 0.002575327 2.329649 2.4261053 0.012096279 1.3172419
0.025725625 -3.88219 -0.018793939 -1.3930773 -1.80588 -3.7994387
00000000: 2538 17bd 68d6 5d40 fb01 29bc ebb2 e4bb
00000010: 97a8 9bbf dd5a 64c0 0352 2dbf 9ae1 5fbc
00000020: 4f1b 953d d031 d7c0 5c5e 03bd d74d 673d
00000030: a84e a7bc a86a 32bf 923d 443d 5728 8dbf
00000040: 45db 96c0 03fa 093f 53f2 b5bc d1c6 283b
00000050: f818 1540 4f45 1b40 792f 463c 629b a83f
00000060: 8cbe d23c cd75 78c0 bff5 99bc 5b50 b2bf
00000070: 1327 e7bf 012a 73c0

network.6.weight f4 [1, 30]
-0.0016553618 0.04503489 0.0049688304 0.0036458324 0.0641884 -0.33166212 0.037497915 0.00043965888
-0.03944017 -0.14902088 0.000784933 -0.0070545357 0.010359207 0.12671599 0.0015609731 0.03511957
-0.10836825 -0.049333367 0.0046669273 -0.00018099044 0.028061075 -0.03964702 -0.0074775307 0.02349129
-0.002134652 -0.312496 -0.0034761631 -0.087640546 -0.03884305 -0.4160833
00000000: baf8 d8ba 8176 383d 92d1 a23b ebee 6e3b
00000010: 3575 833d 9ecf a9be 6a97 193d 0482 e639
00000020: 048c 21bd ee98 18be f6c3 4d3a bc29 e7bb
00000030: aab9 293c d6c1 013e 9199 cc3a 8ad9 0f3d
00000040: 2cf0 ddbd c911 4abd 06ed 983b 40c8 3db9
00000050: 57e0 e53c ea64 22bd 1306 f5bb ce70 c03c
00000060: 85e5 0bbb 7aff 9fbe 57d0 63bb e37c b3bd
00000070: e419 1fbd df08 d5be
