injector_surrogate/results/model5_4hidden_30nodes_1000epoch_0.01.pth (torch, 19713 bytes, 11 tensors)

network.0.weight f4 [30, 9]
0	0x3d423872	0.04741711
1	0xbe75b9e3	-0.23996691
2	0x3e8eecb6	0.2791497
3	0xbde39bab	-0.11113676
4	0x3e9e4762	0.30913836
5	0x3f083090	0.531991
6	0x3fc98392	1.5743277
7	0x401b95ae	2.4310107
8	0x3fb2bd82	1.3964083
9	0x3d2c9d37	0.04214212
10	0xbdb0c1a8	-0.08630687
11	0xbdb96687	-0.09052759
12	0xbc88aebb	-0.01668488
13	0xbe03f4f8	-0.12886417
14	0xbdf4f15b	-0.119600974
15	0xbe428bda	-0.18998662
16	0x3f9f7781	1.2458345
17	0x40609c11	3.5095255
18	0xbd9aa096	-0.075501606
19	0xbe99647b	-0.29959473
20	0x3dd0771f	0.101789705
21	0xbe7e8ff4	-0.24859601
22	0xbf2043c4	-0.626034
23	0x3f88c355	1.0684611
24	0x3f6e113d	0.92995054
25	0xbedd9c1f	-0.43283173
26	0xbf538533	-0.8262512
27	0xc0d30b97	-6.595165
28	0x3d879288	0.066197455
29	0xb9b2e204	-0.000341192
30	0x3da7b199	0.08188171
31	0x3e8931af	0.26795718
32	0xbdd63feb	-0.1046141
33	0xbe10d6b4	-0.14144403
34	0x3ba4fe92	0.00503523
35	0xbaefb97d	-0.0018289533
36	0x3e84115e	0.257945
37	0x3f8c8447	1.0977868
38	0x3f70ce52	0.9406482
39	0xbd079d0e	-0.033108763
40	0xbd5c08c5	-0.0537193
41	0x3d8bf1a7	0.06833201
42	0xbdc90e9e	-0.09817241
43	0xbe7bbf11	-0.24584605
44	0xbe90d07d	-0.28284064
45	0xbc50a495	-0.012734552
46	0x3f9b6588	1.214036
47	0x3faa0e98	1.3285704
48	0x3ca65234	0.02030287
49	0xbaa07e1e	-0.0012244617
50	0x3dddfff0	0.10839832
51	0x3e5efdba	0.21776477
52	0xbd9f246a	-0.07770617
53	0xbdbf89d4	-0.093524605
54	0xbd3dd9e3	-0.04635037
55	0xbd320e8b	-0.0434709
56	0xbac9345d	-0.0015350688
57	0xbf35c568	-0.71004343
58	0xbfbc739d	-1.4722782
59	0xbf28e844	-0.6597941
60	0xbfd6ee0e	-1.6791399
61	0xbf89a620	-1.0753822
62	0xbf17e93d	-0.5934027
63	0x3ee207da	0.44146615
64	0x3e96cdb0	0.29453802
65	0xbe680ade	-0.22660396
66	0x3ea2bdeb	0.3178552
67	0x3f5b9a7c	0.857826
68	0x3fb92dc6	1.4467094
69	0x3f8aa6a6	1.0832107
70	0xbe90158b	-0.28141436
71	0x3e1ce5ec	0.15322083
72	0x3e813169	0.2523301
73	0xbdc10653	-0.094250344
74	0xbc020965	-0.00793681
75	0xbd86ff1a	-0.065916255
76	0xbdaa40bb	-0.083131276
77	0x3fcd9a08	1.6062632
78	0x4003c280	2.0587463
79	0xbfdc87fd	-1.7229
80	0xbf7ba5b2	-0.98299706
81	0x3e0996df	0.13436459
82	0x3df12a95	0.117757
83	0x3c026381	0.007958294
84	0xbc0fb915	-0.008772154
85	0x3db3ca75	0.0877885
86	0x4029fe34	2.6561403
87	0x3fbf4259	1.4942123
88	0xbe875a2d	-0.26435986
89	0xbe3c1279	-0.18366422
90	0x3cc434de	0.02395099
91	0x3c409496	0.011754176
92	0x3dd84330	0.1055969
93	0x3dbbce9e	0.091702685
94	0x3e806e51	0.25084165
95	0x3de03b43	0.10948803
96	0x3e832716	0.25615758
97	0xc05ecb68	-3.481165
98	0xbf9fbf18	-1.2480192
99	0xbed568cd	-0.4168152
100	0x3eba2be0	0.363616
101	0xbeee9623	-0.4659892
102	0xbe034545	-0.12819393
103	0xbecd0021	-0.4003916
104	0xbe62aa17	-0.22135197
105	0x3f19494e	0.5987748
106	0xbe737707	-0.23775874
107	0x3dc821fe	0.097721085
108	0x3fe200a1	1.7656442
109	0xbefd4c6f	-0.49472377
110	0x3e9167fb	0.28399643
111	0xbf11e7ad	-0.56994134
112	0xbf15866e	-0.5840825
113	0xbda83acc	-0.082143396
114	0xbe11166f	-0.14168714
115	0xbd881812	-0.06645216
116	0x3da2cc27	0.07949095
117	0x3e3cedc0	0.1845007
118	0x3e390615	0.18068726
119	0xbe52e5f4	-0.20595533
120	0x3f85eaae	1.0462244
121	0x405b2ba0	3.4245377
122	0xbd18f48f	-0.037342604
123	0xbdb7e523	-0.08979251
124	0x3cad7e98	0.021178529
125	0xbd190c7b	-0.037365418
126	0xbe38fa18	-0.18064153
127	0x3df5a681	0.11994649
128	0xbf32cc66	-0.6984314
129	0xbe016e1d	-0.12639661
130	0x3f634f9c	0.8879335
131	0x3c7872e8	0.015164115
132	0xbd70d5e3	-0.05879773
133	0xbf09be19	-0.5380569
134	0xbee97b86	-0.45602053
135	0xbfd81722	-1.688206
136	0xbea601e1	-0.32423308
137	0x3f29d198	0.6633544
138	0x3fc11edf	1.5087546
139	0x3fc4a287	1.53621
140	0xbd43fd02	-0.04784871
141	0x3dfe1908	0.12407118
142	0xbdca0cce	-0.098657236
143	0xbe4a36a4	-0.19747406
144	0x3f2ad5ad	0.66732293
145	0xbe0cd53d	-0.13753219
146	0x3e82c3ea	0.25540096
147	0x4016417d	2.347747
148	0x3fb2cfed	1.3969704
149	0xbd888046	-0.06665091
150	0xbd17c082	-0.037048824
151	0x3dba954c	0.09110507
152	0x3e2c098c	0.16800517
153	0x3f8ab109	1.0835277
154	0xbe1b13ad	-0.15144224
155	0x3ea705d4	0.32621634
156	0xbe37a1b1	-0.17932774
157	0xbee271f8	-0.44227576
158	0x3f85a257	1.0440167
159	0x3fbf09d8	1.4924879
160	0x4006cc13	2.1062057
161	0x3ff0b566	1.8805358
162	0x3dae1d43	0.08501675
163	0xbca565fe	-0.020190235
164	0x3d9470db	0.07248088
165	0x3e11b4f9	0.14229192
166	0x3e83931f	0.25698182
167	0xbf55059e	-0.83211696
168	0xc08b432f	-4.351951
169	0x3cdbb3c8	0.026819125
170	0x3e0700b2	0.13183859
171	0xbf4660be	-0.77491367
172	0x3eaa75e3	0.33293065
173	0xbe67611f	-0.22595643
174	0x3fdb4dff	1.7133178
175	0x3f2b220c	0.66848826
176	0xbd578ca5	-0.052624363
177	0xbacf94c3	-0.0015837181
178	0x3e6a9ada	0.22910634
179	0x3e8fb3d8	0.28066897
180	0x3ef705b1	0.4824653
181	0xbd913468	-0.07090074
182	0x3ebdd17d	0.3707389
183	0xbfeaae4b	-1.833444
184	0xbf38f654	-0.72250867
185	0xbd89250d	-0.0669652
186	0xbe4ace5b	-0.19805281
187	0x3f88eb62	1.0696833
188	0x3fa04464	1.2520871
189	0xbf3331a2	-0.6999761
190	0x3e9bf909	0.30463436
191	0xbeb9e05c	-0.36303985
192	0x404c7c92	3.1951032
193	0x3fcf7e0b	1.621034
194	0xbe0c3645	-0.13692577
195	0xbb8422b9	-0.0040324596
196	0x3dead801	0.11466981
197	0x3d947877	0.07249539
198	0xbeca9485	-0.39566436
199	0x3e28c6f5	0.16482146
200	0xbd220cde	-0.039563052
201	0xc0120725	-2.281686
202	0xc0945a25	-4.636004
203	0xbe92a061	-0.28637984
204	0xbea12693	-0.31474742
205	0xbeb30c67	-0.349704
206	0xbe52ba28	-0.20578825
207	0xbf3b7b65	-0.7323516
208	0x3f4a7021	0.79077345
209	0xbf605575	-0.876304
210	0xbe87ecc4	-0.26547825
211	0xbd891791	-0.06693948
212	0x3d3a35f4	0.04546161
213	0x3e205973	0.15659122
214	0x3e5a7b14	0.21336013
215	0x3e899938	0.2687471
216	0x3e0b2f9f	0.13592385
217	0xbda8ad7d	-0.08236215
218	0xbda91702	-0.082563415
219	0x3d3b9799	0.04579887
220	0xbdb7e7d2	-0.08979763
221	0xbeaca63f	-0.33720586
222	0xbea8d8ee	-0.32978004
223	0xbfa14a49	-1.2600795
224	0xbfc09e77	-1.504836
225	0x40154e81	2.3329165
226	0x3deee199	0.11664123
227	0xbe6225ff	-0.22084807
228	0x3f5147b8	0.8175006
229	0x3ed30841	0.41217235
230	0x3d498162	0.049195655
231	0x3de51fa9	0.11187679
232	0x3e1a9579	0.15096082
233	0x3e5bb7e5	0.21456869
234	0xbcbbccfa	-0.022924889
235	0x3e41bc64	0.18919522
236	0x3d320e7d	0.04347085
237	0x3da9a68a	0.08283718
238	0x3e24d516	0.16096911
239	0x3fb0da88	1.381669
240	0x400afdb5	2.171735
241	0x3f84388d	1.0329758
242	0x3f541666	0.8284668
243	0x3f147186	0.57985723
244	0xbe621d62	-0.22081521
245	0x3cd33e6c	0.025786601
246	0x3f011420	0.50421333
247	0x3f32a6b5	0.69785625
248	0xbe60afd9	-0.2194208
249	0xbf463f3b	-0.7744023
250	0xbff1d53f	-1.8893203
251	0xbf8c5645	-1.0963827
252	0xbe142a29	-0.14469208
253	0x3dbdd860	0.09269786
254	0xbdaea6c8	-0.08527905
255	0xbd6e1c30	-0.05813235

network.0.bias f4 [30]
0	0xc05083bd	-3.2580407
1	0xbf816562	-1.0109065
2	0x3f0b31b5	0.5437272
3	0x40a4d456	5.15092
4	0xbed63a98	-0.41841578
5	0xbffea5b1	-1.9894315
6	0x3fbdc490	1.4825611
7	0xc00e78a7	-2.226114
8	0xbfd74b65	-1.6819884
9	0xbf7caf8f	-0.9870538
10	0x404d5dd1	3.208851
11	0x3f06b7dc	0.526243
12	0xbf2f2d78	-0.68428755
13	0xc068b4b7	-3.63603
14	0x3e92382b	0.28558478
15	0x3e6eb402	0.23310855
16	0xc04261d0	-3.03722
17	0xc07fd47b	-3.9973438
18	0x406e638b	3.7248256
19	0xbfc74d34	-1.5570436
20	0xbf51660a	-0.81796324
21	0xbfabeb96	-1.343127
22	0x4082adc4	4.0837116
23	0xbe7f7b1c	-0.24949306
24	0x401a0e2a	2.4071145
25	0xc003af17	-2.0575616
26	0xc0207096	-2.5068717
27	0x3f5dae84	0.86594415
28	0xc0575ec8	-3.36516
29	0x400f5008	2.2392597

network.2.weight f4 [30, 30]
0	0x3e346661	0.1761718
1	0x3d8faf83	0.07015898
2	0x3cb4afd2	0.022056494
3	0xbf09391f	-0.53602785
4	0xbfe2f160	-1.7729912
5	0x3fa99bc9	1.3250667
6	0x3f277efc	0.6542814
7	0xbf1f4dfd	-0.62228376
8	0x3e07bfe7	0.13256799
9	0xbd1b30f8	-0.037888497
10	0x3d851717	0.06498545
11	0xbeb505ac	-0.3535589
12	0xbfa3eff6	-1.2807605
13	0x3e89e6ae	0.26933807
14	0xbf1d0409	-0.6133428
15	0x3f2237b6	0.6336626
16	0xbe11b360	-0.14228582
17	0xbd9ce02b	-0.07659944
18	0xbc378b6a	-0.0112026725
19	0x3e288c49	0.16459765
20	0xbe8d734f	-0.27627036
21	0xbf126ff7	-0.57202095
22	0x3ce9ba98	0.028531358
23	0x3d52343e	0.051319353
24	0xbef74b7c	-0.48299778
25	0xbe851210	-0.25990343
26	0xbe0f91b8	-0.14020431
27	0x3e84091e	0.25788206
28	0x3e93eac8	0.2889006
29	0x3d8f42bc	0.069951504
30	0x3d904cea	0.0704592
31	0x3e4156e6	0.18880805
32	0xbd1e3379	-0.038623307
33	0x3c14a55f	0.009072631
34	0xbe6324f0	-0.2218206
35	0x3e772bc1	0.24137785
36	0x3e9f9d29	0.3117459
37	0xbf250aae	-0.6446942
38	0xbc8783a6	-0.016542267
39	0x3f16bc4a	0.58881056
40	0xbe478f83	-0.19488339
41	0x3db8258c	0.089915365
42	0x3dbfd11a	0.09366055
43	0x3eb23f4d	0.3481392
44	0x3d6b8f9c	0.057510003
45	0xbf5d2b21	-0.86393934
46	0xbd7a4fbf	-0.061111208
47	0xbe024fc9	-0.12725748
48	0xbdd83312	-0.10556616
49	0xbeb1821f	-0.34669587
50	0xbe4ef7fe	-0.20211789
51	0xbfac82c1	-1.3477403
52	0x3dcc3457	0.099709205
53	0x3f02a8ca	0.510388
54	0x3e993aee	0.29927772
55	0x3e91d6a0	0.28484058
56	0x3e8da3b8	0.2766397
57	0xbe68ef49	-0.2274753
58	0xbe96e6b6	-0.29472893
59	0x3e01a9a3	0.12662368
60	0x3e865507	0.26236746
61	0xbe34b310	-0.17646432
62	0xbee706ae	-0.45122284
63	0xbd4f4939	-0.05060694
64	0x3f5ab0bf	0.85425943
65	0xbbd3356f	-0.0064455788
66	0x3edb7d5c	0.4286908
67	0x3f2851b5	0.65749675
68	0x3e89930a	0.26869994
69	0xbedaa73c	-0.42705715
70	0xbe13dd6c	-0.14439934
71	0xbe9d00b0	-0.30664587
72	0xbed91876	-0.42401475
73	0xbe1927b4	-0.14956552
74	0x3f1a4fbc	0.60277915
75	0x3e3aac19	0.18229713
76	0xbbdbcba0	-0.0067076236
77	0xbdb1b393	-0.08676829
78	0xbdd7a3de	-0.10529302
79	0xbd7814b3	-0.060566615
80	0x3e812197	0.2522094
81	0x3ece85e2	0.4033652
82	0xbf7c6b9c	-0.986017
83	0x3e22f100	0.15912247
84	0x3e696b7c	0.22794908
85	0x3f3089c3	0.6896021
86	0x3dc7ad28	0.09749824
87	0xbea4bf89	-0.3217738
88	0xbed9c65f	-0.42534158
89	0x3dbb6d4e	0.091517076
90	0x3b444b3d	0.0029952072
91	0x3e1dbb88	0.15403569
92	0x3ef43cf8	0.47702765
93	0xbc6135b4	-0.013745714
94	0x3e29e8a8	0.16592658
95	0xbe5c3c30	-0.21507335
96	0x3f25bd00	0.64741516
97	0xbe0ecea2	-0.13946012
98	0x3dbe68b3	0.092973135
99	0xbe0b9a85	-0.13633163
100	0x3ee6adcb	0.4505447
101	0x3e5e0a41	0.21683599
102	0xbd02279f	-0.031776067
103	0xbfe27b56	-1.7693889
104	0xbe735f64	-0.23766857
105	0xbf0125e8	-0.50448465
106	0xbf0f9287	-0.5608296
107	0x3d362471	0.044468347
108	0x3d32675f	0.043555614
109	0x3e1a4ddd	0.15068765
110	0xbcc10ea4	-0.023566552
111	0x3ebf0a93	0.37312755
112	0x3faf4a96	1.3694637
113	0xbf06e107	-0.52687114
114	0xbe4827fd	-0.19546504
115	0xbe9b87e1	-0.30377105
116	0xbe099256	-0.13434729
117	0xbef26376	-0.47341508
118	0xbdad0b43	-0.084494136
119	0xbe040fe4	-0.12896687
120	0x3dfd2a77	0.12361615
121	0xbeef7bbb	-0.46774086
122	0xbd495636	-0.049154483
123	0x3e28feca	0.16503444
124	0x3e7fb41c	0.2497105
125	0xbe564197	-0.20923458
126	0x3e10c1b2	0.14136389
127	0x3ec4330b	0.38320193
128	0xbd108678	-0.03528449
129	0xbe9fe1b9	-0.312269
130	0x3c5d9084	0.013523225
131	0x3edad234	0.42738497
132	0x3bec116d	0.0072042258
133	0x3cdedccc	0.027204894
134	0x3e0f8910	0.14017129
135	0xbc9131ab	-0.017723879
136	0xc03c6eef	-2.9442708
137	0xbe2ee4d9	-0.17079486
138	0x3da576d8	0.08079308
139	0x3ed5e31b	0.4177483
140	0x3f092cf3	0.5358421
141	0xbed3ad74	-0.41343272
142	0xbd80002e	-0.06250034
143	0xbea5734b	-0.32314524
144	0xbde8d510	-0.113687634
145	0x3f6dd190	0.9289789
146	0xbe7e2e10	-0.24822259
147	0x3e7edb13	0.24888258
148	0x3eed0475	0.46292463
149	0xbd566f81	-0.052352432
150	0xbf270fe7	-0.6525864
151	0xbf575799	-0.8411804
152	0x3f0ca7b3	0.5494339
153	0x3ee9cf5e	0.4566602
154	0x3e476e12	0.19475582
155	0x3cdeb1d0	0.027184397
156	0xbea2b894	-0.31781447
157	0x3ea9f7fd	0.33197013
158	0xbe0d288d	-0.13785
159	0xbe022452	-0.12709168
160	0xbef4c5df	-0.47807214
161	0x3ec25534	0.3795563
162	0xbf1af2a9	-0.6052652
163	0xbdb5d43e	-0.088783726
164	0x3e237001	0.15960695
165	0x3ecf6b23	0.40511426
166	0x3e07e860	0.13272238
167	0x3e71e3ec	0.23622102
168	0xbc6f6d96	-0.01461353
169	0xbf290a1f	-0.6603107
170	0xbc06a5d1	-0.008218245
171	0xbf3a9a2b	-0.7289149
172	0x3d6c7110	0.057725012
173	0xbe3010a8	-0.17193854
174	0x3eef7dbf	0.46775624
175	0x3dc445db	0.095836364
176	0x3dcd27a3	0.10017326
177	0xbdab098b	-0.083514296
178	0xbf2775c8	-0.65414095
179	0x3e103729	0.14083542
180	0xbec044a1	-0.3755236
181	0x3e205594	0.15657645
182	0x3f410073	0.7539131
183	0xbe5f54af	-0.21809648
184	0xbe1d3d40	-0.15355396
185	0x3e4b1c25	0.19834955
186	0xbebff844	-0.374941
187	0xbe56dec2	-0.20983413
188	0x3ed755a1	0.42057517
189	0x3e5174b7	0.2045468
190	0x3f61cd7d	0.88204175
191	0x3e8f019b	0.27930912
192	0xbe90bc9f	-0.28268906
193	0xbf0b6ba7	-0.5446114
194	0x3eb84417	0.35989448
195	0xbe832524	-0.25614274
196	0xbe5985b1	-0.21242405
197	0x3dc2df29	0.09515221
198	0x3f09a9c6	0.5377468
199	0xbc1dffdc	-0.009643521
200	0xbe948780	-0.29009628
201	0xbe4d7abe	-0.20066354
202	0x3f27acfb	0.6549832
203	0xbe1f69dd	-0.15567727
204	0x3e79adb0	0.24382663
205	0xbe17dae5	-0.14829595
206	0xbead35eb	-0.338302
207	0xbeb8356e	-0.35978264
208	0xbf3578ce	-0.7088746
209	0xbe1347fc	-0.14382929
210	0xbf104f7f	-0.563713
211	0x3cc8dcb8	0.02451931
212	0x3ddf770f	0.109113805
213	0x3d914861	0.07093883
214	0xbe7323b8	-0.23744094
215	0x3e0c0757	0.13674675
216	0x4037eedd	2.873954
217	0x3f306f54	0.68919873
218	0xbf333675	-0.7000497
219	0xb9c62ecd	-0.00037800372
220	0xbece5723	-0.40300855
221	0xbe0a3cc6	-0.13499746
222	0x3e5484fe	0.20753857
223	0x3eabfdb5	0.33592
224	0xbe9bdb31	-0.30440667
225	0x3e89c0d4	0.2690493
226	0xbe70a30c	-0.23499697
227	0xbdc72540	-0.09723902
228	0x3fb788b8	1.4338598
229	0x3d885e42	0.06658603
230	0x3d17a156	0.037019096
231	0x3e101f2f	0.14074396
232	0xbd4d4498	-0.050114244
233	0xbdbaac67	-0.091149144
234	0xbe28f78f	-0.16500686
235	0x3dc26b4d	0.09493122
236	0xbf8bfff3	-1.0937485
237	0xbf4350b4	-0.7629502
238	0xbf248a4e	-0.64273536
239	0x3e1ccc09	0.15312208
240	0xbdca7483	-0.09885504
241	0x3de7a7b0	0.11311281
242	0x3ddbdf19	0.10735912
243	0xbe0cf992	-0.13767079
244	0x3e86fb04	0.26363385
245	0xbdc1d600	-0.094646454
246	0x3d8d6c7a	0.06905456
247	0xbe957801	-0.29193118
248	0xbe8023d9	-0.2502735
249	0xbd647242	-0.055773027
250	0xbf26b049	-0.6511274
251	0xbe88bbad	-0.26705685
252	0xbf3987aa	-0.7247263
253	0xc0809f0d	-4.0194154
254	0x3e060ddb	0.13091223
255	0xbeddfc06	-0.4335634

network.2.bias f4 [30]
0	0x3f8aa82a	1.083257
1	0x400ba744	2.182084
2	0xbff54493	-1.9161552
3	0xbf6ffd7b	-0.93746156
4	0xc0080fa9	-2.1259558
5	0xbf5c3c23	-0.8602926
6	0xbf60e23b	-0.878452
7	0x3fbe4915	1.4866053
8	0xc0b5a222	-5.6760416
9	0xbfd48ffb	-1.6606439
10	0x3f1bd6c9	0.6087461
11	0x3fd96bff	1.6986083
12	0xc0ddeb01	-6.934937
13	0xbf480916	-0.78138864
14	0xc0457954	-3.0855303
15	0xc08ac161	-4.336106
16	0x40c88e61	6.26738
17	0xc0d2efd5	-6.5917764
18	0x3fb1b202	1.3882449
19	0x3fc45333	1.533789
20	0x40653041	3.5810702
21	0xc0d14e07	-6.540775
22	0xbf0508c2	-0.5196649
23	0x3f423d2f	0.7587461
24	0xbe6bebcc	-0.23039168
25	0xc0061bf3	-2.095456
26	0xc046b649	-3.1048758
27	0x400767f2	2.1157193
28	0xbf9e2a46	-1.2356651
29	0xbfb5a786	-1.4191749

network.4.weight f4 [30, 30]
0	0xbca49e5f	-0.020095048
1	0xbbeec604	-0.007286789
2	0xbec30211	-0.38087514
3	0x3f8ea05e	1.114269
4	0xbe82d7b5	-0.25555196
5	0x3e49cc91	0.19706942
6	0xbe9e4298	-0.30910182
7	0xbf492185	-0.7856677
8	0xbf8a6183	-1.0811008
9	0xbdf42719	-0.1192152
10	0xbd50254e	-0.050816827
11	0x3e1d3e82	0.15355876
12	0x3d994b08	0.07485014
13	0xbcbdd6eb	-0.02317377
14	0xbb9e3d45	-0.0048290812
15	0xbea68237	-0.3252122
16	0x3de36688	0.11103541
17	0x3e3059e0	0.17221785
18	0xbd178b7d	-0.03699826
19	0x3ef71ed3	0.48265705
20	0x3e7ffb22	0.24998143
21	0xbf6a044c	-0.91412807
22	0x3d887335	0.06662599
23	0x3c034a09	0.008013257
24	0x3e6a989f	0.22909783
25	0xbed919a5	-0.42402378
26	0x3da99128	0.082796395
27	0x3e04edec	0.12981385
28	0x3f30cfa2	0.6906682
29	0xbdf0086d	-0.11720357
30	0x3e8fee97	0.28111717
31	0x3dbbb222	0.091648355
32	0xbd15ec70	-0.036602437
33	0xbd83853b	-0.06421896
34	0xbea1956f	-0.3155932
35	0xbe97806e	-0.29590172
36	0xbe10a4fd	-0.14125438
37	0xbeba7ed3	-0.36424884
38	0xbd89e18d	-0.067324735
39	0xc08098c6	-4.018649
40	0xbd3faeb7	-0.04679748
41	0x3e7cb8df	0.24679898
42	0xbdc7e420	-0.09760308
43	0x3d194e08	0.037427932
44	0xbf0bf434	-0.546695
45	0x3e70b9a1	0.23508312
46	0xbf8a4957	-1.0803632
47	0x3e9fabac	0.31185663
48	0xbf08715e	-0.53297985
49	0x3f087ee3	0.53318614
50	0xbf0a4be3	-0.54022044
51	0xbeeeb696	-0.46623677
52	0x3f07b941	0.5301705
53	0x3b188b8d	0.0023276538
54	0xbecb99f2	-0.39765888
55	0xbee57870	-0.4481845
56	0xc04732cb	-3.1124752
57	0xbe9bac1f	-0.30404755
58	0xbdcf82de	-0.10132383
59	0x3e2d63e6	0.1693264
60	0xbcec84c6	-0.028871905
61	0xbe828066	-0.25488585
62	0x3f0ad25f	0.5422725
63	0xbf4e676f	-0.8062658
64	0x3ec58a9a	0.38582307
65	0x3e57e6d2	0.21084145
66	0xbf3624ab	-0.711497
67	0x3f20042d	0.6250637
68	0xbf11bc2f	-0.5692777
69	0xbf0fcd59	-0.5617271
70	0x3c0e93a2	0.008702191
71	0xbeda567e	-0.42644113
72	0xbc952ebb	-0.01821076
73	0x3e691aaa	0.22764078
74	0xbcbde9f4	-0.023182847
75	0x3c0e0c6d	0.008669955
76	0x3e4885b6	0.19582257
77	0x3ed8e177	0.42359516
78	0xbe91c282	-0.2846871
79	0xbe374163	-0.17896037
80	0x3f86d66c	1.0534186
81	0xbef399d2	-0.47578293
82	0x3e706ad1	0.23478247
83	0x3e942fc7	0.289427
84	0xbd5e7ba1	-0.05431712
85	0xbe2a5ef3	-0.16637783
86	0x39f382ef	0.00046446125
87	0x3e02b4fd	0.12764354
88	0xbc0f98fc	-0.008764502
89	0xbead5656	-0.33854932
90	0xbeace34f	-0.33767173
91	0x3e9c2bf4	0.30502284
92	0x3f415bae	0.7553052
93	0xbf2f0888	-0.6837239
94	0xbeea1a45	-0.45723167
95	0xbeac3c9a	-0.33639985
96	0xbc36cfa4	-0.011157904
97	0x3ed6595b	0.41865048
98	0xbeaf7920	-0.342721
99	0xbe4eac4d	-0.20182915
100	0xbe636eb4	-0.22210199
101	0xbe8dedb8	-0.27720428
102	0xbe790660	-0.24318838
103	0x3f079b12	0.52970994
104	0xbd0a665b	-0.03378902
105	0xbe8173d2	-0.25283676
106	0xbddb3909	-0.10704238
107	0xbe09cb1c	-0.13456386
108	0x3dad810f	0.084718816
109	0x3f623178	0.88356733
110	0x3f20add5	0.62765247
111	0x3f28cf41	0.65941244
112	0x3daa4cd8	0.08315438
113	0xbd201ff6	-0.03909298
114	0x3f53f4e5	0.82795554
115	0xbdd045ab	-0.10169538
116	0x3d717c4c	0.05895643
117	0xbe0f5659	-0.13997783
118	0xbea6acf1	-0.3255382
119	0xbf4f61ca	-0.8100859
120	0xbf14ab13	-0.5807354
121	0x3ca5ceae	0.020240154
122	0x3eb7005a	0.35742456
123	0xbf08cfdc	-0.5344217
124	0xbe220cf2	-0.1582525
125	0xbd1ff5a3	-0.039052617
126	0x3f10e671	0.56601626
127	0xbe604ee0	-0.21905088
128	0xbfa2252f	-1.2667598
129	0xbe8bc770	-0.27300596
130	0xbdb0fdf3	-0.08642187
131	0xbc6df948	-0.014524765
132	0x3be27421	0.0069108163
133	0x3f0ba130	0.5454283
134	0x3ddfc77d	0.10926721
135	0x3f130cad	0.57441217
136	0xbda855aa	-0.08219464
137	0x3ec8fd55	0.39255777
138	0xbe59227c	-0.21204561
139	0xbfca8953	-1.5823158
140	0xbf816635	-1.0109316
141	0xbebb9820	-0.366395
142	0x3daf502b	0.08560213
143	0xbdd1f6c2	-0.102521434
144	0x3ecfa89d	0.4055833
145	0x3f081b90	0.5316706
146	0xbe2b4cf6	-0.16728577
147	0x3d5fe0e6	0.05465784
148	0xbf38e5b8	-0.72225523
149	0xbde868fb	-0.113481484
150	0x3e206e97	0.15667187
151	0xbe383257	-0.17987953
152	0xbeedeee6	-0.46471328
153	0xc10b15e3	-8.692843
154	0x3ebd179b	0.36932072
155	0x3c61ea4e	0.013788773
156	0xb9c74aa5	-0.00038011852
157	0xbd7359a5	-0.059411664
158	0xbebed34e	-0.37270588
159	0x3e61e2f8	0.22059238
160	0x3e8d30e6	0.2757637
161	0x3e0b650f	0.1361277
162	0x3da88018	0.08227557
163	0x3edebb6f	0.43502375
164	0x3e904141	0.28174785
165	0xbe94d9b3	-0.2907234
166	0x3ceea967	0.029133512
167	0xbf0880db	-0.5332162
168	0xbf28018e	-0.6562737
169	0xbe8a18a4	-0.26971924
170	0x3f179c1d	0.59222585
171	0x3e5abea6	0.21361789
172	0x3f31c6d0	0.6944399
173	0x3e436660	0.19082022
174	0x3ce447f8	0.027866349
175	0xbf1e80f2	-0.61915505
176	0x3edfee32	0.43736416
177	0xbdd80834	-0.105484396
178	0xbd70b4fa	-0.058766343
179	0x3e37cac6	0.17948446
180	0x3e591e9a	0.2120308
181	0xbebe0a80	-0.37117386
182	0xbf45fd81	-0.7733994
183	0x3f104f4b	0.5637099
184	0xbe4a57a7	-0.19759999
185	0x3e702df6	0.23455033
186	0x3f1a2e4a	0.6022688
187	0xbeca6d57	-0.39536545
188	0xbea3c4e3	-0.3198615
189	0x3d97bd7b	0.074091874
190	0xbe02ede5	-0.12786062
191	0x3d699ead	0.05703609
192	0x3dea70d5	0.11447302
193	0x3e912cae	0.283544
194	0x3cdace37	0.026709659
195	0x3f357512	0.7088176
196	0xbe101ef6	-0.1407431
197	0xbdee8bb7	-0.11647742
198	0xbf44ef64	-0.7692778
199	0x3e9b7ded	0.3036951
200	0xbf8027b6	-1.0012119
201	0xbf91a799	-1.1379272
202	0x3d922a40	0.07136965
203	0xbed7f165	-0.42176357
204	0x3dbc2264	0.09186247
205	0xbf0acc1c	-0.54217696
206	0x3c2f9c40	0.010718405
207	0xbd16c68d	-0.036810447
208	0xbcc1333b	-0.023583999
209	0xbcbc213a	-0.022965062
210	0x3ded5dc1	0.11590148
211	0xbea8db2f	-0.32979724
212	0xbd067d93	-0.0328346
213	0xbe50a526	-0.20375499
214	0x3f050bc3	0.5197107
215	0x3f77d795	0.9681333
216	0xbd490bf1	-0.049083654
217	0x3ddb9185	0.10721115
218	0x3cb449b1	0.022007795
219	0x3f834555	1.0255533
220	0xbeaa8f03	-0.33312234
221	0x3e40866d	0.1880128
222	0x3d124bd2	0.03571684
223	0x3cd9d991	0.026593002
224	0xbf08971e	-0.53355587
225	0xbf020faf	-0.5080518
226	0xbd822688	-0.063550055
227	0xbf361973	-0.7113258
228	0xbebb023e	-0.36525148
229	0x3f978482	1.1837313
230	0x3d0d4215	0.03448685
231	0xbd38858a	-0.045049228
232	0x3e908372	0.28225285
233	0xbeefea1e	-0.46858305
234	0xbeb95ec9	-0.36205128
235	0xbdb15f77	-0.086607866
236	0xbf0f4c74	-0.55976033
237	0xbeaed6b0	-0.3414817
238	0xbbc829e7	-0.006108511
239	0xbd69065f	-0.05689084
240	0x3d70cd7e	0.058789723
241	0x3e98dfc4	0.2985822
242	0x3eb459bb	0.3522471
243	0xbd422105	-0.04739477
244	0xbe26b894	-0.16281348
245	0x3e2bb931	0.16769864
246	0x3e07d844	0.13266093
247	0x3ca432de	0.020043787
248	0xbda8b6d2	-0.08237995
249	0xbe1d1adf	-0.15342282
250	0x3c37d69e	0.011220602
251	0x3d0f7e88	0.03503278
252	0xbe3e7d5a	-0.18602505
253	0x3f488dbe	0.7834128
254	0x3d524464	0.051334754
255	0x3d61c08b	0.055115264

network.4.bias f4 [30]
0	0xbf6da7a0	-0.928339
1	0xc0cf29ad	-6.4738374
2	0x3d358aa7	0.044321682
3	0x3f82aa4b	1.0208219
4	0xc0014db3	-2.0203674
5	0x40fd4501	7.9146733
6	0x3f0dec8c	0.55439067
7	0x3fc076db	1.5036272
8	0xbf1cbcd3	-0.6122562
9	0xc0af6d4e	-5.482093
10	0x3f05b9cc	0.5223663
11	0x3ee0227c	0.4377631
12	0x4021a77f	2.5258482
13	0x3fbf38ca	1.4939206
14	0x3e91f8fc	0.28510273
15	0xbfa06eb4	-1.2533784
16	0x3e6839d8	0.22678316
17	0x3eaf90b2	0.3429008
18	0xbd8dbdef	-0.069209926
19	0xbd922225	-0.07135419
20	0x3fcd6471	1.6046277
21	0xbee0ec12	-0.43930107
22	0xc090bb40	-4.5228577
23	0x3f5422c7	0.82865566
24	0x4083abf1	4.114739
25	0xc022fcb6	-2.5466743
26	0x3ff02d4c	1.8763824
27	0xc0781ff3	-3.87695
28	0x3f67ad2d	0.9049862
29	0x40c56e5f	6.169723

network.6.weight f4 [30, 30]
0	0x3f447889	0.7674642
1	0x3eb401ba	0.35157567
2	0xbfa65486	-1.2994545
3	0x3f9cddfb	1.2255243
4	0xbf7ab762	-0.9793607
5	0xbfebf770	-1.8434887
6	0x3f7b5548	0.98177004
7	0xbeadaf80	-0.33922958
8	0xbefe1672	-0.496265
9	0xbe18d592	-0.1492522
10	0x3ecad835	0.39618078
11	0xbf2ebf6b	-0.6826083
12	0xbf075e98	-0.52878714
13	0x3ea7e526	0.32792014
14	0x3effad10	0.49936724
15	0xbfff1d1d	-1.993076
16	0xbebb32b8	-0.36562133
17	0x3f1379a3	0.5760748
18	0x3f52088f	0.8204431
19	0x3e9bccdc	0.30429733
20	0x3f9396c5	1.1530386
21	0x3f69cd01	0.91328436
22	0xc00de46d	-2.217067
23	0x3f97e36f	1.1866282
24	0xc01921f5	-2.3926976
25	0x3e8d0c17	0.27548286
26	0xbf44fb0b	-0.7694556
27	0x3f8cc9ce	1.0999086
28	0x4010be47	2.2616136
29	0x3fe1e0eb	1.7646765
30	0x3f68a25b	0.90872735
31	0xbce6fe95	-0.028197566
32	0xbf032c71	-0.5123969
33	0xbf298edb	-0.66233605
34	0x3ebbc7bb	0.3667582
35	0x3e318a86	0.17337999
36	0xbe3410a0	-0.17584467
37	0x3ea50bc0	0.32235527
38	0x3d723b78	0.059138745
39	0x3d7784a7	0.06042924
40	0xc09102f6	-4.5316114
41	0x3e57d8b0	0.21078753
42	0xbe9c8e01	-0.3057709
43	0x3d8561da	0.06512804
44	0x3ea2db52	0.31807953
45	0xbcebc6c8	-0.02878131
46	0xbe059fd8	-0.13049257
47	0xbe027403	-0.12739567
48	0xbdbaa325	-0.091131486
49	0x3e14767a	0.1449832
50	0x3dd7b582	0.10532667
51	0xbefc7f54	-0.49315894
52	0xbf4eb724	-0.807482
53	0x3e68ec2a	0.2274634
54	0xbeaf7227	-0.3426678
55	0xbe4a0e0b	-0.1973192
56	0x3fc4ee01	1.5385133
57	0x3e47a235	0.19495471
58	0xbeb859be	-0.36005968
59	0x3f23e3c4	0.6401942
60	0x3f2864e2	0.65778935
61	0x3e014677	0.12624536
62	0xbfc532fa	-1.5406182
63	0x3edf2791	0.43584874
64	0x3ee50e99	0.447377
65	0x3c29698d	0.010340107
66	0xbf96da63	-1.1785396
67	0xbb5ac31f	-0.0033380461
68	0xbf0d3869	-0.551642
69	0x3ccc7ffd	0.024963373
70	0x3d195e6e	0.03744357
71	0x3d6c52cc	0.05769615
72	0xbe289a3f	-0.1646509
73	0xbd3ce437	-0.04611608
74	0xbedfaea8	-0.4368794
75	0x3ed8db19	0.42354658
76	0xbe49af65	-0.19695814
77	0xbe1299bc	-0.14316458
78	0x3c0a0df0	0.0084261745
79	0x3c4982d7	0.012299261
80	0x3eeee637	0.46660015
81	0x3f919ee5	1.1376616
82	0xc044dcbc	-3.0759726
83	0xbe635f34	-0.22204286
84	0x3df8324c	0.12118968
85	0xbe144683	-0.14480023
86	0xbf1148e5	-0.56751853
87	0xbc2a77fb	-0.010404582
88	0x3eb28d6d	0.34873524
89	0x3dc774d8	0.09739083
90	0xbedf65ea	-0.43632442
91	0xbef98f1c	-0.48741996
92	0xbdc3f825	-0.09568814
93	0x3c5954c3	0.013264838
94	0x3dc04e6c	0.09389958
95	0x3d996c9d	0.074914195
96	0xbe7c36bd	-0.24630256
97	0x3e560dae	0.20903656
98	0xbed8d543	-0.42350206
99	0xbea84481	-0.32864764
100	0x3e82d3c8	0.255522
101	0xbf70b3e7	-0.9402451
102	0xbf1a8283	-0.60355395
103	0xbeb2903a	-0.3487566
104	0x3edde63e	0.43339723
105	0xbe62f695	-0.22164376
106	0xbe105f9b	-0.1409897
107	0x3e8ff85c	0.2811917
108	0xbd4aa837	-0.04947683
109	0xbe0f64a2	-0.14003232
110	0xbe0c3640	-0.1369257
111	0xbf217581	-0.6306992
112	0xbe3d58e9	-0.18490948
113	0xbef3a6cb	-0.4758819
114	0xbe7e1a21	-0.24814655
115	0x3e268977	0.16263376
116	0xbe3119a2	-0.17294934
117	0x3daab425	0.08335141
118	0x3ea0cf65	0.3140823
119	0x3e806a8c	0.2508129
120	0x3fcaba0d	1.5838028
121	0xbf01db9a	-0.5072571
122	0xbf3c98a3	-0.73670405
123	0xbe0c29b7	-0.13687788
124	0xbf861d2c	-1.0477653
125	0xbe1642e9	-0.14673962
126	0xbf09459c	-0.5362184
127	0xbf1c3b59	-0.6102806
128	0xbf92f25a	-1.148021
129	0x3f457fd2	0.77148163
130	0xbf242f15	-0.6413434
131	0xbf59369e	-0.84848964
132	0x3f8388e8	1.0276155
133	0xbf01b2a1	-0.5066319
134	0x3e270d93	0.16313772
135	0x3de1b973	0.110217
136	0x3fc4d8f8	1.5378714
137	0xbdb701e0	-0.089359045
138	0xbee8ed5e	-0.45493597
139	0xbf130e9f	-0.57444185
140	0xc04e4187	-3.2227495
141	0x3f089d09	0.53364617
142	0x3ead097f	0.33796307
143	0xbe531213	-0.20612364
144	0xbfc29b01	-1.5203553
145	0xbe7631f6	-0.24042496
146	0x3f3fe29d	0.7495516
147	0x3e9e9f10	0.3098073
148	0x3fb8c384	1.4434667
149	0xbe9871c5	-0.297743
150	0xbe948b9f	-0.29012772
151	0x3e84a696	0.25908345
152	0xbe62ca5b	-0.22147505
153	0x3df3860e	0.11890803
154	0xbda6738f	-0.0812751
155	0x3cd99372	0.026559565
156	0xbd9259d3	-0.07146039
157	0x3f07900a	0.5295416
158	0xbf909139	-1.1294318
159	0xbe7c507d	-0.24640079
160	0x3e0d5ce2	0.13804963
161	0x3ea27096	0.3172652
162	0x3ea50055	0.32226816
163	0x3f007a58	0.5018668
164	0xbe8a4461	-0.27005294
165	0xbe2227de	-0.1583552
166	0xbfaf17b3	-1.3679107
167	0xbd5d8419	-0.054081056
168	0x3e22db3b	0.15903942
169	0x3dc565d6	0.09638564
170	0x3eb0d920	0.34540653
171	0xbecc2a5f	-0.39876077
172	0x3c470f91	0.012149707
173	0x3ec538e1	0.38519958
174	0xbe9b9c30	-0.303926
175	0xbeadc7d2	-0.33941513
176	0xbe5bbd6c	-0.21458977
177	0x3e02b449	0.12764086
178	0x3f84305b	1.0327257
179	0x3f94a10e	1.161165
180	0xbd247954	-0.04015477
181	0x3da739a2	0.081652895
182	0xbcb485d1	-0.022036465
183	0xbe344bd9	-0.17607059
184	0xbe49ff9e	-0.19726416
185	0xbe322e7b	-0.17400543
186	0x3eb36c81	0.3504372
187	0xbd6e77b3	-0.058219623
188	0x3f0c562a	0.54818976
189	0xbdf01f9c	-0.11724779
190	0x3e5a63cb	0.2132713
191	0x3ed01025	0.40637317
192	0xbd2b8d81	-0.041882996
193	0x3e919e33	0.2844101
194	0xbec219b7	-0.37910244
195	0x3e0a74cd	0.13521118
196	0x3ee6ce62	0.45079333
197	0xbc4d4956	-0.012529692
198	0x3ca615f8	0.020274147
199	0x3db38d9a	0.08767243
200	0x3eb494f8	0.35269904
201	0x3ece8854	0.40338385
202	0xbdb157b4	-0.08659306
203	0x3da58f4b	0.080839716
204	0xbf12e31e	-0.57377803
205	0xbc97c30c	-0.018525623
206	0x3b310458	0.0027010646
207	0xbf53cbba	-0.8273274
208	0xbf854fa2	-1.0414927
209	0xbf701855	-0.9378713
210	0x3ce20b85	0.027593384
211	0x3e203835	0.15646441
212	0x3e8d33e0	0.2757864
213	0xbe15a480	-0.14613533
214	0x3e1c8b37	0.15287481
215	0x3dba74b1	0.09104288
216	0x3df37107	0.11886793
217	0x3f73ed03	0.95283526
218	0x3efa327c	0.48866642
219	0x4019696e	2.39706
220	0xbd7bb7bf	-0.06145453
221	0xbde7977a	-0.11308189
222	0xc0076460	-2.1155014
223	0x4062daf3	3.5446136
224	0xbfd05419	-1.6275665
225	0xbe236638	-0.15956962
226	0xc0ad1ca6	-5.409747
227	0xbfbb7bff	-1.4647216
228	0xbf154f5f	-0.58324236
229	0x3ea2d290	0.3180127
230	0x3e99926d	0.29994527
231	0x3ef8672d	0.48516217
232	0x3c847c1a	0.016172457
233	0xbf2e2ee3	-0.68040293
234	0xbd8d3182	-0.068942085
235	0x3e179996	0.14804682
236	0xbe5eaa33	-0.21744613
237	0x3f3803a7	0.71880573
238	0xbdceabf3	-0.100913905
239	0x3f0b20d7	0.54346985
240	0x400dcb57	2.2155359
241	0xbf51aae1	-0.81901366
242	0x3f37c064	0.7177794
243	0xbc613a8c	-0.013746869
244	0x3ec23227	0.37928888
245	0x3f03520f	0.51297086
246	0xbfbaef90	-1.4604359
247	0x3f1e8c66	0.6193298
248	0x400edbcd	2.2321656
249	0xbf1f8d5a	-0.6232506
250	0xbfecc7aa	-1.8498433
251	0x3ffd8a4a	1.9807827
252	0xbc36ba67	-0.01115284
253	0xbea6c217	-0.32569954
254	0xbf88aed0	-1.0678349
255	0xbe9db2dc	-0.3080052

network.6.bias f4 [30]
0	0xc0704b65	-3.7546017
1	0x4051dc5f	3.2790754
2	0xc04cd138	-3.2002697
3	0x3f501135	0.81276256
4	0x4086e30b	4.215215
5	0xc0957abf	-4.6712337
6	0x40220a17	2.5318658
7	0x408ee454	4.465372
8	0x41260938	10.377251
9	0xc07d0185	-3.9532177
10	0x400c9dd9	2.1971343
11	0x3fa1aa3d	1.2630078
12	0xbf0dbb3d	-0.5536383
13	0xc01dffb2	-2.4687314
14	0x3fa4896a	1.2854435
15	0xbfd301a7	-1.6484879
16	0x412d6853	10.83797
17	0xbf317581	-0.6931992
18	0x40bd84f8	5.9224815
19	0x40930219	4.594006
20	0xbe9b9349	-0.30385807
21	0xbfc305b8	-1.523612
22	0x400e808e	2.2265964
23	0xbfc59723	-1.5436748
24	0xbf20515b	-0.6262414
25	0xc063948c	-3.5559416
26	0xbf5a63f3	-0.8530876
27	0xbfeb75ad	-1.8395287
28	0x3f1726a6	0.5904335
29	0xc1193454	-9.575275

network.8.weight f4 [30, 30]
0	0xb789b993	-1.6418087e-05
1	0xbc428547	-0.011872596
2	0x3bbc1b7b	0.0057405806
3	0xbbd0f645	-0.006377014
4	0xbc04257e	-0.008065579
5	0xbc33024a	-0.010925839
6	0xbb4dad44	-0.0031383792
7	0xbad922e9	-0.001656619
8	0x3acc018a	0.0015564424
9	0x3ad8f5ff	0.0016552805
10	0xbabf0dc1	-0.0014576243
11	0xbacb4593	-0.0015508406
12	0xbbd4c89e	-0.006493642
13	0xbb055581	-0.0020345154
14	0xbaba53d9	-0.0014215662
15	0x3b1014d7	0.0021985078
16	0x3b0c1035	0.0021371965
17	0xbb05429c	-0.0020333892
18	0xbbdd539d	-0.0067543522
19	0xba57ae6e	-0.0008227591
20	0xbbb8eb7c	-0.0056433063
21	0xba6888ab	-0.0008870463
22	0x3a11d677	0.0005563269
23	0x3bbf08f2	0.005829924
24	0x3b082b85	0.0020777893
25	0xbb8f1bec	-0.004367342
26	0x3a85af77	0.0010199387
27	0x3b42516c	0.0029650582
28	0xba64169a	-0.00087008777
29	0x3c16f204	0.009212974
30	0xbdca911c	-0.09890959
31	0xbd86b8b6	-0.065781996
32	0x3ea28598	0.3174255
33	0x3d8f3c38	0.06993908
34	0x3d99c9bc	0.07509181
35	0xbe596a24	-0.21231896
36	0xbe7a2185	-0.24426849
37	0xbe60a66a	-0.21938482
38	0x3d03ee04	0.03220941
39	0x3dd35b4c	0.10320148
40	0x3e275596	0.16341242
41	0x3d6827b1	0.056678478
42	0xbe605ca0	-0.21910334
43	0xbe006a4a	-0.12540546
44	0xbede9722	-0.4347468
45	0x3e0a2f9b	0.13494723
46	0xbe731314	-0.23737746
47	0x3e25fe38	0.16210258
48	0x3d18cf6b	0.037307184
49	0xbebc2436	-0.36746377
50	0xbeb11213	-0.34584102
51	0x3d71cba1	0.059032086
52	0xbcefa710	-0.029254466
53	0x3e1290e3	0.14313082
54	0xbbc8bafc	-0.006125806
55	0x3e8641e3	0.26222143
56	0x3e782f82	0.24236873
57	0xbd99877f	-0.07496547
58	0xbe0bac2c	-0.13639897
59	0x3ca04209	0.019562738
60	0xbb9f221a	-0.00485636
61	0x3b1b4070	0.002368953
62	0xba996ca2	-0.0011705349
63	0xb9857776	-0.00025456742
64	0x3b06d5d6	0.0020574233
65	0x3af68d70	0.0018810462
66	0xba7959f0	-0.0009511998
67	0xbb37edb7	-0.0028065273
68	0xbb81dc89	-0.0039630574
69	0x3b53dbf6	0.0032327152
70	0x3a5fec56	0.00085419917
71	0x3becee96	0.00723059
72	0x3b62de8f	0.0034617519
73	0xb9e895ef	-0.00044362198
74	0x3b275b70	0.0025536679
75	0xbb7d1513	-0.0038617298
76	0x3b53d251	0.0032321403
77	0xba9f5c83	-0.0012158308
78	0x3c3e0075	0.011596789
79	0x3b4fb251	0.0031691978
80	0xb922a7d8	-0.0001551205
81	0x3ae0de1d	0.0017156039
82	0x3adb5760	0.0016734414
83	0xbb933dc0	-0.004493445
84	0xbb8dcae0	-0.004327163
85	0x398904fb	0.00026134387
86	0xba8ee0f2	-0.0010900779
87	0xba2efaf9	-0.0006674971
88	0x3ae7a745	0.0017673752
89	0xbc090a75	-0.00836431
90	0xbac1b97c	-0.001478001
91	0x3b732909	0.0037103316
92	0xbbdc7d7a	-0.006728825
93	0x3a822686	0.0009929694
94	0x3c078653	0.0082717715
95	0x3c26b58c	0.01017512
96	0xb97086e4	-0.00022938434
97	0xb9350730	-0.00017264183
98	0x3bd13589	0.0063845557
99	0x3ace831e	0.0015755629
100	0xba6a943b	-0.00089484797
101	0xba9ea06d	-0.0012102254
102	0xba8e991c	-0.001087937
103	0x3ba1a69c	0.0049331915
104	0xba0d7ccd	-0.000539732
105	0x3aab3b94	0.001306402
106	0xbb54f5e3	-0.0032495193
107	0x3ab8fb5b	0.0014112996
108	0xbb1edb2d	-0.0024239526
109	0xbabd117f	-0.001442477
110	0x3a6b4069	0.00089741364
111	0xb9fb4e94	-0.00047932996
112	0xbaba0bef	-0.001419423
113	0xbb970c52	-0.004609623
114	0x38913376	6.923724e-05
115	0x3b143dc4	0.0022619823
116	0xbb28bb00	-0.0025746226
117	0xbb8875ed	-0.0041644485
118	0xb943f004	-0.00018686062
119	0xbc078195	-0.008270641
120	0x3d89c158	0.067263305
121	0x3d1013e1	0.035175208
122	0x3f46fd55	0.77730304
123	0x3f89793f	1.0740126
124	0xbd20efa7	-0.03929105
125	0x3e934631	0.2876449
126	0xbe851c66	-0.2599823
127	0xbd43c689	-0.04779676
128	0xbec578c2	-0.38568693
129	0xbdd21556	-0.10257976
130	0x3d9ab616	0.075542614
131	0x3e465574	0.19368535
132	0xbf124967	-0.57143253
133	0xbb5302b7	-0.0032197663
134	0x3e80c4db	0.2515019
135	0xbe90b3b7	-0.28262112
136	0x3e59d09a	0.21270981
137	0xbd95566b	-0.072918735
138	0xbf812bc2	-1.0091479
139	0xbe67d14d	-0.22638436
140	0x3db8ffc5	0.09033159
141	0x3ec4d20a	0.38441497
142	0xbe39b20f	-0.1813433
143	0x3d6bd0ac	0.057572052
144	0xbe869e77	-0.26292774
145	0xbd628e7f	-0.055311676
146	0xbe18f1a7	-0.14935933
147	0x3d469b19	0.048487756
148	0x3d934a2a	0.0719188
149	0xbe30bf7c	-0.17260545
150	0xb71b1404	-9.24338e-06
151	0xbbf0f885	-0.0073538446
152	0x3bba98ad	0.00569447
153	0x3b3793f1	0.0028011764
154	0xbb7a3ea8	-0.0038184319
155	0x3b2da24e	0.0026494446
156	0xba298431	-0.00064665364
157	0xb9a234f9	-0.00030938516
158	0xbbe63c40	-0.0070262253
159	0x3ae12169	0.0017176095
160	0xbbbacea4	-0.005700903
161	0x3c0e865f	0.008699029
162	0x3b62d3b6	0.0034611053
163	0x386ee9c6	5.696134e-05
164	0x3b0971e0	0.0020972416
165	0xbb9d2f0d	-0.0047968687
166	0x3b944f4e	0.0045260554
167	0x3a081c3b	0.0005192195
168	0x3b23ce5e	0.002499483
169	0x3a34a25f	0.000689065
170	0xbacc59b3	-0.0015590697
171	0xbab5a253	-0.001385758
172	0x3b30fd17	0.0027006322
173	0xbb7761c0	-0.0037747473
174	0xba3b4bbe	-0.00071447704
175	0xb50871bb	-5.082945e-07
176	0xba7e24e2	-0.0009694827
177	0x3b86eab2	0.0041173333
178	0xbada2f45	-0.0016646167
179	0xb9f65e20	-0.00046990905
180	0x3b2b4dc1	0.0026138874
181	0xba3c5a34	-0.0007185072
182	0x3a1addf0	0.0005907705
183	0xbad3a9fd	-0.0016148683
184	0x3b7d2dbf	0.0038632003
185	0x3c1c9385	0.009556656
186	0xba54e705	-0.0008121583
187	0xbab62ae5	-0.0013898282
188	0x3bc58849	0.0060282093
189	0x3a925166	0.0011163175
190	0xbac60e24	-0.0015110415
191	0x3b8c62c7	0.004284236
192	0x3a40ff79	0.0007362287
193	0x3b9e43db	0.0048298663
194	0xb8c041a7	-9.167502e-05
195	0xbb673576	-0.0035279668
196	0xbaf30000	-0.0018539429
197	0x38658316	5.4719938e-05
198	0x39944d24	0.00028286234
199	0xbb400552	-0.0029300046
200	0x3a34a2a3	0.000689069
201	0xb9361216	-0.0001736361
202	0xba88eb68	-0.0010446133
203	0xbba9984e	-0.005175627
204	0xbaa26007	-0.0012388238
205	0x3ae68cee	0.0017589608
206	0xbb67c834	-0.0035367133
207	0x39feaf32	0.00048577186
208	0x3b0a6e06	0.0021122708
209	0xbbcfbfdb	-0.0063400096
210	0xbda36ba2	-0.07979514
211	0x3ee7f085	0.4530069
212	0xbf8d13c2	-1.1021655
213	0xbf4cf3d6	-0.80059564
214	0x3dcf0dee	0.10110079
215	0xbeb1f581	-0.34757617
216	0x3c9d9123	0.019234246
217	0xbe55dfc9	-0.20886149
218	0xbe861489	-0.26187542
219	0x3e733684	0.23751265
220	0xbd550e24	-0.05201544
221	0xbd9f1d29	-0.07769234
222	0x3f8ce8be	1.1008527
223	0x3e55174c	0.20809668
224	0xbe90c284	-0.28273404
225	0xbdb10756	-0.08643977
226	0xbedf346d	-0.43594685
227	0x3eca8092	0.39551216
228	0xbe4b6024	-0.19860893
229	0x3b936aa8	0.0044987984
230	0xbcc83808	-0.02444078
231	0xbe675d0e	-0.22594091
232	0x3e220f1f	0.1582608
233	0xbd2eb280	-0.0426507
234	0x3e2b7a35	0.16745837
235	0x3e3634bf	0.17793559
236	0xbd0565ff	-0.032567974
237	0x3d4c5f93	0.049895834
238	0x3da6000f	0.0810548
239	0x3e9c1b91	0.30489781
240	0xbb1b3d1d	-0.002368755
241	0xba4a2efd	-0.000771269
242	0x39953b8a	0.00028463855
243	0x3a948eff	0.001133412
244	0x3b753300	0.0037414432
245	0x3b503dbe	0.0031775082
246	0x3a86b40e	0.0010277049
247	0xbb042bfd	-0.002016782
248	0x3c3c3b75	0.011488785
249	0x3b895ae2	0.0041917423
250	0xba1234a6	-0.0005577303
251	0x3bbafa53	0.0057061105
252	0xba9637d7	-0.0011460733
253	0xbb48dd93	-0.0030649647
254	0x3bb3a06b	0.00548177
255	0x398b37ab	0.00026553622

network.8.bias f4 [30]
0	0x3c74a17e	0.014931081
1	0x3d5691e4	0.052385226
2	0xbc826b66	-0.015920352
3	0xbb802112	-0.0039101923
4	0x3f80d5b6	1.0065219
5	0x3c83b02c	0.016075216
6	0x3bcccafd	0.006249784
7	0xbe8531ce	-0.2601456
8	0xbca8e4a4	-0.020616837
9	0x3c74ed2e	0.014949126
10	0xbc0d2f48	-0.00861723
11	0x3b354d15	0.0027664353
12	0xc02cd777	-2.700651
13	0xc08c43db	-4.383283
14	0x3b82d859	0.003993076
15	0xc02528b3	-2.580609
16	0xbb1cb0a4	-0.0023908997
17	0xbb5defab	-0.0033864777
18	0xbc39765a	-0.011319721
19	0x3ccdb6af	0.025111524
20	0xbf30ee66	-0.6911377
21	0xbf9e1637	-1.235053
22	0xbf32ce56	-0.69846094
23	0x3c0d0089	0.008606085
24	0xb944e8df	-0.00018778768
25	0xbb89cdbe	-0.0042054346
26	0xbbd6ae2b	-0.006551524
27	0xbb52d556	-0.0032170615
28	0xbd019bbc	-0.03164266
29	0xbf583f6f	-0.8447179

network.10.weight f4 [1, 30]
0	0xb9610547	-0.00021459638
1	0x3cd1a6fd	0.025592322
2	0x381d49c6	3.7500424e-05
3	0x38f709e1	0.00011779718
4	0x3d429616	0.047506414
5	0xb9f9aae5	-0.00047620307
6	0xb955f8fe	-0.0002040602
7	0xbe424810	-0.18972802
8	0xb8bb0495	-8.917708e-05
9	0xb9c3bd3a	-0.00037334283
10	0xb99c1b16	-0.0002977482
11	0x392db187	0.000165647
12	0x3cfe28a1	0.031025233
13	0x3d9b74fa	0.07590671
14	0xba772c7a	-0.000942893
15	0xbe0e756b	-0.13911979
16	0x39ccb811	0.00039047052
17	0x38bbb9b6	8.951446e-05
18	0x3998181f	0.0002900967
19	0xbd3132a0	-0.04326117
20	0xbe050ba7	-0.12992726
21	0x3da26c04	0.079307586
22	0x3dde4bb1	0.10854281
23	0xb8705a9d	-5.730485e-05
24	0xb9182087	-0.00014507967
25	0xba5ec214	-0.0008497548
26	0xb9976c35	-0.00028881585
27	0x3baf84e1	0.0053564166
28	0x3d2560af	0.040375408
29	0x3e2d1174	0.16901189
