injector_surrogate/results/model_1.pth (torch, 2903 bytes, 5 tensors)

linear1.weight f4 [10, 9]
0	0x39e00b3a	0.00042732974
1	0x3e772e9e	0.24138877
2	0xbe2613db	-0.16218512
3	0x3c82ff88	0.015990987
4	0x3eb554c4	0.35416234
5	0x3f0641fb	0.5244443
6	0xbf4358c2	-0.7630731
7	0x3f1a1b5c	0.60198
8	0xbe77a803	-0.24185185
9	0xbeab24df	-0.33426568
10	0xbe61cddc	-0.22051185
11	0x3d5e7c32	0.05431766
12	0x3e72a0e0	0.23694181
13	0xbde1acf6	-0.11019318
14	0x3f1b598b	0.60683507
15	0xbeac540e	-0.3365788
16	0x3eb160a5	0.34644046
17	0x3e67b4b6	0.2262753
18	0x3dbef194	0.09323421
19	0xbc270a7e	-0.010195373
20	0x3e332d1c	0.17497677
21	0xbe181169	-0.14850391
22	0x3dc2e266	0.09515838
23	0xbe3d0111	-0.18457438
24	0xbeacdff6	-0.3376462
25	0xbf0bf6a7	-0.54673237
26	0x3ec3c943	0.38239488
27	0xbe211808	-0.15731823
28	0xbcbc7087	-0.023002876
29	0xbd204eab	-0.039137524
30	0x3e329e6b	0.17443244
31	0x3e2fb97e	0.17160603
32	0x3e2106a4	0.1572519
33	0xbf0556be	-0.52085483
34	0x3f0110df	0.5041637
35	0x3e1c64c6	0.15272817
36	0xbe651eda	-0.2237505
37	0x3ea2341b	0.31680378
38	0x3e95e58c	0.29276693
39	0xbdd40020	-0.10351586
40	0xbe3dccc5	-0.18535145
41	0x3fa361ad	1.2764183
42	0x3eb7194d	0.3576149
43	0xbea6b780	-0.32561874
44	0xbf06f74c	-0.52721095
45	0x3dfbc869	0.122940846
46	0xbe3ec74b	-0.18630712
47	0xbe338cb1	-0.17534138
48	0xbd788b23	-0.060679566
49	0xbe5a1149	-0.21295656
50	0xbe94bcd4	-0.29050314
51	0x3ee46ab8	0.4461267
52	0xbf2adf66	-0.6674713
53	0x3d22d42e	0.03975313
54	0xbd5691ff	-0.052385326
55	0x3e957d5d	0.29197207
56	0xbdc17a1c	-0.09447119
57	0x3e014dec	0.12627381
58	0x3e0d1465	0.13777311
59	0x3ebe6eda	0.37193948
60	0xbe3dade9	-0.18523373
61	0x3ee07592	0.438397
62	0x3ede2b67	0.43392488
63	0xbdbde638	-0.09272426
64	0x3e4b3e4f	0.19847988
65	0x3e6d6c51	0.2318585
66	0xbe5f937f	-0.21833609
67	0x3eacb6fe	0.33733362
68	0x3e2b0111	0.16699626
69	0x3e68a32f	0.227185
70	0x3ed03e65	0.40672603
71	0xbe8efe5f	-0.27928445
72	0xbe9487bd	-0.2900981
73	0x3e229a85	0.15879257
74	0x3e715bd3	0.23570184
75	0x3dac0fbb	0.08401438
76	0x3e0c6f1f	0.13714264
77	0x3b09d237	0.0021029839
78	0x3d36ec20	0.04465878
79	0xbf0fb932	-0.5614196
80	0x3f413726	0.75474775
81	0x3eca1865	0.39471737
82	0xbe9e547b	-0.30923828
83	0x3e53d92a	0.2068831
84	0xbccdfad3	-0.025144016
85	0x3e58d554	0.21175128
86	0xbf6d03c8	-0.92583895
87	0xbe342950	-0.17593884
88	0xbec6469a	-0.3872574
89	0x3ec3de20	0.38255405

linear1.bias f4 [10]
0	0xbd8b70b8	-0.06808609
1	0xbd0b124c	-0.033952996
2	0x3ddc0ccd	0.10744629
3	0xbe8b04c5	-0.27152076
4	0xbe98a588	-0.2981379
5	0xbe458296	-0.19288096
6	0xbeac4f4f	-0.33654258
7	0xbdcc6114	-0.09979454
8	0xbeaaa78a	-0.33330947
9	0x3f17dad3	0.59318274

linear2.weight f4 [10, 10]
0	0x3d8f7ad0	0.070058465
1	0x3e18e9ec	0.14932984
2	0xbea47188	-0.32117867
3	0x3da58cd8	0.080835044
4	0x3f3a63bb	0.72808427
5	0x3e98a24c	0.29811323
6	0xbee3eb6c	-0.4451555
7	0x3dff3b1d	0.12462447
8	0x3e83ae99	0.25719145
9	0x3ea02c74	0.31283915
10	0xbecd3b98	-0.4008453
11	0xbea8809e	-0.32910627
12	0xbe512908	-0.20425808
13	0xbe87d64a	-0.26530677
14	0x3ead31b4	0.33826983
15	0xbd436e67	-0.04771271
16	0xbe0bf8da	-0.13669148
17	0xbe38fe78	-0.18065822
18	0xbebcf7db	-0.3690785
19	0xbea2f17d	-0.31824866
20	0x3f241702	0.6409761
21	0x3f0763cb	0.52886647
22	0x3d49b52f	0.049245056
23	0x3e37f20f	0.17963432
24	0x3e1400f9	0.14453496
25	0x3d44f067	0.048080828
26	0x3f090ea2	0.5353795
27	0xbe7d525f	-0.24738453
28	0x3d0cbbd5	0.034358818
29	0xbeaa8817	-0.33306953
30	0x3f2e1199	0.679956
31	0xbe363645	-0.1779414
32	0xbee2d97c	-0.44306552
33	0x3e46659d	0.193747
34	0x3efa3a63	0.4887267
35	0x3e713ca5	0.2355829
36	0xbe3d0dea	-0.18462339
37	0xbcd13378	-0.025537238
38	0xbd81b765	-0.06333808
39	0x3f33936e	0.70146835
40	0x3f2a274c	0.6646621
41	0x3edde568	0.43339086
42	0xbd081c39	-0.03323004
43	0x3e91c695	0.2847182
44	0x3ddcf798	0.10789412
45	0x3d9d94bc	0.076943845
46	0x3e8633e4	0.26211464
47	0xbe3d9b45	-0.18516262
48	0x3e85f3a2	0.2616244
49	0xbe59bfd1	-0.21264578
50	0xbed49af5	-0.41524473
51	0xbece3152	-0.40272003
52	0x3de1e9c1	0.11030913
53	0xbf291dc4	-0.66061044
54	0x3e77d05b	0.24200575
55	0xbdc93fa6	-0.09826593
56	0xbf19e9be	-0.6012229
57	0xbe26b190	-0.16278672
58	0xbea99fb3	-0.33129653
59	0xbeeb5131	-0.45960382
60	0x3e7c19ce	0.24619219
61	0xbebf102a	-0.3731702
62	0xbec3ce64	-0.382434
63	0xbe3a0462	-0.18165734
64	0x3f2fe438	0.6870761
65	0x3ea6df91	0.32592443
66	0xbe943f35	-0.28954473
67	0x3deefad0	0.116689324
68	0x3e1d02ee	0.15333149
69	0x3f5524c5	0.8325923
70	0xbe2dd90a	-0.16977325
71	0x3ec814ff	0.3907852
72	0xbe1fbaf6	-0.15598664
73	0x3e8b1acb	0.2716888
74	0x3ca31b68	0.01991053
75	0x3e943733	0.28948364
76	0xbe845ef0	-0.25853682
77	0xbe5186e5	-0.20461614
78	0x3e7c49c4	0.24637514
79	0x3ed1592f	0.40888354
80	0x3db66cbe	0.0890746
81	0xbc8f3026	-0.017479014
82	0xbeeea360	-0.4660902
83	0xbe8b1efd	-0.2717208
84	0xbecb43b6	-0.39700097
85	0xbeee8c0c	-0.46591222
86	0xbecb17a0	-0.39666462
87	0x3d92738e	0.071509466
88	0xbeefdcc5	-0.4684812
89	0x3dd3ca54	0.103413254
90	0x3e37c0ae	0.17944595
91	0xbd2936fa	-0.041312195
92	0x3f600e70	0.8752203
93	0x3eec8faa	0.46203357
94	0xbf9c9b5f	-1.2234915
95	0xbdd2464e	-0.10267316
96	0x3ecc52d2	0.39906937
97	0x3e5ceebc	0.21575445
98	0xbed87f1a	-0.4228447
99	0xbfafbba0	-1.3729134

linear2.bias f4 [10]
0	0x3d5fa0ec	0.054596826
1	0x3e11b759	0.14230098
2	0xbf12ca8f	-0.5734033
3	0x3eb9b1a9	0.36268356
4	0xbe340d76	-0.1758326
5	0x3eef51ab	0.46741995
6	0xbda2b3ed	-0.07944474
7	0xbdb282aa	-0.087163284
8	0x3e95d26d	0.29262105
9	0xbe885b3f	-0.26632115

linear3.weight f4 [1, 10]
0	0x3fbdd66d	1.4831063
1	0xbf359f78	-0.70946455
2	0x4008b70e	2.1361728
3	0x3fbc623b	1.4717478
4	0x3fe6d7ce	1.8034608
5	0xbfe42c8c	-1.7826095
6	0x3fbdf5fd	1.4840695
7	0x3f57ca5f	0.8429317
8	0xbfb78edc	-1.4340472
9	0xc02a5bb4	-2.661847
