injector_surrogate/results/model_1.pth (torch, 2903 bytes, 5 tensors)

linear1.weight f4 [10, 9]
000000 84 9e 9d bc 37 5e e9 3d 04 1b 88 3e dc 67 a6 be
       -0.019240625 0.11394923 0.2658311 -0.32501113
000010 25 7e 3c 3e 1f cc 97 be 3f 25 0f 3e 06 c7 99 be
       0.18407495 -0.2964792 0.13979052 -0.30034655
000020 89 31 6b be 2d 47 8d be 63 57 88 3e 28 41 9a be
       -0.22968115 -0.27593365 0.2662917 -0.30127835
000030 a7 c1 65 3e 6a a3 8c 3e e8 50 4c be 76 52 85 3e
       0.22437154 0.27468425 -0.19952738 0.26039475
000040 e3 27 bb 3e 6e 41 9d be 67 f1 5d be 72 09 76 3e
       0.3655387 -0.3071398 -0.21674119 0.2402704
000050 7c 04 62 be 28 84 5e 3e 59 15 4f be b6 86 1d bd
       -0.22072023 0.21730101 -0.20222987 -0.03845855
000060 8e 3c 4d be 76 f6 c0 3d ff 3c 45 be 6c 66 3f be
       -0.20042631 0.09422009 -0.1926155 -0.18691415
000070 4e 5c 9f 3d 45 43 56 3c f3 d2 92 bc 9c 1f 1a be
       0.077812776 0.013077562 -0.017922854 -0.1505112
000080 97 64 34 3e 8d 7c 92 3e 98 ac 0c 3e 91 08 8c be
       0.17616497 0.2861065 0.13737714 -0.27350286
000090 44 1b 8c be 8f 05 52 be 51 9b e6 3c af a3 a8 bc
       -0.27364552 -0.20509933 0.028150233 -0.020585863
0000a0 f3 34 57 3d 5a fa ce 3d d8 47 45 3e b6 09 0e 3e
       0.05254073 0.101063445 0.19265687 0.13870892
0000b0 03 af a2 3d 93 96 d7 bd 54 2e ca bc 5b c4 cc bd
       0.07943537 -0.10526767 -0.024680294 -0.09998389
0000c0 79 8a 75 be 8c d1 16 bd 21 a3 a1 be bd 59 79 3e
       -0.23978604 -0.036820933 -0.3156977 0.24350639
0000d0 d1 2b 5c 3e f6 32 7e 3c 92 a6 63 be 53 09 b2 bd
       0.2150109 0.01551508 -0.2223151 -0.08693185
0000e0 7c 15 ce 3d 9d 1c 8a 3e dc 99 92 3e af 0d ba 3d
       0.100626916 0.26974955 0.2863301 0.09084641
0000f0 d8 d2 09 3e 04 05 08 be 9d 23 70 be 64 80 2d be
       0.13459337 -0.13283163 -0.23451085 -0.16943508
000100 85 c7 ff bd 55 0c 0d 3d 86 3d 4e 3b 88 d9 5c 3e
       -0.12489227 0.03443559 0.0031469776 0.21567357
000110 92 2f 99 3e 59 ae 69 be 48 29 27 3e 45 47 e8 bd
       0.29919106 -0.22820415 0.16324341 -0.113417186
000120 b7 70 25 3e 42 5d 9d be 1b 68 bb bd b8 0a 41 3e
       0.16156279 -0.30735213 -0.09150716 0.18851745
000130 46 c7 8a bd e5 3c 33 be 5b 86 72 3e 1e fe 71 be
       -0.0677629 -0.17503698 0.23684065 -0.23632094
000140 11 7e 6b be d2 c8 a1 bc 18 d2 34 3e c8 5b 5a be
       -0.2299731 -0.019749079 0.1765827 -0.21324074
000150 b1 12 67 3e 11 15 a4 be b1 10 82 3e 2f ca 80 be
       0.22565724 -0.32047322 0.2540336 -0.25154254
000160 dc a2 c4 3b 0a 0a 68 be
       0.0060008597 -0.2266008

linear1.bias f4 [10]
000000 0f 64 0f bf 20 2a 19 3f be 25 93 3e 41 09 26 bf
       -0.5601205 0.598299 0.28739733 -0.6485787
000010 3d 07 d8 be 7d db 22 be ff 7c 08 be 3d 21 87 3e
       -0.42193022 -0.1590404 -0.13328932 0.26392546
000020 13 8a 20 be bd e4 3b bd
       -0.15677671 -0.04587244

linear2.weight f4 [10, 10]
000000 7d a8 aa be 62 d6 94 3e c9 0e 9b 3b 1d 00 ac be
       -0.3333167 0.2906981 0.004731987 -0.33593836
000010 9e e4 95 be 4e ba 95 bd dd 24 50 be 96 40 57 bd
       -0.29275984 -0.073109254 -0.20326562 -0.05255183
000020 ee cb 90 3e cd ce 6e 3c b4 22 89 be ec 68 ae 3e
       0.28280586 0.014575672 -0.2678429 0.34064424
000030 10 c3 a8 3e 33 bb 36 bd 25 d8 83 bd 6a e2 05 3d
       0.3296132 -0.04461212 -0.06437711 0.03268663
000040 96 13 83 bd 7c 9e da 3d 2f 43 99 3d 4c fa 76 3e
       -0.0640022 0.1067476 0.074835174 0.24118918
000050 c2 2b 90 3e 82 30 94 bd 8a 7b 9e bd 29 58 b6 3e
       0.28158385 -0.07235815 -0.07738407 0.35614136
000060 0f 6e 5e 3e 3a 60 e7 3d 81 4f 5a 3e 5e ad 51 bb
       0.21721672 0.11297651 0.21319391 -0.0031994204
000070 d1 75 67 bd 8a 74 a1 3d 5b 97 a7 be 4d 4c bd 3e
       -0.056508843 0.07883556 -0.32732663 0.36972275
000080 ae 5f 01 bd 81 00 a0 bd c5 47 08 bd 74 42 81 be
       -0.031585388 -0.07812596 -0.03327157 -0.25246012
000090 1d e7 7b be 71 c7 9d 3e ac ac b2 be 05 eb d8 bd
       -0.24599881 0.30816224 -0.34897363 -0.105917014
0000a0 a3 a8 7f 3d 73 d9 48 3e bd 38 b3 3e 56 b7 d1 be
       0.062416684 0.196142 0.35004225 -0.40960187
0000b0 48 fb 11 3d 10 31 06 be 51 4f 03 3e 1a ec 94 3e
       0.03564003 -0.13104653 0.12823226 0.2908638
0000c0 82 5c 3c 3e d7 1a a0 be d6 f4 56 be be e1 a2 3e
       0.18394664 -0.31270477 -0.20991835 0.31812853
0000d0 c0 29 1f 3e 36 77 ab be 01 29 0a 3e 7a 09 5c 3e
       0.1554327 -0.33489388 0.13492204 0.2148799
0000e0 da 71 1a be 6e 25 37 bd c1 8a 80 be 5c 27 72 be
       -0.15082493 -0.04471343 -0.2510586 -0.23647827
0000f0 eb 8a 1c 3d 44 33 87 be 8d f3 8b bd ff 11 b6 3e
       0.03821842 -0.264063 -0.06833563 0.35560605
000100 95 42 d4 3e 5e ad 58 3d db 5e 30 3e 96 f4 b9 3d
       0.41457048 0.05289971 0.17223684 0.09079854
000110 45 47 d2 3d dd 7e 1d be f3 4b 3a 3e 80 23 b6 ba
       0.102675 -0.15380426 0.18193035 -0.0013896078
000120 06 21 8a be 9a 1b 7d bd 0b 26 ca bd eb e6 e3 3d
       -0.2697832 -0.0617939 -0.09870537 0.111280285
000130 47 a3 0f be b5 4f db 3d 05 6c 19 bb 9d 70 62 bd
       -0.14027129 0.10708562 -0.0023410332 -0.055283178
000140 ab 00 83 3e f6 5a 6b 3d 26 c4 36 3d 49 30 2a 3e
       0.25586447 0.057459794 0.044620655 0.16619982
000150 a2 d7 8f 3d 63 d5 42 bd 7e e4 11 3e fd 0c 0a be
       0.070235506 -0.047566783 0.14247319 -0.13481517
000160 4f ad 89 3e 93 de 47 3e 34 67 da be b0 8d 37 3e
       0.26890036 0.19518499 -0.42656863 0.17925143
000170 b3 9e db bb e2 ba 69 3b f2 c6 2f 3e 24 11 f9 3b
       -0.006702268 0.003566437 0.17165735 0.0076009203
000180 10 5f 1e be ea 67 23 3c 58 91 28 be 8d c9 35 3e
       -0.15465951 0.0099735055 -0.16461694 0.17752667

linear2.bias f4 [10]
000000 38 1f c4 3e 11 a7 60 3e 71 f3 11 bf c2 8c d8 3e
       0.38305068 0.21938731 -0.5701209 0.4229489
000010 3e b5 10 3f ae 2d 51 3e 5d b4 b2 be 58 fe ae be
       0.56526554 0.20427582 -0.3490323 -0.34178424
000020 cf 2d 78 be b9 cd fc 3e
       -0.24236225 0.49375704

linear3.weight f4 [1, 10]
000000 53 62 1f bf 9a 02 ed be 8c 7c 43 3f c6 76 4d bf
       -0.62259406 -0.46291047 0.7636192 -0.8025936
000010 9e 52 2b bf 90 30 e6 be 52 f6 29 3f dc 9c 8a 3e
       -0.6692294 -0.44958925 0.6639148 0.270728
000020 29 2a d6 3e 78 fd 18 bf
       0.4182904 -0.5976176
