injector_surrogate/results/model4_4hidden_30nodes_500epoch_0.01.pth (torch, 19713 bytes, 11 tensors)

network.0.weight f4 [30, 9]
000000 24 4d 83 bf 93 ef 7a 3e 6b cc 8c be 30 73 b2 3e
       -1.0257916 0.24505453 -0.2749971 0.34853506
000010 3e f8 c3 3e 33 1a f0 3d 97 c1 94 3f 37 e9 6b 3e
       0.3827533 0.11723747 1.1621579 0.23038183
000020 bd f9 16 3e ac 38 26 be 9c 8d 6f be fe ef a7 3d
       0.14743705 -0.16232556 -0.23393863 0.08200072
000030 44 97 7d bd 70 1d 44 39 83 13 db 3f c4 9e 94 3f
       -0.061911836 0.00018702983 1.711533 1.1610951
000040 c8 59 f5 3b 80 f9 af 3e 88 8b 4b 3d 41 53 17 be
       0.0074875094 0.3437004 0.049693614 -0.14777853
000050 af 47 18 3e d0 68 57 3e f8 24 2a 3e 48 7b 0c bf
       0.14871095 0.21036077 0.16615665 -0.5487561
000060 5a 1d 51 bf 20 6a 34 40 29 26 8f 3f c4 bc d3 3e
       -0.8168541 2.8189774 1.118352 0.41354954
000070 57 05 dc 3e aa 4e be be b6 60 28 bf 29 a2 9f be
       0.42972824 -0.3716939 -0.6577257 -0.31178406
000080 af da 68 bd 6f 30 98 bf 1f 9b d6 3f 68 f5 3e 3f
       -0.056849178 -1.1889781 1.6766089 0.7459321
000090 68 4a 37 bf 1c e1 18 3f a4 22 0b 3f 24 d5 ba be
       -0.7159791 0.5971849 0.5434973 -0.36490738
0000a0 fe 72 08 be fc 8c 41 3e 49 64 27 3d 4a e9 83 3f
       -0.13325116 0.18901438 0.040867124 1.0305569
0000b0 ac 1c 2a 3f 23 09 01 3f 8f 1a be be 48 12 b6 bd
       0.6645 0.50404567 -0.37129638 -0.088902056
0000c0 2d cd f4 be 0f dd a4 bf 08 98 d6 3f 68 2e bb 3f
       -0.47812787 -1.2879962 1.6765146 1.4623537
0000d0 25 06 9a be 0f 62 a3 be 2c 61 c6 3d 21 dc 5f 3d
       -0.30082813 -0.3191075 0.09686503 0.05465329
0000e0 46 c2 92 bd 6b 04 6a 3e ae 2e c2 3e 6d 8c 45 3e
       -0.07165961 0.22853248 0.3792624 0.1929185
0000f0 b5 70 1f be 18 4e 13 c0 a2 1d 31 c0 4e d1 87 be
       -0.15570338 -2.3016415 -2.7674336 -0.26526874
000100 5f f9 ca bf 0c 61 88 bf 57 77 f7 3d ec 28 61 be
       -1.5857352 -1.0654616 0.12083309 -0.21988267
000110 ee f7 d7 3c 1d 67 58 bd cc 78 56 3f 74 dc 97 3e
       0.02636334 -0.05283271 0.8377807 0.2966038
000120 6e 99 88 be f9 87 14 be b4 a9 24 bf 3e 7d 48 3e
       -0.26679558 -0.14504994 -0.64321446 0.19579026
000130 86 a7 56 be ab f8 80 bf 3a 56 57 bf f6 23 c9 3c
       -0.20962343 -1.0075887 -0.84115946 0.02455328
000140 af 4b b2 bd 0e c0 0b bf 54 2d b1 be e9 eb 96 3e
       -0.08705842 -0.5458993 -0.34604895 0.2947686
000150 de d5 cd bc 53 1e 14 bd 43 43 ac bf 2b 1d b6 bf
       -0.025126394 -0.036161732 -1.3458027 -1.4227651
000160 22 b6 40 bd 99 63 2d 3e 49 29 1e bd 57 08 9a bc
       -0.047048695 0.16932525 -0.03861359 -0.018802805
000170 4a ab db 3d 0c 78 bd bd ab 63 5b be 9c 8e 32 3f
       0.1072603 -0.09251413 -0.21424739 0.69748855
000180 d8 d8 62 40 87 97 dd be 5a 2d ac 3c 2d af d5 bd
       3.544485 -0.4327967 0.021017719 -0.10433803
000190 73 ff 56 bf e0 f8 74 bf b3 f3 23 3f a6 7f 97 3e
       -0.83983535 -0.95692253 0.6404373 0.29589576
0001a0 56 2e 98 3e d7 5b 5a 3e 4f e3 12 3f cf d7 5e 3f
       0.29722852 0.21324097 0.57378095 0.8704805
0001b0 dd 4a bb 3d bc 63 72 be d9 a3 22 3e 91 34 b3 3f
       0.091451384 -0.23670858 0.15882815 1.4000417
0001c0 33 94 39 40 e4 1d 06 3f 26 75 34 3f 7f 71 22 be
       2.8996704 0.5238936 0.70491254 -0.15863608
0001d0 1e 2e c1 3d bf d3 1a bc db cc 3f bc 16 04 c3 bc
       0.09432624 -0.009449898 -0.011706556 -0.02380566
0001e0 c8 6e aa 3c 2f dc 88 bc 77 d7 8a 3b 6f c2 35 3b
       0.020804778 -0.016706554 0.004237111 0.00277343
0001f0 72 20 b4 bc a4 21 56 3c a5 74 11 3e 86 65 39 3d
       -0.021988127 0.013069544 0.14204653 0.045262836
000200 6f 98 a9 3d 06 80 9a 3d a7 50 59 3e 89 ba 9e 3f
       0.082810275 0.0754395 0.21222173 1.2400676
000210 3e 49 07 40 2b df db 3f fd 4a fc 3e e3 a9 7e 3c
       2.1138453 1.717748 0.49275962 0.015543434
000220 44 f5 43 be 82 c1 e1 bc 05 87 e3 3d 0e 09 98 bc
       -0.1913653 -0.027558092 0.11109737 -0.018559005
000230 6a 00 8c be bb a4 55 3d 2f 3d 44 3f c4 67 d0 40
       -0.27344066 0.052159052 0.7665586 6.5126667
000240 6c 4a 23 be 70 66 1f 3e cf 90 02 bd b9 34 dc 3e
       -0.15946358 0.1556642 -0.03187638 0.43008974
000250 34 5c f2 be 46 6d 7c bd f3 dd d0 be 7c 07 c6 bf
       -0.4733597 -0.06162765 -0.40794334 -1.5471034
000260 43 8a b3 bf bd 15 e3 be 66 0e 06 3e a1 54 34 be
       -1.4026569 -0.44352522 0.1309143 -0.17610408
000270 2c 5c c5 3c bf ea 45 be 86 90 19 40 09 3e 01 40
       0.024091803 -0.1932783 2.399446 2.0194113
000280 a9 9e fa bd 50 07 37 be 3a b1 bb be e6 44 5d bf
       -0.12237293 -0.17873883 -0.3665865 -0.86433256
000290 b8 0a 27 bf 37 4e 66 bf 8f 6c 8c be c4 9e 24 3e
       -0.6525073 -0.89963096 -0.27426574 0.1607619
0002a0 a3 36 43 3d b9 76 4b 3e d7 ff bd 3e d0 fa 30 40
       0.047659528 0.19869508 0.37109253 2.7653084
0002b0 37 9c 99 be 81 69 38 3f c9 f4 e5 3e 3e b2 87 bd
       -0.30001995 0.72035986 0.4491332 -0.06625794
0002c0 91 e4 51 be a5 43 a1 be b6 c5 92 be ca 8d c7 be
       -0.20497347 -0.3149692 -0.28666466 -0.38975364
0002d0 f2 92 fb be 5d 06 10 3f f4 6e cd be 5f 02 c2 bf
       -0.49135548 0.5625971 -0.40123713 -1.5156974
0002e0 d8 ed 39 bf cc 91 75 3e 0b 4f 5f bb 44 2b 98 3d
       -0.72628546 0.23981398 -0.0034074213 0.07430127
0002f0 8c cb e3 3b 4a 6e 20 3e fb c6 c4 bd c2 55 6e 3e
       0.006951755 0.15667072 -0.09608265 0.23274902
000300 70 d7 8d 3f a1 e0 54 3f 8d 0b 16 3f a6 0e e0 be
       1.1081371 0.83155257 0.58611375 -0.43761176
000310 77 08 34 3f 75 da e3 be 79 6a 24 40 c2 93 07 bf
       0.70325416 -0.44502607 2.5689986 -0.52959836
000320 84 7d f8 3e ed 7d 93 bf 37 21 a3 bf be c5 d7 bc
       0.4853326 -1.1522804 -1.2744511 -0.026339408
000330 70 0c b9 be 27 bb 8d 3e 12 57 19 3f b3 50 92 be
       -0.36142302 0.27681848 0.59898484 -0.28577194
000340 bc 3d d5 39 36 3d 89 bd 29 76 3e 3f 98 a2 80 3e
       0.00040672522 -0.06701128 0.7439905 0.2512405
000350 95 61 eb 3e 34 50 3a be 57 41 8b bf 18 c2 8a 3e
       0.45972887 -0.18194658 -1.0879315 0.27101207
000360 12 02 66 3f 6a 6f 83 3e 2b a3 19 bd 77 77 5d 3e
       0.8984691 0.2567094 -0.037509125 0.21627603
000370 2c 94 5d 3f 96 da 22 bc bf 32 0a bf 30 93 07 40
       0.8655422 -0.00993981 -0.5398368 2.1183586
000380 b8 33 e9 3f 6a af e6 3d 51 c3 e4 3d f1 c4 11 3c
       1.8218908 0.11263926 0.11170066 0.008897052
000390 f1 65 68 3f 34 e0 1c 3f c0 c3 0f 3d 8f 8f 2d bd
       0.9078055 0.61279607 0.03509879 -0.042373236
0003a0 07 06 a6 3f 0a 80 7d 3f b8 9f a3 3e 3e da 58 3e
       1.2970589 0.990235 0.31957793 0.21177003
0003b0 14 3b 5e be e4 f0 61 3f e5 4a 2e 40 e4 85 8a b9
       -0.21702224 0.88258195 2.7233212 -0.00026421167
0003c0 fb 4f 06 be d7 0a 0b bc 82 b2 a8 bd 0b ab 33 c0
       -0.13116448 -0.008486471 -0.08237173 -2.8073146
0003d0 a1 28 a0 be f7 a4 56 3e cf 02 08 be 3d f5 ae 3d
       -0.31280997 0.20961367 -0.13282321 0.08542869
0003e0 bc 5a 0f 3e 0a 78 21 3e ac 66 9e 3d 7b e9 49 bc
       0.13999456 0.15768448 0.07734427 -0.0123237325
0003f0 10 7e a9 bb c9 1d 88 bc 26 1c b0 bb f3 da 1c 3b
       -0.0051724985 -0.016615765 -0.0053744493 0.0023934215

network.0.bias f4 [30]
000000 4b 71 6f bf 58 ad 05 c0 4c d8 aa bf d2 f8 42 bf
       -0.93532246 -2.088705 -1.3347259 -0.7616092
000010 71 7d 92 bf 1a af ed 3e c8 83 db 3f 6c 9e 27 be
       -1.1444532 0.46422654 1.7149591 -0.16369027
000020 e9 51 9a 3f 32 ef e4 3f 37 65 37 c0 d1 bd 05 3e
       1.2056247 1.7885497 -2.8655527 0.1306069
000030 5c dc 08 c0 67 5d c4 ba 0c 82 2b c0 19 41 e5 bf
       -2.1384497 -0.0014981449 -2.6798124 -1.7910491
000040 aa 88 03 40 4a 16 da bf 53 3f b7 3f 62 27 93 be
       2.0552163 -1.7038052 1.43162 -0.28740984
000050 aa 19 ca 3f e5 21 a0 bf 4f 94 9a bf 70 8c 0d 3c
       1.5789082 -1.2510344 -1.207651 0.00863944
000060 cb 03 cf bf 38 bf 16 c0 44 76 19 c0 99 ee 9c 3f
       -1.6173033 -2.355421 -2.3978434 1.2260314
000070 ee bc e8 3a c7 63 ac be
       0.0017756501 -0.33669874

network.2.weight f4 [30, 30]
000000 89 d7 a7 3e 53 36 af 3d f2 a4 fd be fb 9d 66 3f
       0.32781628 0.085552834 -0.49539906 0.9008481
000010 c3 05 68 be 27 09 4e 3e 76 e7 d1 3d 19 a3 0a be
       -0.22658448 0.20120679 0.10249226 -0.1353878
000020 27 55 b7 3e 6b 8f 3f be 41 c4 50 be 58 9e e3 be
       0.35807154 -0.18707053 -0.20387365 -0.44456744
000030 c3 30 a9 be e6 a9 98 bc 2e 99 fc be c1 a7 ce be
       -0.33045015 -0.018635701 -0.49335617 -0.4036236
000040 c5 3d b4 bf fb 90 c2 3e 46 ca a5 3e 20 2c 07 3f
       -1.408135 0.38001236 0.32380885 0.52801704
000050 ba c8 88 3f ff fe 46 bf ab 5c 6c 3d 0a 4e f7 be
       1.0686257 -0.77732843 0.057705563 -0.48301727
000060 bb 27 da be 7a e1 53 bf 54 c8 fc 3c d7 79 e4 be
       -0.42608437 -0.82765925 0.030857243 -0.44624206
000070 c0 08 c9 bc 46 38 2a bf d7 e5 1d bf dd b6 6f bd
       -0.024540305 -0.66492116 -0.6167883 -0.058524
000080 e2 16 d7 3e 9d 00 93 3c 54 07 77 bf 00 12 cf 3d
       0.42009646 0.017944628 -0.96495557 0.10110855
000090 5e 95 1b bf 10 d4 cc be 00 5a 8f 3e 93 f7 92 3e
       -0.6077479 -0.4000554 0.27998352 0.2870451
0000a0 fa 70 58 bf eb 32 ff be bc 38 55 3e 32 cd 2b 3b
       -0.8454739 -0.49843535 0.20822424 0.0026214835
0000b0 fd cc f0 be 58 e2 bc bc 04 81 b0 3f d3 42 2a be
       -0.47031394 -0.023057148 1.3789372 -0.16627054
0000c0 4c 03 15 be 31 99 01 3d a9 ab 9b be 37 84 61 bd
       -0.14552039 0.031640235 -0.30404404 -0.05505773
0000d0 2f 65 d6 3d cc 2a 79 3f d9 4d 9d 3d 18 f0 b8 bf
       0.10468518 0.9733093 0.07680864 -1.4448271
0000e0 39 a7 1b 3f 1a 87 c2 3e f4 13 db bb e3 88 d6 be
       0.60802037 0.379937 -0.006685728 -0.4190131
0000f0 4a b0 50 3e 86 b4 67 3f 30 f3 98 3e bf 94 f9 3d
       0.20379749 0.9050983 0.29873037 0.12186574
000100 61 85 05 3f 98 e8 f9 bd 77 61 e8 be e9 a6 20 bc
       0.52156645 -0.12202567 -0.4538686 -0.0098054195
000110 f1 ba 65 be 35 37 00 be b8 4c f5 3d 31 b5 d0 3e
       -0.22434594 -0.1252106 0.119775236 0.40763238
000120 46 59 aa be d2 61 04 3d 07 40 b6 3d 3b dc 0d 3f
       -0.33271235 0.03231985 0.08898931 0.5541417
000130 cb bc 75 3e fa 15 31 bf 6e 97 fc 3d ee ab 48 be
       0.239978 -0.6917416 0.123335704 -0.19596836
000140 9c 28 be be 51 cf 64 be a2 36 c4 3e 91 9b 33 3e
       -0.37140357 -0.2234471 0.38322932 0.17539813
000150 7f c9 c7 3e 47 7a 3c 3f dc 27 8c 3e b0 30 be bd
       0.39020917 0.7362408 0.2737416 -0.0928663
000160 b3 20 0f 3d 96 a6 01 3d 2f 49 40 3e d9 3a af 3e
       0.034943294 0.03165301 0.18777917 0.34224585
000170 61 72 22 3f 4e 99 9b be a9 b2 90 3e ff 16 74 3e
       0.6345578 -0.303904 0.28261307 0.23836897
000180 32 91 34 bf 36 4c a4 3e 70 2b 1e bd 32 1b 81 3e
       -0.7053405 0.32089394 -0.038615644 0.2521606
000190 3d 92 08 be 63 01 db 3d 98 a8 cc bf 6b fb a3 bc
       -0.13337035 0.10693624 -1.5988951 -0.020017346
0001a0 89 36 87 3e 51 22 b6 bd d9 b7 15 3f 51 bc a7 be
       0.26408795 -0.08893264 0.58483654 -0.32760862
0001b0 5e 75 1a 3e 49 b2 02 3f ab bd c2 3e 91 6f 32 be
       0.15083835 0.5105329 0.3803533 -0.17425372
0001c0 b3 f0 1a be 48 50 a4 3e f7 dc 84 3d 8c ae 5e be
       -0.15130882 0.320925 0.06487458 -0.21746272
0001d0 96 42 2f bf 48 ce 43 3e fd d5 2d 3c c1 08 1a 3e
       -0.6846098 0.19121659 0.010610101 0.15042402
0001e0 d4 28 39 3c 86 68 91 3c 91 02 2d 3e 48 7f 5b 3d
       0.011301238 0.017750036 0.1689551 0.05358818
0001f0 37 9b 06 3f f8 89 d9 be 86 98 d8 be cb af 65 3e
       0.5258059 -0.42488074 -0.42303866 0.22430341
000200 1f ec 53 be c8 a7 64 bf b1 fe 05 40 57 2c c6 3e
       -0.20695542 -0.89318514 2.0936701 0.38705704
000210 a2 9f 44 bf 26 6a fb 3c c3 b2 4e 3f 21 14 93 be
       -0.7680608 0.030690264 0.8074152 -0.28726295
000220 07 f1 92 bf 22 3c 34 3e 2d 4e 83 3e c8 3f 19 3e
       -1.1479806 0.17601064 0.2564558 0.14965737
000230 3c 65 a5 be 8a 99 be 3e 7f 12 89 be 0a e4 12 bf
       -0.32303798 0.37226516 -0.26771924 -0.5737921
000240 f6 d6 92 3c ac dd 2b 3f fa 93 75 be af 4d 4f 3e
       0.017924767 0.6713512 -0.2398223 0.20244478
000250 5a 03 24 3d 09 3a 1d 3d db 85 44 be 2c 44 81 3d
       0.04004226 0.038385425 -0.19191687 0.06311831
000260 4c 9f 13 bf c6 42 ad be 1d 96 41 be 10 b3 5c 3e
       -0.5766494 -0.33840007 -0.1890492 0.21552682
000270 d1 56 e8 be 3c 46 c6 be 4f 5f 4f bd 40 05 4e 3f
       -0.45378736 -0.3872546 -0.050628003 0.8047676
000280 49 47 2c be 28 55 34 be d3 05 0e bf 8a 42 aa bc
       -0.16824068 -0.1761061 -0.5547764 -0.020783681
000290 cf b2 67 3f 68 a5 32 3b 30 76 d6 3e 94 c1 e7 be
       0.90507215 0.0027259234 0.41887045 -0.45264876
0002a0 75 00 76 3e a6 5b 3c 3e 47 69 98 3e ae 24 b1 3e
       0.24023612 0.18394336 0.2976782 0.34598297
0002b0 ae c7 27 bf a9 72 c4 3d 87 f6 f0 be 73 02 89 be
       -0.6553906 0.09592182 -0.47063085 -0.2675968
0002c0 de d0 97 bf 6d c7 63 3d 76 31 dd bc bb 12 84 be
       -1.1860616 0.05561011 -0.027001124 -0.2579554
0002d0 f3 44 2e 3e 09 a0 69 3f 9b f9 7e 3e c0 58 56 bf
       0.1701849 0.9125982 0.24899904 -0.8372917
0002e0 63 53 aa be 35 0b 2f bf f8 d0 85 be 06 54 eb bd
       -0.33266744 -0.68376476 -0.26135993 -0.114906356
0002f0 e4 d5 95 3e 58 61 48 bf 42 22 ea 3f ac a4 18 bb
       0.29264748 -0.78273535 1.8291705 -0.0023291511
000300 cd b2 59 3f 74 66 89 3d c2 52 a9 3f ee 16 54 bd
       0.85038453 0.067089945 1.3228381 -0.05177968
000310 25 d9 29 3f ee 92 e1 be 50 ea 31 be ed 3a 8b be
       0.6634696 -0.4405741 -0.1737454 -0.27193394
000320 94 89 48 bd 35 b8 97 be 1d 1a 1f 3c e4 8c a6 3e
       -0.04895933 -0.29632726 0.009710816 0.32529366
000330 18 2d 98 3e e2 cb ce be ae d3 9a 3f 94 eb 91 be
       0.29721904 -0.40389925 1.209585 -0.28500044
000340 bd 3a 13 3d 1b 21 98 be 23 7d c9 bd 04 5a 32 bf
       0.03594469 -0.29712757 -0.09838321 -0.696686
000350 68 18 1d bf 34 1c 9c 3e f9 26 db 3d c3 5f 32 bf
       -0.61365366 0.30490267 0.10700793 -0.6967737
000360 53 53 94 bc bb b1 39 3d 14 ed 90 3f a9 47 27 3f
       -0.018106138 0.045335513 1.132235 0.6534372
000370 7c 07 b5 3e 5a c4 d8 bc 29 36 ae 3e 68 f6 a2 3c
       0.35357273 -0.026460815 0.34025696 0.019892886
000380 b8 9f 4e 3f 28 ac 9e 3c f6 ee 8e bd 27 f0 99 bf
       0.8071246 0.0193692 -0.06979172 -1.2026414
000390 7a 3c 97 be 99 a5 80 be 3c 1f 87 3e 9c 2a 84 3d
       -0.29538327 -0.2512634 0.26391017 0.064534396
0003a0 de 45 0e 3e b7 2c ec be 4d 8c cc 3e 1c 47 92 bf
       0.1389384 -0.46127865 0.3995079 -1.1427951
0003b0 11 ca b0 bf 3c d5 c8 be 55 1a 89 bd 03 f0 b6 be
       -1.3811666 -0.39225185 -0.066944756 -0.3572999
0003c0 44 a0 af bf dd 10 0e 40 2c aa 1a be 81 05 09 bf
       -1.3720784 2.2197793 -0.15103978 -0.53524023
0003d0 46 9c 4a bf e0 25 a5 be 62 43 c5 be d5 6e b6 3e
       -0.79144704 -0.3225546 -0.38527972 0.35631433
0003e0 cd 1c bc bf 5f b4 10 bf 9b 91 6d bf fa 26 22 3f
       -1.4696289 -0.56525224 -0.928003 0.63340724
0003f0 4e f1 3c c0 40 c0 05 bd 73 16 c4 3f 0d a8 2a 3f
       -2.952228 -0.032654047 1.5319351 0.66662675

network.2.bias f4 [30]
000000 d8 9d 81 bf 7f 2a 4e c0 61 b3 98 3e 38 9b 24 3f
       -1.0126295 -3.2213438 0.29824355 0.64299345
000010 41 78 da 3f b0 d4 09 bf 81 e0 17 40 8f 61 31 3f
       1.7067949 -0.5384016 2.3730776 0.6928949
000020 56 91 4d 3f 6e 05 2e be e6 09 c5 3f 4c 5e 1a bf
       0.8029989 -0.16994259 1.5393646 -0.60300136
000030 9a 75 61 bf 80 6d 22 3e 85 13 be bf 36 64 f7 3b
       -0.8807007 0.15862083 -1.4849707 0.007549788
000040 07 bc 11 c0 26 ca c3 bf 1b cb b0 bf a4 86 00 be
       -2.2771013 -1.5296066 -1.3811983 -0.12551361
000050 6c 9a c2 3e 15 6e f5 3f 4c 98 03 bf 53 44 78 40
       0.3800844 1.9174219 -0.5140426 3.8791702
000060 21 71 be be 05 e9 2f bf bd 3b 55 3f 35 4b e9 3e
       -0.37195686 -0.68714935 0.8329428 0.4556519
000070 39 04 da bf 0a 29 a6 3d
       -1.7032539 0.08113296

network.4.weight f4 [30, 30]
000000 0c 5e bc bd 38 85 8e bf 0d 54 9c 3f f0 86 33 bf
       -0.091976255 -1.1134405 1.221315 -0.70127773
000010 e5 2e b5 3f f1 fb 76 3e 17 c1 72 3e 92 5b 51 3f
       1.4154936 0.24119546 0.2370647 0.8178035
000020 27 29 4a 3d a4 ae 97 3e 72 4c 9d bd 07 55 33 bf
       0.049355652 0.29625428 -0.076805964 -0.70051616
000030 58 ce 1c 3e cc f2 05 bf 55 f9 70 be 43 6d 60 bf
       0.15313089 -0.52323604 -0.23532613 -0.8766672
000040 cf 9f 84 3e 6e 2d 35 3e 20 ed 67 bf 5c 80 86 3e
       0.25903174 0.17693111 -0.905962 0.26269805
000050 63 d0 86 3f fa cc 85 be fd 0c 69 3d 04 c7 ed bf
       1.0532345 -0.26132947 0.056897152 -1.857636
000060 72 85 58 bd b7 60 33 bf e6 5d ec be cf 4c b9 3e
       -0.05286164 -0.7006945 -0.4616539 0.36191413
000070 33 b9 ad 3e 70 74 55 3f eb b8 58 be 9c 87 4e bf
       0.33930358 0.83380795 -0.2116429 -0.80675673
000080 3b 98 ae 3f 3f 96 16 3f 4b 59 10 3f 10 00 84 be
       1.3640207 0.5882301 0.5638625 -0.25781298
000090 e9 85 b1 3e 94 6a 05 be 52 82 37 be dd 4e c6 bd
       0.34672478 -0.13028938 -0.17920807 -0.09683011
0000a0 4a c0 13 be 56 e6 06 3f e1 98 6a bf 75 70 21 bd
       -0.14428821 0.52695215 -0.91639525 -0.039413888
0000b0 83 ad 19 3f f8 12 78 be 1f 87 aa bc b1 71 de bd
       0.6003038 -0.24225986 -0.020816384 -0.10861529
0000c0 c9 32 88 be 76 70 34 be 6d af 18 bf e2 bc 8b 3f
       -0.26601246 -0.17621025 -0.5964268 1.0917017
0000d0 7c f9 05 40 0a 08 4a 3f ae e5 db 3e 8c a5 44 3e
       2.0933523 0.78918517 0.4294867 0.19203776
0000e0 21 9d 3e be 46 cf 1a 3f e9 78 66 be fd be a5 be
       -0.18614627 0.60472524 -0.22507061 -0.32372275
0000f0 08 0e b6 be cd 79 51 be c8 70 61 3f 87 0e 7d 3c
       -0.3555758 -0.2045662 0.88062716 0.015445358
000100 3b db c2 3e 74 03 15 3f f0 25 b0 3b d3 a6 7f be
       0.38057885 0.58208394 0.0053756163 -0.24965982
000110 22 bc e8 be e2 af b6 ba 27 76 44 3f ad 96 23 3e
       -0.45456034 -0.0013937915 0.76742786 0.15975447
000120 33 29 7e be 30 ea 91 3e 5b b8 b2 3e 2b 03 5b be
       -0.24820404 0.28498983 0.34906277 -0.21387927
000130 83 b2 14 bf 49 ec 72 bd 32 dd 40 3e 46 06 78 3f
       -0.5808489 -0.05930737 0.1883438 0.9688457
000140 e0 62 19 3e 54 59 5c be 7e a0 47 bf 6a 36 94 be
       0.14979124 -0.21518451 -0.77979267 -0.28947765
000150 1d 0d 22 3f 69 7c be 3e 7f 97 86 bd 64 02 73 be
       0.6330126 0.37204292 -0.06571864 -0.2373138
000160 9f 2f 94 be 70 0a 86 be fd 62 68 bf d4 be 8e 3e
       -0.28942582 -0.26179838 -0.90776044 0.27879965
000170 f2 5b 50 bf c9 35 69 3e cd 40 7b 3d a4 2c 39 3c
       -0.813903 0.22774424 0.061341096 0.011302147
000180 6b ae d1 3d 4a 40 64 3e a1 a2 c7 3c a9 35 91 3d
       0.10238346 0.2229015 0.02436954 0.07090313
000190 6e b1 65 3c 44 c0 97 3c ce 35 37 3f 02 41 f0 bd
       0.014019353 0.018524297 0.71566474 -0.11731149
0001a0 06 6f 30 bf a1 98 37 be db 84 02 3f 85 4a 09 3e
       -0.6891941 -0.17929317 0.5098397 0.13407333
0001b0 e7 dc 03 3f 37 f5 ed bd 19 fd 23 3e 8d d0 93 bf
       0.51508945 -0.11619037 0.16014518 -1.154802
0001c0 0c 37 6a bf 31 ee 4a 3f 18 b1 df 3e 9d 7f 81 3d
       -0.91490245 0.792697 0.436898 0.063231684
0001d0 51 6e 0d 3e 2a 1a 95 bf 30 65 55 bd 16 ba 27 3e
       0.13811614 -1.164861 -0.052098453 0.1637958
0001e0 7b cc c7 3d e4 f5 83 be e4 35 90 be 59 b4 9d 3f
       0.097557984 -0.25773537 -0.28166115 1.2320663
0001f0 6f 50 eb bc ec 85 30 3f e9 1d b5 3d fe 30 23 be
       -0.028724877 0.6895435 0.088435955 -0.15936658
000200 15 41 8a 3d 8d 2e 41 3e 3f 86 2e 3f fa 5b 51 be
       0.06750695 0.18865414 0.68173593 -0.20445243
000210 94 59 9e be e1 84 c1 be ce 7c 11 3e 11 b0 02 bf
       -0.30927718 -0.3779669 0.14207765 -0.51049906
000220 c9 17 87 be bf c5 b8 bd 89 39 e5 3d 4c f9 8c 3e
       -0.26385334 -0.09022092 0.111926146 0.27533948
000230 61 8f b7 3e 87 c7 0c be 1c 47 41 be c1 5c 0d 3e
       0.35851577 -0.13747989 -0.18874782 0.13804914
000240 9b 9e 9b 3e 23 0d b4 be a4 8e 19 3f 60 2d 8d 3e
       0.30394444 -0.35166273 0.5998328 0.2757368
000250 50 d0 03 3e 43 ba 24 3d 6f 10 69 bf 3f 47 d2 bc
       0.12872434 0.040216696 -0.910407 -0.025668738
000260 0b c0 55 bf 34 e7 a6 3d d7 e6 15 3e ff de d8 bd
       -0.8349616 0.08149567 0.1463884 -0.10589408
000270 03 35 f1 bd a3 e4 e1 be 0b cf 31 3e 78 57 0c 3e
       -0.11777689 -0.44119748 0.17364137 0.13705242
000280 09 68 59 be 9b 37 78 bd e4 12 29 bd 54 3c 39 be
       -0.21231093 -0.060599905 -0.04127778 -0.1808942
000290 54 f6 c9 3e fe a5 1d bd e0 a3 37 be c7 fb b7 3e
       0.39445746 -0.03848838 -0.17933607 0.35934278
0002a0 cb 82 d3 be 4b b7 f1 3d 2f 8e 35 3c d9 ce 2f be
       -0.41310725 0.118025385 0.0110812625 -0.1716875
0002b0 95 80 35 40 92 bd 22 be b7 73 94 3f af 9c d3 3d
       2.835973 -0.15892628 1.1597813 0.103326194
0002c0 da 04 3b be 20 d4 5b 3f 4e 96 94 bd 69 29 5b be
       -0.1826357 0.8587055 -0.07255231 -0.21402515
0002d0 f3 27 e9 3c 6b 02 da be d3 3d c2 bf 75 40 0c bf
       0.028461432 -0.4257997 -1.5175117 -0.54785854
0002e0 b1 0f 8b 3f 28 73 c7 be 9a d3 7d 3f dd 98 45 3e
       1.0864164 -0.38955045 0.99151003 0.19296594
0002f0 98 34 a8 3e 94 05 d7 3e 75 fa 12 bf 7b 5a 85 3e
       0.32852626 0.41996443 -0.5741342 0.26045594
000300 31 45 b2 3f 24 df 15 bf 32 8e c2 be 89 77 3f 3f
       1.3927366 -0.5854361 -0.3799911 0.7479177
000310 2a 73 5d bf 05 ca d5 3e ba 30 d5 be e5 fe 3a be
       -0.8650385 0.4175569 -0.41638738 -0.18261297
000320 03 87 26 be c9 51 71 bf d7 18 4a 40 54 a0 86 3f
       -0.1626244 -0.9426542 3.157766 1.0517678
000330 ba 5b 4c be 3b b5 38 3e a2 85 e9 3e b2 2c d0 b9
       -0.19956866 0.18037884 0.45609766 -0.00039706152
000340 e0 83 74 be ce 45 d9 be d6 73 40 be 23 4f 82 be
       -0.23878431 -0.4243607 -0.18794188 -0.25451002
000350 8f a6 72 3f 06 32 63 3f dd 07 07 bf 73 80 c6 be
       0.947854 0.88748205 -0.52746373 -0.38769874
000360 98 c5 1d 3f 4d 5b 24 3e 89 4f fc 3c 7a 17 85 3e
       0.6162963 0.16050453 0.030799644 0.25994474
000370 5a ca ad be 2d bb 15 3f 20 83 1b 3e 53 90 9b bd
       -0.33943444 0.5848873 0.15186739 -0.07595887
000380 a2 11 6d bc f7 98 fe 3e f0 e1 06 40 25 ab 97 be
       -0.014469536 0.49726078 2.1075401 -0.2962276
000390 a6 a3 30 3e 50 2b 02 3f 85 88 09 be 57 fc af be
       0.17249927 0.5084734 -0.13430984 -0.34372208
0003a0 a0 df a2 be ea 35 38 3e a7 ab ef bd a5 e4 8b be
       -0.31811237 0.17989317 -0.11702662 -0.2732288
0003b0 9c 80 dd be 98 75 f4 3a 0e 55 1c 3e ab b9 0e 3f
       -0.43262184 0.0018650768 0.15266821 0.55752057
0003c0 29 ea 88 3e a5 be 5f 3f e1 cb 83 be a9 ec d4 3d
       0.2674115 0.87400275 -0.25741485 0.10396702
0003d0 d8 46 ec be 68 66 b5 3e 1f 2c ee be 0d de 81 bc
       -0.461478 0.35429692 -0.46518037 -0.015852952
0003e0 06 9f 61 be 88 a1 07 be 3d c9 e0 3d 27 c7 46 3d
       -0.22033319 -0.13245213 0.10975883 0.04852977
0003f0 70 80 1f be 29 63 b7 be d1 d4 08 3f cb 60 d3 3e
       -0.15576339 -0.3581784 0.5344973 0.41284785

network.4.bias f4 [30]
000000 b2 23 bf bf a1 71 60 c0 87 51 41 3f b0 32 51 c0
       -1.4932768 -3.5069354 0.75515026 -3.2687187
000010 84 0c a5 bd 68 c8 33 40 b7 a8 12 3f 5a ab bb 3f
       -0.08059028 2.8091068 0.5728869 1.4661667
000020 38 8e b2 3d 0f ff 16 40 c7 cf d3 bd 43 a6 a5 3f
       0.08718532 2.3593175 -0.10342365 1.2941364
000030 b7 8b 06 3f fe 8c 63 40 75 14 d4 3e ef 61 82 3f
       0.5255694 3.5554805 0.41421857 1.0186137
000040 df bc 3b 3e 99 e3 c2 3f 2b 98 80 3f 08 fb 0f 3e
       0.18333767 1.5225707 1.0046438 0.14060605
000050 e4 9d 01 40 b3 a5 b0 3e c8 7f 62 bf ab 4b 19 40
       2.0252619 0.34501418 -0.8847623 2.3952434
000060 52 2a e1 3f 8c 72 c7 be 02 7d 07 3f 92 82 a1 3e
       1.759104 -0.3895458 0.5292512 0.3154493
000070 26 12 1c bf 2c d3 01 c0
       -0.6096519 -2.028514

network.6.weight f4 [30, 30]
000000 23 56 25 bf d1 04 81 3f ea dd 18 bf f8 6d 84 bf
       -0.6458456 1.0079595 -0.59713614 -1.034606
000010 3b 16 dd 3f 5d 3b ba be 45 ad 04 3f 30 ab 30 bf
       1.7272409 -0.36373416 0.5182689 -0.6901121
000020 58 95 9d bf d0 be 46 be 84 c1 67 3e ea dd 17 be
       -1.2311201 -0.19408727 0.22632414 -0.14830747
000030 13 c8 db 3e ea 2a bf 3d 3a df c2 be 16 be 28 bd
       0.42926082 0.09334357 -0.38060933 -0.041196905
000040 44 f6 77 bf 23 a5 24 bf 31 63 2b be c4 d9 dc be
       -0.96860147 -0.6431448 -0.16737057 -0.43134892
000050 fb 80 c7 be a7 c0 74 bf 8d f7 0c bf 4c cb 80 3f
       -0.38965592 -0.95606464 -0.5506523 1.0062041
000060 b9 a8 2a 3e 66 33 02 be 17 fc ef 3e ca 9e 82 bd
       0.16665925 -0.1271492 0.46872017 -0.06377943
000070 87 53 9c 3c f2 88 36 bf 02 f6 06 be 0f c8 c1 be
       0.019082798 -0.7130271 -0.13179782 -0.37847945
000080 89 ba 1a 3f 70 63 54 be 99 6c df 3e 3f 85 ad 3e
       0.6044088 -0.20741057 0.4363754 0.3389072
000090 dd c9 03 3f 41 52 41 3d c1 c6 8f be b7 48 c8 bc
       0.51479894 0.047197584 -0.28081325 -0.024448736
0000a0 26 b2 98 3e 68 36 28 3e 3e b6 59 3f ac 78 0d c0
       0.29823416 0.16427004 0.85043705 -2.2104902
0000b0 cb 5e 8e 3e 18 20 26 bf 99 ad 5d bd 12 62 25 be
       0.27806696 -0.6489272 -0.054120634 -0.16150692
0000c0 5d 89 c0 3f 01 e6 0c 3f 7b 1e 50 be 99 1c 06 bf
       1.504192 0.5503846 -0.20324127 -0.52387387
0000d0 39 b6 89 3e e8 fd 80 bd a7 19 aa be f3 b9 5f 3f
       0.26896837 -0.06298429 -0.33222696 0.8739311
0000e0 dc f4 5b 3d a4 42 29 3d 2f e0 4f be c6 5b 10 3e
       0.053700313 0.04132332 -0.20300363 0.14097509
0000f0 97 61 0e 3f ea 2e b1 be 72 0d 00 40 24 0a 83 3f
       0.5561766 -0.34606105 2.0008206 1.023747
000100 3f bf 96 3f 1c 3c c2 be 99 6d 0c 40 a6 2a 27 bf
       1.1777114 -0.37936485 2.1941893 -0.6529945
000110 24 d8 00 bf 48 8b 1c be 4b db 1a bf 94 6a 03 3f
       -0.50329804 -0.15287507 -0.60490865 0.513345
000120 68 08 27 be 62 a7 67 3e c2 3c 41 3f 20 fa e5 3e
       -0.163118 0.22622445 0.75483334 0.44917393
000130 f7 b1 de be 6d 5b a6 3f 8a 3c b4 be 2c 3d 4f be
       -0.4349515 1.2996651 -0.35202438 -0.20238179
000140 40 f5 e5 be 2d 8a 4a bf 2d 4f 5f 3f 30 54 e6 3e
       -0.44913673 -0.7911709 0.8723019 0.44986105
000150 12 32 5a 3f b6 68 2b c0 67 96 d5 3d e7 fc 12 3f
       0.8523265 -2.678266 0.104290776 0.5741715
000160 4e b0 99 be 4c 1b d6 3e 33 5a 7c 3f d7 63 1a 3f
       -0.30017322 0.418177 0.98575133 0.60308594
000170 6b 72 52 bf fa 54 14 bf 4e 28 a1 3f 7c 22 43 be
       -0.8220584 -0.57942164 1.2590425 -0.19056123
000180 59 a6 7f 3b c6 82 d1 3e 3d 1f d9 3c 19 75 03 3e
       0.0039009063 0.40920085 0.026504153 0.12837638
000190 26 0d db bd 25 8e 59 be 9f 10 66 3e c5 0c e2 bf
       -0.10695867 -0.2124563 0.22467278 -1.7660147
0001a0 77 69 c6 bf 4e fc a0 3e 6c 26 0e 3f 91 9e 12 be
       -1.5500935 0.31442493 0.5552738 -0.14318301
0001b0 f4 20 3f 3f b1 01 85 3f ed 05 36 3f 9d 1d 11 3e
       0.7465966 1.0391141 0.7110279 0.14171453
0001c0 0e 6a d2 bd 2e be 43 bc 25 f3 ad 3e 10 00 ef bf
       -0.102741346 -0.011947198 0.33974567 -1.8671894
0001d0 63 90 16 be de 25 d3 be af fe 90 3d 22 34 12 be
       -0.14703517 -0.41239828 0.07079827 -0.142777
0001e0 d3 13 56 3f d7 03 00 bf 11 49 2a be 0e f3 1b 3f
       0.83624 -0.5000586 -0.16629435 0.6091775
0001f0 f0 4b 84 3e fa f6 b6 3e 6e cf c1 3d 22 d1 79 bf
       0.25839186 0.35735303 0.09463392 -0.97584736
000200 5b f4 93 be 9a 71 80 3e cd 7d 0d 3f 99 f9 b9 be
       -0.28897366 0.2508667 0.5527008 -0.3632324
000210 8a d3 5b be 4e 9f e0 3c 40 b5 a1 bf 98 33 ba 3e
       -0.21467414 0.027419712 -1.2633438 0.36367488
000220 ff 39 51 3f 8b ac 96 bc 13 80 bf be 68 6e 1b be
       0.8172912 -0.018392822 -0.374024 -0.15178835
000230 d5 73 ee bc b7 1f a8 3f 78 f0 48 be 8c fb 2f 3e
       -0.029107967 1.3134679 -0.19622982 0.17185801
000240 02 9f c0 be 21 b2 98 bf 8e 6f 2e 3f f3 72 d1 3e
       -0.37621313 -1.1929361 0.6813897 0.40908012
000250 21 3f 91 bd 6c d3 c5 bc 50 80 cf 3d 2e e6 af 3d
       -0.07092119 -0.024148665 0.101318955 0.08588825
000260 dd 4b 18 bf 42 03 3b bf e9 36 da bf be a7 73 be
       -0.5949076 -0.73051846 -1.7048007 -0.23794457
000270 e7 0c 6c 3e f8 b9 c0 be 99 de 2b 3e 27 e6 32 bf
       0.23051797 -0.37641883 0.16784133 -0.69882435
000280 83 33 95 be 2f a9 04 3f 1b 9c 06 be 27 a5 02 3e
       -0.29140863 0.51820654 -0.13145487 0.12758313
000290 1d 05 ee bd c7 04 7a 3c 0f 67 83 bf e1 60 09 3e
       -0.11622069 0.015259928 -1.0265826 0.13415863
0002a0 7f da 2c 3f 63 a5 68 be c0 5f 9b 3e fe 30 20 3f
       0.675209 -0.2271934 0.3034649 0.62574756
0002b0 53 04 6c 3f 64 c6 4d be d4 b8 9c 3d 07 92 4c 3f
       0.921941 -0.20095211 0.07652441 0.7991032
0002c0 1d b1 a2 bf 5f f5 63 3f 37 29 58 bf 87 45 89 bf
       -1.2710301 0.8904628 -0.8443789 -1.0724343
0002d0 fb 0e b5 3e da 84 a2 3e 81 05 8e 3e 0c 7e c7 3e
       0.35362992 0.31741983 0.27738574 0.38963354
0002e0 56 7f c3 3e 99 b4 a1 bf e0 ec 56 3f 6b e0 26 3f
       0.38183087 -1.2633239 0.8395519 0.65186185
0002f0 ce e8 ed be da 1e 86 bf 65 03 52 3f 82 e7 37 3f
       -0.46466678 -1.0478165 0.8203643 0.7183763
000300 38 a7 15 bf c9 63 15 3e b8 00 5d 3e 82 02 91 3e
       -0.5845828 0.14588846 0.21582305 0.28322226
000310 48 63 4b be 33 c5 22 bf c7 fe 45 bf 16 3e 2b bf
       -0.19862092 -0.6358215 -0.77341884 -0.6689161
000320 3c 8d 86 3f 76 8f a5 bf 1f ae 35 3f 3c 55 89 bf
       1.0511851 -1.2934406 0.7096881 -1.0729136
000330 bb 65 44 bf 97 84 ba be 68 32 d2 be af 1c be 3f
       -0.7671773 -0.36429283 -0.41054082 1.4852504
000340 5f af 38 bf 7c fa 80 bf 9d ea c3 3f 24 08 a5 3f
       -0.72142595 -1.0076442 1.5305973 1.2893109
000350 d0 3a 29 3f 12 bd 46 3f 14 7d fd 3f 89 f3 0a 3e
       0.66105366 0.7763225 1.9803796 0.13569464
000360 e8 fc 0b bf cd d7 fa bf a2 44 9a bf 8a c9 6d 3e
       -0.5468278 -1.9597107 -1.2052195 0.23221412
000370 51 a9 bf 3e 84 b0 fe 3d df 5d 84 3e 88 cb 94 bf
       0.37433866 0.124360114 0.25852868 -1.1624613
000380 81 60 15 bf 6f c9 4a be 92 4d 50 3f 68 32 a1 be
       -0.5835038 -0.19803403 0.8136836 -0.3148377
000390 45 0d c2 3d ad 44 af bd 25 aa 56 bf a4 7b fd bf
       0.09475187 -0.08558021 -0.8385337 -1.9803357
0003a0 80 c4 22 3f 07 0e a5 3e 7a 33 6c 3f 06 4b d5 be
       0.63581085 0.32237265 0.92266047 -0.416588
0003b0 cc ad 25 bf 36 99 0f 3e 9b 5c 91 3f 39 69 c8 be
       -0.6471832 0.14023289 1.1356386 -0.3914278
0003c0 49 5d 0b 40 20 c0 4b bf c0 16 4f bd d5 61 6d bf
       2.1775687 -0.79590034 -0.050558805 -0.92727405
0003d0 02 e6 97 bf 40 0a 05 40 96 b4 5e 3f 82 40 97 3f
       -1.1867068 2.0787506 0.869943 1.1816561
0003e0 20 05 0d 40 cc de 92 3f 60 70 74 3f 84 9f 02 40
       2.2034378 1.1474242 0.9548397 2.040986
0003f0 4d 32 30 bf 42 b5 2b bf f1 0e d7 bf 59 22 33 3f
       -0.6882675 -0.6707345 -1.6801435 0.69974285

network.6.bias f4 [30]
000000 51 d3 fd bf fa 4d 0e bf 8e 16 dd 3e 88 db 36 40
       -1.9830114 -0.5558773 0.4318127 2.8571491
000010 fb 55 74 3f ed 44 da be 33 5d af 3f 03 50 88 c0
       0.95443696 -0.4263071 1.3700317 -4.259767
000020 5b 66 96 c0 a8 7c 42 c0 fc bd d9 3f 42 b9 b7 3f
       -4.6999946 -3.0388584 1.7011104 1.4353411
000030 e2 39 09 be a0 01 39 ba 0b 31 50 bf 86 0e 0d be
       -0.13400987 -0.0007057432 -0.81324834 -0.13775072
000040 7e 51 b7 3f 64 80 71 bf 71 d0 e8 3f 8f 79 ee 3d
       1.4321744 -0.94336534 1.8188611 0.11644279
000050 53 27 98 3f 36 19 c0 bf 1f f8 c0 be 38 a6 16 c0
       1.1887001 -1.5007694 -0.376893 -2.3538952
000060 e4 20 94 bf c0 d3 90 bd 70 fa c8 bf b1 dd ea 3f
       -1.1572537 -0.07071638 -1.5701427 1.8348905
000070 22 80 bc be eb 1a ec 3f
       -0.36816508 1.8445715

network.8.weight f4 [30, 30]
000000 20 d1 c7 3c ad bb 35 bd 3f 0e 42 3d d1 c4 52 bd
       0.02439171 -0.044368435 0.047376867 -0.05145723
000010 38 2b 5e bb 1e d5 90 3a 3d dc 27 3d 66 b6 d0 3c
       -0.0033900272 0.0011049842 0.04098152 0.0254776
000020 8e 13 f7 bb a2 40 3b bb af 12 8f 3d 80 8a c7 bb
       -0.007540173 -0.002857246 0.069859855 -0.0060895085
000030 e4 4f ed bc 5a 05 2e 3d 87 5a 94 bc 35 0e 02 3d
       -0.028968759 0.042485572 -0.018109573 0.03175183
000040 01 44 d9 3c 95 68 be bc 94 8c 3a bd f9 bc 6f 3d
       0.026521685 -0.023243228 -0.045544222 0.058529828
000050 d8 21 3e 3d de 02 79 bd fc 60 00 bd 5a 3a b3 3c
       0.046418995 -0.06079375 -0.03134249 0.02187841
000060 85 4a 00 3c b3 2d a5 bc 02 d8 06 bd e0 a6 bf 3c
       0.007830267 -0.020163393 -0.032920845 0.023395002
000070 42 b7 3b 3c c3 7b 75 3c 5c 77 10 bc 8a ab dc 3c
       0.011457266 0.01498312 -0.00881752 0.026937265
000080 e0 99 8e bc ce 94 5e 3d 84 9a 89 bd 4a 9d 86 bc
       -0.017407358 0.05434113 -0.06718925 -0.016432423
000090 6f 93 54 3c e1 05 22 bc 2c ff 5d bc ba 74 1a 3c
       0.012974604 -0.009889097 -0.013549607 0.009427244
0000a0 77 39 6f 3c 74 08 0b 3d 05 8c 56 bc e5 4f 71 3d
       0.014601103 0.03394361 -0.013094907 0.058914084
0000b0 f0 9e bd bc 84 8e 8e 3b 41 e5 04 bc 8b 0d 9c 3c
       -0.023147076 0.0043504853 -0.008111299 0.019049427
0000c0 68 88 66 bd 37 60 c2 bc 7a 24 52 3c 5c 58 f7 bc
       -0.05628243 -0.02372752 0.0128260795 -0.0301935
0000d0 e4 6d dd 3b f6 d7 bc ba 39 54 28 bc 07 5c a7 bd
       0.0067574847 -0.0014407623 -0.0102739865 -0.0817185
0000e0 1b 59 ab bc 72 0b 0a bd 90 3b dd b9 1d fa 10 3d
       -0.020916512 -0.03370232 -0.00042196782 0.035394777
0000f0 c2 ac e5 3c fb e9 1c bd 72 55 97 bc e9 a3 fb bc
       0.028036479 -0.03830908 -0.01847336 -0.030717807
000100 5b 25 d7 3c 5e 8d 0e bd a3 29 26 3d 67 aa a8 bd
       0.02626293 -0.034802787 0.04056705 -0.08235627
000110 22 66 21 3b d9 d5 86 bb 11 98 84 3c 7a 58 8a bc
       0.0024627526 -0.004114848 0.016185792 -0.016887892
000120 5c c3 1c bd fb 9d 96 bd 6c d1 67 3d fe ea 37 bd
       -0.038272247 -0.07354351 0.056596205 -0.04490184
000130 34 06 01 3d 4e 7a 89 bc 57 65 f8 bc 62 ad a6 3c
       0.031500056 -0.016781952 -0.03032176 0.020346347
000140 ea ed 5f bd b9 40 e9 3c bd 96 ea 3a 89 b2 e9 bb
       -0.054670252 0.028473245 0.0017897707 -0.0071318788
000150 8a 15 28 3d d2 7c 34 3d 77 43 ef bb ae 63 0a bb
       0.041036166 0.04406435 -0.0073017436 -0.0021116543
000160 04 71 34 bc b8 cb a0 bc ef ba 6d bd 5a ea 4e bf
       -0.011013273 -0.01962839 -0.058039602 -0.8082634
000170 1b 28 1d be 73 ef 11 3f 7f 09 1f bf 57 c4 d3 be
       -0.1534733 0.57005996 -0.62123865 -0.41360733
000180 36 ff 70 be 41 b3 53 3e f6 d2 17 3f 81 95 fd 3d
       -0.23534855 0.20673849 0.59306276 0.12382031
000190 ad 7f be be 8c 05 80 be e4 d3 16 bf 7f 93 00 bf
       -0.37206784 -0.25004232 -0.5891707 -0.5022506
0001a0 7a 0c 0d 3d 39 57 39 3f e4 ac 14 3f 89 00 9f bc
       0.034435727 0.72398716 0.5807631 -0.019409435
0001b0 32 81 1d 3e bd e3 e6 3e 13 51 0d 3e f4 9f 03 3e
       0.15381315 0.45095626 0.13800459 0.12853986
0001c0 80 90 51 3e 29 9a 1d 3e ce 11 b4 3d 35 cc 1f bf
       0.20465279 0.15390839 0.087924585 -0.6242097
0001d0 36 fc 82 3c 4a 17 36 3d 67 e3 0e bf 97 0d 97 3d
       0.015989404 0.044455804 -0.5581574 0.07375639
0001e0 d2 b8 13 3c 40 c4 0d 3d d0 e8 09 3c 89 86 97 bc
       0.009016233 0.034610987 0.008417323 -0.018496769
0001f0 d2 7e 4c bd c2 37 1e bc 41 03 ec bb 4e c2 36 3d
       -0.049925633 -0.009656848 -0.0072025363 0.044618897
000200 53 0c 15 bd 7c a9 41 3d 2a de 3b bd 68 a6 09 3d
       -0.036388706 0.047280774 -0.04586617 0.033605963
000210 24 ec d4 bc b2 94 ff bc 71 cd 21 3d ac 62 4e bd
       -0.025991507 -0.031198833 0.039502565 -0.05038707
000220 22 24 49 bd a1 2c 5b bd 28 4a d4 3b 44 e5 70 bd
       -0.049106725 -0.05350936 0.0064785667 -0.058812395
000230 54 97 90 3b 26 db 7a 3c 3c 95 fa bb d1 1a c7 3c
       0.004412571 0.015311038 -0.0076471847 0.02430478
000240 c5 4b 82 bd f8 5f 92 bc 67 96 a5 bc 72 3b 2c 3d
       -0.06362108 -0.017868027 -0.020213319 0.04204888
000250 fb 0f c2 3c 1e 60 15 39 78 a8 04 3d bf d9 7a bc
       0.02368926 0.00014245554 0.032387227 -0.015310704
000260 d5 3c 76 bd ba 3a 94 3c a6 d4 5b 3d 86 7f 26 3c
       -0.060116608 0.01809441 0.053669594 0.01016224
000270 cc f3 d4 3c 67 2f d0 3c 35 f2 cf bc f5 28 79 bc
       0.025995158 0.025413228 -0.025384048 -0.015207519
000280 25 4d da 3d 2f 42 6c 3d f4 b3 07 bd f5 38 d1 3c
       0.106592454 0.057680305 -0.0331306 0.025539855
000290 e5 f7 83 bd 6f 9c 53 bc f9 c6 6a bd 71 cf 13 bd
       -0.064437665 -0.012915715 -0.05731866 -0.036086503
0002a0 11 9c 7b 3c bc 89 3a bd a0 ff 50 3a 37 95 e8 3c
       0.015357033 -0.04554151 0.00079726614 0.028391464
0002b0 4e c5 76 3c 45 a4 e3 3b 84 2f 01 3d 87 b2 9f 3c
       0.01506169 0.0069470727 0.031539455 0.019494308
0002c0 c4 75 99 bc 15 b0 bb 3c ef 5a 06 bd 54 82 28 3d
       -0.018732913 0.02291111 -0.032801565 0.041139916
0002d0 5e 8b 9e be 77 e5 9d be aa b7 2a 3d ba e5 b6 3e
       -0.30965704 -0.3083913 0.041679062 0.35722142
0002e0 b3 a4 6d be 67 dc 27 3f c1 cb a9 3e 3a d5 9a bd
       -0.23207359 0.6557068 0.33163264 -0.07560201
0002f0 25 f6 b9 be fa ca 84 bd 1c 3f 1e bd b4 fd 2a 3e
       -0.36320606 -0.06484027 -0.038634405 0.16698343
000300 9c da 72 be 9c f0 10 3d a3 a7 95 3e 1e df aa 3e
       -0.23716205 0.035385713 0.2922946 0.3337335
000310 29 fa 95 3d be 01 7f 3e 5b c2 9f 3d 27 49 c1 bd
       0.07323105 0.24903008 0.07800742 -0.09437781
000320 10 42 20 3f e2 78 29 bf b0 b5 7d bd 05 db 1f be
       0.62600803 -0.6620008 -0.06194085 -0.15610893
000330 ca af e9 bd 38 b0 bc 3e 68 e4 54 be 6f 45 d8 3e
       -0.11410482 0.36853194 -0.20790255 0.42240474
000340 67 8f de bc 1f dd b2 3e 27 cb ce bc b5 b1 d5 3c
       -0.027167989 0.34934327 -0.025243355 0.026085714
000350 f5 f2 11 3c 20 d3 d3 b7 2a b7 c0 3c b7 41 9f 3b
       0.008908023 -2.5251473e-05 0.02352484 0.0048601287
000360 24 53 a0 bc 9e 7a f4 bc 55 b1 1e 3c 0f e1 a9 bc
       -0.019570895 -0.029843625 0.009685834 -0.0207372
000370 4d 77 4c bc f2 9a a5 bc 0b de 67 bc af 4f a4 3c
       -0.012479615 -0.020215485 -0.01415206 0.020057527
000380 e2 a6 58 3c f5 e4 18 3c 38 52 d1 3c 99 2a 10 3d
       0.013223382 0.009331931 0.0255519 0.035196874
000390 90 f4 66 3d 36 7b 0f 3d 3b 89 45 3c 2e 18 f8 bb
       0.056385577 0.035029612 0.012056644 -0.007571242
0003a0 b1 ad a4 bc 45 54 f5 bc c6 06 46 bc c1 2d 4a bd
       -0.020102354 -0.02994741 -0.012086576 -0.04936004
0003b0 e8 3e 9c bb f9 29 2c 3c ee fa c8 3c 1b e4 7c bd
       -0.004768241 0.010508054 0.024533715 -0.061740976
0003c0 36 56 b1 3d d3 47 c9 3b f4 d9 c6 bc 97 c7 33 bd
       0.086590216 0.0061425953 -0.02427385 -0.043891516
0003d0 28 d7 db bc 6c d9 3e 3d bd 50 01 3c ba 66 3a 3c
       -0.026835993 0.04659407 0.007892785 0.011377031
0003e0 46 dc ad 3d c0 4d 26 bc 21 02 1e bd 48 60 be bc
       0.084892794 -0.010150373 -0.03857625 -0.02323927
0003f0 63 44 44 3c e1 3c ba bc ed 46 0d 3d 5b ab 23 3d
       0.011979195 -0.022734107 0.03449147 0.03995834

network.8.bias f4 [30]
000000 a2 30 35 3c c9 2d 1b bd 12 48 2a bd 04 db d6 3e
       0.011058958 -0.03788546 -0.041572638 0.4196397
000010 71 2e 1f bc 22 fe 07 3c 88 7b fc be d3 f6 c1 3b
       -0.009715662 0.008300336 -0.49312997 0.0059193163
000020 7e 9f 3d 3c 3a b6 fd 3f c0 49 3f 3d 19 e4 b5 be
       0.01157367 1.9821236 0.046701193 -0.35525587
000030 4a fa d1 bb ad 09 80 3c 56 b0 a1 3d 4b a7 49 3d
       -0.0064080106 0.015629614 0.078949615 0.04923181
000040 fa 06 be 3c ff 78 45 3d 52 57 15 bd 2b c7 ef bc
       0.023196686 0.048211094 -0.03646023 -0.029269775
000050 42 ed d3 bb 11 d0 0c 3d 78 d7 49 bc fc 74 8e bb
       -0.0064674923 0.034378115 -0.012319438 -0.0043474417
000060 92 ba 44 bc 0a 15 46 bf f0 aa e5 be 94 58 a3 3e
       -0.012007372 -0.77375853 -0.44856977 0.31903517
000070 a4 3b 92 3f 33 fa 9b bf
       1.1424451 -1.218573

network.10.weight f4 [1, 30]
000000 1f 8c 3d 3c cc 6c 2b 3b 83 38 b4 3b 17 4f 17 3d
       0.011569052 0.0026157377 0.005499901 0.03694066
000010 7e f1 2b bc ef 08 38 bb 92 45 9f 3d 94 e7 83 bb
       -0.010494588 -0.0028081497 0.07776941 -0.004025409
000020 e9 a0 a1 3b c3 2f 06 3e 01 08 99 bb 21 75 bf bc
       0.004932512 0.13104157 -0.0046701436 -0.023371281
000030 9b 65 aa 3b 36 c1 b3 bb 3b 59 03 3b 10 8a ef 3b
       0.0052001006 -0.005485679 0.00200422 0.0073101595
000040 e8 79 81 bb 53 c4 25 bc f2 79 48 bb e0 fe d4 3b
       -0.0039513 -0.010117608 -0.0030590263 0.00650011
000050 7b 90 31 3c ec f3 a5 bb 5b df 50 3b 5c 3a c1 3b
       0.0108376695 -0.005064478 0.0031871411 0.0058968496
000060 94 99 ed b9 e8 1a 45 3d 66 e7 cc bd e4 2b 02 3e
       -0.00045318587 0.048121363 -0.10005073 0.12712055
000070 02 87 35 3e a0 8c 2a 3d
       0.17727283 0.041638017
