injector_surrogate/results/model4_4hidden_30nodes_1000epoch_0.01.pth (torch, 19713 bytes, 11 tensors)

network.0.weight f4 [30, 9]
-1.3299555 -0.02019981 -0.1445969 0.64122176 0.42347148 -0.0025944347 1.2562869 0.294092
0.25404015 0.105533816 -0.024195502 0.009535152 -0.12188991 -0.07171402 1.8186615 1.6880721
0.12072059 0.30301145 0.0015053267 -0.08117253 0.08711729 0.042230412 0.043196574 -0.31033614
-0.2635776 3.0972183 0.9216786 0.695387 0.53429204 -0.49801472 -0.79761094 -0.4591768
-0.17007145 -0.60433716 1.4586871 0.72421205 -0.8011763 0.5652798 0.6447173 -0.28675467
-0.15137558 0.19541216 0.07322085 0.8550353 0.6435113 0.2040052 -0.31364128 0.019097129
-0.31960067 -0.7103587 2.4150667 1.727044 0.0973528 -0.40449914 0.17715669 0.08138005
-0.1319571 0.12027558 0.32061148 0.36281866 0.0411524 -2.9023302 -3.4896412 -0.27736884
-1.48171 -1.0561844 0.06596327 -0.33684105 0.024815515 0.0051794522 0.83576006 0.3789828
-0.29541558 -0.36707902 -0.485467 0.13408656 -0.49102774 -1.0534027 -1.0018227 0.2048431
0.22843511 0.07133284 -0.7354055 0.65388626 -0.47117367 -0.32583717 -1.2860848 -1.378698
0.16029637 0.43467554 -0.0056748865 -0.04129606 0.048067108 -0.011748527 -0.089565136 0.5732146
4.338312 -0.3889363 -0.026465837 -0.056469228 -0.952457 -0.9739071 0.40741163 0.19167525
0.33867362 0.2917454 0.57259285 0.8135549 0.12049418 -0.20389484 0.06837508 1.6200491
3.2139716 0.52806586 0.91161674 -0.1516015 0.11813305 0.0039993096 0.0355947 -0.05810431
0.012508488 0.020855498 0.008957035 -0.012261106 -0.013662195 0.0121484045 0.08324399 -0.04044303
0.053475935 -0.030563392 0.33740896 1.0312697 2.7484937 2.3698266 1.1018636 -0.002310938
-0.1446488 0.00819122 0.09572285 0.021927038 -0.3895477 -0.08797986 1.0682896 7.645829
-0.4610149 0.40267643 -0.1289559 1.0026207 -0.49354702 0.14268367 -0.66744846 -1.8726171
-2.009007 -0.2779163 0.08257281 -0.06869057 -0.1653341 -0.35719886 3.7944117 3.1173327
-0.1545555 -0.27813584 -0.9212499 -0.9626182 -0.93186337 -0.4296705 0.13890228 -0.02199194
-0.11021834 -0.015281352 0.13391288 2.7228928 -0.28537545 0.5671272 0.5319932 -0.10015116
-0.102895185 -0.4316796 -0.5123454 -0.53586525 -0.42813408 0.3998036 -0.34201375 -1.7070357
-0.9044875 0.24312204 0.0933645 0.0463755 -0.042811625 0.22237457 -0.17858896 0.27512607
1.0794921 1.0189179 0.25623482 -0.6847564 0.21926637 -0.67451584 2.521784 -0.8346404
0.72170544 -0.92780715 -1.1607518 0.0067187115 -0.32590196 0.015083155 0.24968052 -0.28321064
-0.030797083 -0.121932626 0.7026196 0.17900293 0.6172393 -0.20698547 -0.683149 0.2967932
0.70652264 0.17071256 -0.023435872 0.3057345 0.78153664 0.0417176 -0.43904927 2.10852
1.8802688 0.17463335 0.08027762 0.0060940003 0.6278095 0.49432707 0.027612317 -0.12967321
1.6568751 1.4147874 0.24209473 0.22061685 -0.15121305 0.86432475 2.854711 -0.05735502
-0.11197806 -0.036388606 0.014442586 -3.619322 -0.49938086 0.19283082 -0.27420792 0.13685952
0.012110319 0.13850635 0.20558366 0.05638202 0.0018631909 -0.01755819 0.028595313 -0.008218286
00000000: fb3b aabf 127a a5bc 3611 14be 1c27 243f
00000010: 41d1 d83e 6407 2abb 02ce a03f 3a93 963e
00000020: 8d11 823e 1d22 d83d a535 c6bc 5439 1c3c
00000030: 6ba1 f9bd cdde 92bd e6c9 e83f bf12 d83f
00000040: 5b3c f73d 5124 9b3e 624e c53a c93d a6bd
00000050: 8d6a b23d ccf9 2c3d e4ee 303d 61e4 9ebe
00000060: a5f3 86be d338 4640 21f3 6b3f e204 323f
00000070: 5dc7 083f c9fb febe 3b30 4cbf 3919 ebbe
00000080: 3627 2ebe d7b5 1abf 42b6 ba3f f665 393f
00000090: e419 4dbf 2db6 103f 310c 253f 82d1 92be
000000a0: 3302 1bbe 201a 483e d0f4 953d 98e3 5a3f
000000b0: 28bd 243f bde6 503e 9795 a0be 9571 9c3c
000000c0: b3a2 a3be 11da 35bf 7490 1a40 c70f dd3f
000000d0: e860 c73d 831a cfbe 9068 353e 95aa a63d
000000e0: c31f 07be 0b53 f63d 3027 a43e 5ec3 b93e
000000f0: 6b8f 283d c7bf 39c0 4856 5fc0 4a03 8ebe
00000100: aca8 bdbf 0d31 87bf c017 873d 6e76 acbe
00000110: e849 cb3c 65b8 a93b 5ff4 553f 090a c23e
00000120: b640 97be c8f1 bbbe 218f f8be fd4d 093e
00000130: fd67 fbbe e6d5 86bf ba3b 80bf 64c2 513e
00000140: e5ea 693e f416 923d 8943 3cbf 1765 273f
00000150: ad3d f1be 21d4 a6be 6d9e a4bf 2d79 b0bf
00000160: bb24 243e cb8d de3e 66f4 b9bb 0f26 29bd
00000170: 04e2 443d e57c 40bc ed6d b7bd 31be 123f
00000180: 74d3 8a40 a922 c7be e2ce d8bc 474c 67bd
00000190: 39d4 73bf fa51 79bf 4298 d03e 8446 443e
000001a0: a166 ad3e a75f 953e 7295 123f 2245 503f
000001b0: a7c5 f63d cfc9 50be 3c08 8c3d c55d cf3f
000001c0: b6b1 4d40 532f 073f b75f 693f 6c3d 1bbe
000001d0: beef f13d a40c 833b c0cb 113d c9fe 6dbd
000001e0: 67f0 4c3c 26d9 aa3c 87c0 123c cee2 48bc
000001f0: 66d7 5fbc 1a0a 473c d37b aa3d 97a7 25bd
00000200: 9509 5b3d 1460 fabc dec0 ac3e a500 843f
00000210: 52e7 2f40 3dab 1740 de09 8d3f 1b73 17bb
00000220: d11e 14be 7834 063c 570a c43d 55a0 b33c
00000230: cc72 c7be c92e b4bd b7bd 883f a2aa f440
00000240: 250a ecbe 9b2b ce3e 040d 04be e055 803f
00000250: 32b2 fcbe ab1b 123e e7dd 2abf ebb1 efbf
00000260: 9293 00c0 0c4b 8ebe ef1b a93d a4ad 8cbd
00000270: 584d 29be c5e2 b6be a4d7 7240 6182 4740
00000280: cc43 1ebe d267 8ebe 09d7 6bbf 256e 76bf
00000290: 998e 6ebf c6fd dbbe 663c 0e3e 7128 b4bc
000002a0: 27ba e1bd a35e 7abc 7520 093e e043 2e40
000002b0: bb1c 92be 402f 113f b530 083f 0d1c cdbd
000002c0: b6ba d2bd 1c05 ddbe 1129 03bf 772e 09bf
000002d0: 6434 dbbe 0fb3 cc3e 6d1c afbe 2580 dabf
000002e0: 7e8c 67bf fcf4 783e e335 bf3d 3cf4 3d3d
000002f0: 3e5b 2fbd 29b6 633e 06e0 36be 53dd 8c3e
00000300: cc2c 8a3f e76b 823f 3631 833e 324c 2fbf
00000310: 5d87 603e 12ad 2cbf e964 2140 feaa 55bf
00000320: b0c1 383f c584 6dbf 8493 94bf a328 dc3b
00000330: 9fdc a6be 561f 773c 40ac 7f3e fc00 91be
00000340: 2a4a fcbc d0b7 f9bd e1de 333f 8b4c 373e
00000350: 6503 1e3f 00f4 53be dae2 2ebf 47f5 973e
00000360: abde 343f 46cf 2e3e 96fc bfbc 3b89 9c3e
00000370: c912 483f 13e0 2a3d 11cb e0be fef1 0640
00000380: a6ac f03f 16d3 323e 9868 a43d 2eb0 c73b
00000390: 20b8 203f 7018 fd3e 3a33 e23c 0ec9 04be
000003a0: 7c14 d43f c117 b53f aee7 773e 62e9 613e
000003b0: 98d7 1abe 6344 5d3f 96b3 3640 19ed 6abd
000003c0: c154 e5bd 380c 15bd 99a0 6c3c f9a2 67c0
000003d0: d9ae ffbe 7175 453e fb64 8cbe e724 0c3e
000003e0: 5c6a 463c 9cd4 0d3e 8684 523e d5f0 663d
000003f0: 5036 f43a 31d6 8fbc b840 ea3c fda5 06bc

network.0.bias f4 [30]
-0.84536314 -2.6881046 -1.9718302 -0.9506769 -1.1238111 -0.22202551 2.0698185 -0.049183745
1.099937 1.6792468 -3.596362 0.35937473 -2.562299 0.0070750923 -3.3268955 -2.064261
2.3460932 -2.8386996 2.004944 0.07252438 1.9425007 -0.6894494 -1.0835683 -0.33246344
-1.6274122 -2.5468361 -2.6102223 1.9705389 -0.001339852 -0.426321
00000000: b869 58bf e809 2cc0 ef64 fcbf 905f 73bf
00000010: 0bd9 8fbf a85a 63be e877 0440 e574 49bd
00000020: bcca 8c3f 8ff1 d63f cc2a 66c0 f7ff b73e
00000030: b5fc 23c0 2dd6 e73b dbeb 54c0 da1c 04c0
00000040: 6426 1640 41ad 35c0 0151 0040 aa87 943d
00000050: dda3 f83f c27f 30bf 5eb2 8abf a638 aabe
00000060: 0b4f d0bf 5dff 22c0 e20d 27c0 9e3a fc3f
00000070: f99d afba bf46 dabe

network.2.weight f4 [30, 30]
0.16818316 0.15309283 -0.47387 1.0112003 -0.036338076 -0.036651656 -0.009360653 0.029025061
0.4340106 -0.10663421 -0.11557866 -0.29099193 0.027607568 0.03545011 -0.27929336 -0.31380844
-0.9983081 0.16622004 0.2968731 0.5910477 2.4149227 -0.39533326 0.08231672 -0.17492062
-0.9839883 -0.49280226 0.10173135 -0.4366694 -0.0031830664 -0.68738866 -0.3275188 -1.9280335
-0.29823062 -0.2901268 -0.7346732 -0.10007439 -0.960847 -0.26458287 0.016358282 0.16800831
-0.45014352 -0.4490034 -0.18148954 -0.071251415 -0.59097457 -0.10243155 0.39977023 0.14939567
0.16266415 0.029442472 -0.27178723 0.105507135 0.07077374 0.82889855 0.13326019 -1.5708119
0.535938 0.17834125 0.058681764 -0.47573647 0.08850555 0.9460706 0.33789805 0.19303338
0.5795992 -0.14026542 -0.049206235 -0.016356418 0.04069804 0.29505306 0.16116999 0.40687642
-0.30153427 -0.062196657 0.1977817 0.6309245 0.11949244 -0.38659716 0.06518101 -0.16284588
-0.512723 -0.32387316 0.25822297 0.4735947 0.72566414 0.7703517 0.3347821 0.053533003
0.03387905 -0.24470656 0.03020853 0.2846537 0.043468107 -0.31321654 0.3443894 -0.03165364
-0.75936526 0.33132398 -0.24820863 0.14571758 -0.14137526 -0.06694758 -1.4550171 0.004360151
0.22643606 -0.21064189 0.33228058 -0.2520519 0.3534488 0.451912 0.1965412 -0.39047313
-0.3578486 -0.0013824683 -0.16076566 0.33190343 -0.96503353 0.15875626 -0.003657435 0.16757774
0.14645773 0.92368466 1.1256924 0.29533896 0.5088942 -0.2087034 -0.19535907 0.25138915
-0.10892874 -0.03276748 2.9849243 0.40517524 -0.80888873 -0.02378324 1.0602053 -0.24588212
-0.41352898 0.38747132 0.12952696 0.152172 -0.26084158 0.4289039 -0.38897032 -0.2604207
0.44559303 0.6318739 -0.047571395 0.0012572737 0.02950294 -0.013244543 -0.18839726 -0.31533933
-0.7413765 -0.08745357 -0.123458855 0.24485792 -0.07552857 -0.48009354 0.40611967 0.47992656
0.08006155 -0.47097865 -0.68777096 0.07517089 0.9709018 0.10417109 0.065972894 -0.040927045
0.502633 0.3114191 0.19517669 0.44830114 -0.55637664 0.14384025 -0.59493476 -0.61391324
-1.3887708 0.2772209 -0.053158686 -0.17517553 -0.0989102 1.1466231 0.080425695 -0.81432813
-0.52874154 -0.9051746 -0.08171106 -0.09645028 -0.16969648 -0.3904964 1.6032271 -0.17070629
0.60215735 -0.02033931 1.3736626 -0.15366435 0.29268128 0.0044310777 -0.00033501745 -0.15512136
-0.5057188 -0.38359058 0.09802978 0.5568846 0.19219187 -0.46303442 2.3270936 -0.17140232
0.0012752758 -0.14709489 -0.34554672 -0.6929779 -0.48832238 0.2176229 0.4894075 -1.5194191
0.31218785 0.24006382 0.34273902 0.2109492 0.65146697 0.015523314 -0.14819933 0.08068722
0.39517426 -0.045168567 -0.005486456 -1.7248462 0.2586787 -0.26583493 0.78537154 0.17214783
0.3607972 -0.32349673 0.23814139 -0.5490568 -0.98447174 -0.46328816 -0.061263844 -0.48849562
-1.433356 1.1583539 0.96341836 -0.78904366 -0.5890536 0.58053523 -0.1767241 0.54658747
-1.8524019 0.36765906 -1.2296618 -0.58145803 -2.9022832 -0.084850125 1.2562866 0.9366944
00000000: 3538 2c3e 5ec4 1c3e 179f f2be 036f 813f
00000010: 3cd7 14bd 0c20 16bd 6d5d 19bc f7c5 ed3c
00000020: a336 de3e 0963 dabd 81b4 ecbd e5fc 94be
00000030: 4429 e23c 2234 113d 8aff 8ebe 80ab a0be
00000040: 1f91 7fbf 9635 2a3e c0ff 973e e74e 173f
00000050: 188e 1a40 1f69 cabe ab95 a83d 641e 33be
00000060: a8e6 7bbf 9450 fcbe 8758 d03d 2293 dfbe
00000070: fe9a 50bb b4f8 2fbf 8bb0 a7be cdc9 f6bf
00000080: afb1 98be 808b 94be 8b13 3cbf cdf3 ccbd
00000090: 12fa 75bf 6877 87be ce01 863c 5f0a 2c3e
000000a0: 3679 e6be c6e3 e5be 65d8 39be 43ec 91bd
000000b0: 1c4a 17bf a2c7 d1bd afae cc3e 2efb 183e
000000c0: 6e91 263e 5731 f13c b227 8bbe 2014 d83d
000000d0: d3f1 903d b232 543f 5c75 083e 5d10 c9bf
000000e0: 3c33 093f 179f 363e 4a5c 703d bb93 f3be
000000f0: 6642 b53d af31 723f f900 ad3e 8baa 453e
00000100: 9d60 143f bda1 0fbe 7a8c 49bd e5fd 85bc
00000110: fdb2 263d 3211 973e bf09 253e 1b52 d03e
00000120: b362 9abe ecc1 7ebd 4987 4a3e 4584 213f
00000130: 74b8 f43d 10f0 c5be 9f7d 853d 12c1 26be
00000140: d141 03bf b4d2 a5be cd35 843e 017b f23e
00000150: 20c5 393f c535 453f 8f68 ab3e 6c45 5b3d
00000160: c2c4 0a3d 5b94 7abe e177 f73c 21be 913e
00000170: 9d0b 323d eb5d a0be cf53 b03e 3fa7 01bd
00000180: c365 42bf 4ca3 a93e 672a 7ebe fd36 153e
00000190: adc4 10be d01b 89bd 003e babf 99df 8e3b
000001a0: dbde 673e 82b2 57be ae20 aa3e f20c 81be
000001b0: 3ef7 b43e 0261 e73e 1942 493e 18ec c7be
000001c0: ef37 b7be f033 b5ba c19f 24be 3fef a93e
000001d0: 700c 77bf 0091 223e 94b1 6fbb 8099 2b3e
000001e0: 04f9 153e 9976 6c3f b016 903f ab36 973e
000001f0: e446 023f 58b6 55be 350c 48be 14b6 803e
00000200: 0816 dfbd 3137 06bd 0009 3f40 2173 cf3e
00000210: 5513 4fbf 12d5 c2bc cfb4 873f 86c8 7bbe
00000220: 12ba d3be a462 c63e b7a2 043e fad2 1b3e
00000230: 078d 85be 4b99 db3e 1e27 c7be dd55 85be
00000240: c524 e43e 7dc2 213f 39da 42bd 1bcb a43a
00000250: 26b0 f13c a4ff 58bc 36eb 40be 2874 a1be
00000260: daca 3dbf db1a b3bd ffd7 fcbd 09bc 7a3e
00000270: b9ae 9abd d2ce f5be ebee cf3e efb8 f53e
00000280: 4ff7 a33d 1d24 f1be c211 30bf 32f3 993d
00000290: 058d 783f a757 d53d cc1c 873d 1ea3 27bd
000002a0: 8eac 003f 5372 9f3e 66dc 473e ba87 e53e
000002b0: b36e 0ebf dc4a 133e a54d 18bf 6b29 1dbf
000002c0: 3ec3 b1bf e6ef 8d3e ecbc 59bd 3761 33be
000002d0: 6e91 cabd 8cc4 923f 3ab6 a43d cf77 50bf
000002e0: 9b5b 07bf 86b9 67bf 2158 a7bd b987 c5bd
000002f0: eac4 2dbe 25ef c7be 8c36 cd3f a1cd 2ebe
00000300: fc26 1a3f a09e a6bc 2dd4 af3f 305a 1dbe
00000310: 52da 953e 9332 913b 48a5 afb9 22d8 1ebe
00000320: ca76 01bf fc65 c4be d6c3 c83d fd8f 0e3f
00000330: f2cd 443e d912 edbe 1aef 1440 1784 2fbe
00000340: 2827 a73a 0ba0 16be 80eb b0be 0067 31bf
00000350: 6405 fabe 8ad8 5e3e 9f93 fa3e 537c c2bf
00000360: 16d7 9f3e 4ad3 753e 7d7b af3e 1103 583e
00000370: 8ac6 263f 7f55 7e3c 91c1 17be 573f a53d
00000380: 4854 ca3e ad02 39bd bbc7 b3bb c3c7 dcbf
00000390: 8971 843e 841b 88be 1c0e 493f 8547 303e
000003a0: 69ba b83e 5da1 a5be 56db 733e fd8e 0cbf
000003b0: 5706 7cbf 1b34 edbe ccef 7abd 191c fabe
000003c0: 3678 b7bf f144 943f 96a2 763f c4fe 49bf
000003d0: 37cc 16bf f59d 143f 2af7 34be 28ed 0b3f
000003e0: 811b edbf cf3d bc3e 8f65 9dbf 6fda 14bf
000003f0: 02bf 39c0 e7c5 adbd 00ce a03f 34cb 6f3f

network.2.bias f4 [30]
-1.4053946 -3.7789938 0.49028462 0.7004245 2.4856374 -0.50127804 3.9492347 2.1041028
0.32553554 0.33131376 1.6953607 -1.4978806 -0.15682425 -0.4508258 -1.3143016 -0.37948567
-2.7379658 -2.6074634 -1.987533 -0.8377284 1.3136749 1.9787307 -0.6312083 4.9698515
-0.11036072 -1.1163124 -0.14260489 0.70972025 -2.4941108 0.35415387
00000000: f8e3 b3bf 09db 71c0 9606 fb3e 054f 333f
00000010: af14 1f40 c253 00bf 43c0 7c40 9fa9 0640
00000020: 98ac a63e f5a1 a93e 9401 d93f 8dba bfbf
00000030: 8996 20be a4d2 e6be 093b a8bf f24b c2be
00000040: d53a 2fc0 aee0 26c0 7b67 febf 5e75 56bf
00000050: 8026 a83f 0c47 fd3f de96 21bf 0609 9f40
00000060: cd04 e2bd 53e3 8ebf 0407 12be 3ab0 353f
00000070: 839f 1fc0 a853 b53e

network.4.weight f4 [30, 30]
-0.31429514 -1.7798572 0.91936004 -0.5068368 1.6459231 0.17673539 0.31258747 0.7777394
-0.20653073 0.039773125 0.37576824 -0.4206288 0.23268501 0.47491336 -0.30419537 -0.77533025
0.13581164 0.30720454 -0.5487797 0.5879877 0.553908 -0.30148068 -0.12197562 -1.9413294
-0.12721567 -0.45985717 -0.5259599 0.9489909 0.6384939 0.5754116 -0.30843705 -0.8984367
0.80976 0.345394 0.2942029 -0.16768248 0.2911508 0.4558498 -0.2031966 0.07019215
-0.29042464 0.5586625 -1.5898787 0.16909055 0.7577823 -0.27787584 0.20310174 -0.08605459
0.045281723 -0.09253672 -0.5543572 1.5610441 2.7702549 0.41971582 0.26517978 0.072028995
-0.10611013 0.83935374 -0.25012743 -0.18204744 -0.14586738 -0.28134772 0.88339293 -0.113038376
0.43096036 0.6606936 -0.011985989 0.14407349 -0.25932112 0.14668708 0.5551736 0.15361746
-0.18236122 0.44089553 0.3700264 -0.2142986 -0.5079341 -0.22899242 0.2803488 0.91426563
-0.05201244 0.060601577 -0.5735378 -0.031391602 0.16792889 0.18449278 -0.029475324 -0.08082131
-0.30023447 -0.27921352 -0.8885021 0.18616693 -1.8652622 0.16288897 0.09212549 -0.043100264
0.22478487 0.17204575 0.13048945 0.21255375 -0.14306928 -0.11365291 0.6803445 -0.022892792
-0.7551273 -0.119291015 0.40417555 -0.05639132 0.37304747 -0.07669543 0.10157009 -0.94915533
-0.29563186 1.2774922 0.57124245 0.16825114 0.26238006 -1.218046 0.07207771 -0.11917421
0.16345955 -0.33756492 -0.280864 1.5296471 0.02796047 0.4241893 0.2129916 -0.3217823
0.17734796 0.28334624 0.5498084 -0.3570294 -0.2250935 -0.5185051 -0.29324597 -0.5842165
-0.2921376 -0.092190064 -0.07851897 0.23758692 0.24421655 0.0022203587 -0.21508421 0.64515734
0.115037456 -0.46283185 0.7632798 0.18456069 -0.12469382 0.005873672 -0.846149 -0.11045473
-0.83767456 0.019047419 0.1014907 -0.07206252 -0.16466852 -0.58189756 -0.012167636 0.2425582
-0.18239692 0.009090922 -0.09298587 -0.18664393 0.56135863 0.12534116 -0.24193943 0.37467018
-0.2500371 0.145681 -0.20027688 -0.16623577 3.6730852 -0.21540178 1.1353123 0.1526044
-0.21553527 0.84441847 0.052148953 -0.19785114 -0.082900666 -0.28018486 -3.0057547 -0.5940113
1.4419819 -0.9791169 0.39837185 1.032374 0.15582979 0.20685941 0.067561045 0.025004422
1.2566428 -0.3009341 0.778972 0.41979903 -0.64054936 0.5112033 -0.013930697 -0.0073579326
-0.259456 -0.7198541 4.2552314 1.5724734 -0.078255296 0.16579968 -0.06586332 -0.24752556
0.21341781 -0.2552096 -0.09123197 -0.2508652 0.6895384 1.1537747 -0.40038505 -0.7592282
0.7849999 0.380105 0.15666871 0.8464188 -0.39163283 0.5494428 0.35831597 -0.016388468
0.034458395 0.74365497 1.6890861 -0.851673 0.318984 0.5442446 -0.8438871 -0.24910337
-0.23471406 0.3913924 0.2123941 0.032026447 -0.28605738 -0.03206779 0.15513001 0.15706599
0.01410602 1.0725209 -0.0077331164 0.26492032 -0.26347318 0.8428198 -0.46042323 0.1396788
-0.41272604 -0.38572294 0.05468478 0.014031677 0.16856514 -0.47536978 0.78856546 0.39153272
00000000: 4beb a0be 5cd2 e3bf 2e5b 6b3f 0ec0 01bf
00000010: 9cad d23f 1ffa 343e 770b a03e ee19 473f
00000020: cb7c 53be 25e9 223d b264 c03e a85c d7be
00000030: fb44 6e3e d827 f33e 7fbf 9bbe 0b7c 46bf
00000040: 3512 0b3e ea49 9d3e d47c 0cbf 5d86 163f
00000050: eacc 0d3f ad5b 9abe 5bce f9bd 7b7d f8bf
00000060: d344 02be 6672 ebbe 4fa5 06bf 11f1 723f
00000070: 5674 233f 2d4e 133f 76eb 9dbe f3ff 65bf
00000080: 6e4c 4f3f 7bd7 b03e c3a1 963e f5b4 2bbe
00000090: b811 953e 2565 e93e c512 50be e7c0 8f3d
000000a0: 8ab2 94be 8104 0f3f 2581 cbbf 1326 2d3e
000000b0: 05fe 413f be45 8ebe e7f9 4f3e 643d b0bd
000000c0: 5479 393d e483 bdbd 5aea 0dbf 4bd0 c73f
000000d0: db4b 3140 fee4 d63e a5c5 873e f083 933d
000000e0: 4550 d9bd e3df 563f b410 80be a56a 3abe
000000f0: 425e 15be cf0c 90be 0a26 623f aa80 e7bd
00000100: d6a6 dc3e 3723 293f e260 44bc 0088 133e
00000110: bdc5 84be 2335 163e db1f 0e3f e54d 1d3e
00000120: e6bc 3abe 0fbd e13e 1a74 bd3e 1871 5bbe
00000130: f807 02bf fd7c 6abe e189 8f3e 500d 6a3f
00000140: ff0a 55bd 5c39 783d 60d3 12bf 7b94 00bd
00000150: 8df5 2b3e adeb 3c3e 3c76 f1bc a585 a5bd
00000160: 55b8 99be 13f5 8ebe e074 63bf 8ba2 3e3e
00000170: e9c0 eebf 5ecc 263e 4aac bc3d e789 30bd
00000180: 012e 663e c32c 303e 079f 053e b1a7 593e
00000190: c180 12be dbc2 e8bd 0f2b 2e3f aa89 bbbc
000001a0: 0650 41bf d94e f4bd 19f0 ce3e 96fa 66bd
000001b0: 1400 bf3e 7e12 9dbd fb03 d03d d8fb 72bf
000001c0: 0f5d 97be dd84 a33f f23c 123f 074a 2c3e
000001d0: ae56 863e eee8 9bbf 7a9d 933d 9c11 f4bd
000001e0: f161 273e 4fd5 acbe 68cd 8fbe 7acb c33f
000001f0: 5b0d e53c 572f d93e 781a 5a3e a6c0 a4be
00000200: b49a 353e c212 913e 3ec0 0c3f 8fcc b6be
00000210: e97e 66be c0bc 04bf 5624 96be 368f 15bf
00000220: 0f93 95be 25ce bcbd 8ece a0bd fc49 733e
00000230: e713 7a3e 7083 113b 093f 5cbe 0829 253f
00000240: c298 eb3d 4cf8 ecbe 4e66 433f 7afd 3c3e
00000250: 795f ffbd ef77 c03b 399d 58bf 1736 e2bd
00000260: d771 56bf 5509 9c3c 5bda cf3d 8495 93bd
00000270: dd9e 28be 3df7 14bf c45a 47bc 2d61 783e
00000280: 42c6 3abe 17f2 143c 606f bebd 961f 3fbe
00000290: 33b5 0f3f 6f59 003e f8be 77be c5d4 bf3e
000002a0: dd04 80be 662d 153e 6215 4dbe b639 2abe
000002b0: d413 6b40 4992 5cbe ea51 913f 5444 1c3e
000002c0: 47b5 5cbe cf2b 583f 249a 553d 7d99 4abe
000002d0: d3c7 a9bd 6474 8fbe 495e 40c0 2011 18bf
000002e0: dd92 b83f 68a7 7abf 65f7 cb3e d524 843f
000002f0: d891 1f3e f4d2 533e 725d 8a3d 13d6 cc3c
00000300: acd9 a03f 0914 9abe b66a 473f e6ef d63e
00000310: 0bfb 23bf 38de 023f 943d 64bc d01a f1bb
00000320: 6bd7 84be 5c48 38bf db2a 8840 cf46 c93f
00000330: 5044 a0bd 64c7 293e 59e3 86bd 5777 7dbe
00000340: 338a 5a3e d5aa 82be d4d7 babd 6771 80be
00000350: 9785 303f e4ae 933f 45ff ccbe c85c 42bf
00000360: c1f5 483f 1f9d c23e c36d 203e e7ae 583f
00000370: 1984 c8be 49a8 0c3f 3175 b73e 1c41 86bc
00000380: 3f24 0d3d 2c60 3e3f f933 d83f 3e07 5abf
00000390: df51 a33e 9d53 0b3f fc08 58bf f414 7fbe
000003a0: e258 70be 9664 c83e d77d 593e 2a2e 033d
000003b0: 1d76 92be 8459 03bd 67da 1e3e e8d5 203e
000003c0: f01c 673c 5d48 893f 1566 fdbb a3a3 873e
000003d0: f5e5 86be 0ac3 573f 98bc ebbe f607 0f3e
000003e0: d450 d3be 7a7d c5be 26fd 5f3d 1ee5 653c
000003f0: 579c 2c3e ab63 f3be 6ddf 493f fa76 c83e

network.4.bias f4 [30]
-2.0963776 -3.446093 0.26403302 -4.043333 -0.94826555 4.3482175 0.95224315 1.4451485
-0.72974956 2.3561041 -0.7595058 3.59174 -0.38182643 6.3399935 -0.04594193 0.5336356
-0.16619596 2.3273273 1.2276134 0.022477739 2.4094918 0.53036064 -0.60265446 2.6728737
2.1287744 0.26078022 0.8117855 1.0045646 -0.33386427 -2.3656275
00000000: 0d2b 06c0 ca8c 5cc0 562f 873e fc62 81c0
00000010: 88c1 72bf 9924 8b40 35c6 733f a0fa b83f
00000020: ded0 3abf 69ca 1640 f96e 42bf 11df 6540
00000030: c17e c3be 3ae1 ca40 9b2d 3cbd 589c 083f
00000040: 462f 2abe eef2 1440 7022 9d3f 3c23 b83c
00000050: 1d35 1a40 b7c5 073f 9047 1abf 5d10 2b40
00000060: d73d 0840 fc84 853e 2dd1 4f3f 9395 803f
00000070: 42f0 aabe 7166 17c0

network.6.weight f4 [30, 30]
-1.5037043 2.2113698 -1.4009463 -0.6641361 2.715646 0.99974835 0.979521 -1.4088593
-0.9980495 -0.6249992 -0.38433787 0.16775784 0.20891267 0.9219061 -2.43701 -0.61637884
-0.26447356 -0.35191786 0.22744174 0.14824726 -0.2783318 0.11080735 -1.0920215 2.1640425
0.33913818 0.8341168 0.90868556 0.6894408 0.0059053595 -0.008493898 0.0802901 0.101059616
0.38818398 -0.47654757 0.50465566 0.13375866 0.46872807 -0.11748065 -0.6932226 -0.084635705
0.27484706 -0.07439863 0.8314537 -2.2979443 0.33647484 -0.72928566 -0.033660598 -0.15205806
1.1305159 0.76509094 0.13857162 -0.52268803 0.16208756 -0.058596045 -0.3522803 0.9165361
-0.03719094 0.089779146 -0.13010222 0.081615865 0.5790441 0.07404253 1.8859615 1.5308794
1.4086396 0.1821534 2.0678775 -0.569559 -0.23925579 -0.29113907 -0.5603696 0.31102365
-0.6220012 0.65133864 0.79043084 0.3296728 -0.54238397 0.6800401 -0.18904814 -0.22769809
-0.5460436 0.08553178 0.92528826 0.3451708 0.49541026 -3.018279 -0.30893052 0.8334892
-0.15030967 0.31150764 1.0828732 0.65269315 -0.9529224 -0.6502837 0.120229684 -0.18992482
0.075678915 0.5044066 -0.05250494 0.23949409 -0.11932759 -0.16401352 0.83551604 -2.0740538
-0.78112245 0.8936586 0.610153 -0.18286063 0.75637096 1.2223283 0.4813189 -0.32628042
-0.052415013 0.0771827 0.32752594 -1.9685687 -0.47798476 -0.0023190537 -0.039924193 -0.0039812485
1.4161466 -0.41949415 0.032326147 0.8502538 0.0017427283 0.04455186 0.13514417 -1.2294044
0.24682775 0.06431303 0.7195553 -0.6387391 0.07729036 -0.40525466 -2.138454 1.2246665
0.73461425 -0.08246916 -1.0618365 -0.5833914 -0.28943864 1.1519004 0.026413772 0.12917809
-0.43128163 -1.164154 0.7672273 0.46475634 0.43601662 -0.22899395 0.31035462 -0.4022405
-0.88040274 -0.3261807 -1.8909447 0.8578493 -0.051436372 -0.0933003 0.43251765 -1.1728863
-0.36811572 1.8991841 -0.5477367 0.115988165 -0.46986324 0.1997842 -1.9773828 -0.26528195
0.079457894 0.41025007 0.35677204 0.7777022 1.2997762 0.29573166 -0.37116003 0.87022984
-0.68843925 1.9258634 -1.0804924 -0.64230335 0.13709097 0.015584587 0.8861825 0.74942935
-0.96562886 -0.9436714 0.74301267 0.5669368 -0.7769519 -0.8600586 0.51084083 0.5424987
-0.82439417 0.18241034 0.024728952 0.21326874 -0.2595873 -0.13000655 -0.38171875 -0.4342672
0.72777975 -1.3955362 -0.013479365 -0.9986865 -0.5391994 -0.26119092 -0.84020907 1.6168104
-0.31965148 -1.0365574 0.6842209 0.45484272 0.46755767 2.397567 3.5898888 1.1445794
-0.5718179 -1.7225022 -1.3398751 0.06708544 -0.33836088 0.92578924 1.6530097 -0.551896
0.04218899 0.5053344 2.2176552 -0.40449044 0.76467794 -0.27796125 -0.65300983 -0.8738094
0.76432467 -0.7099002 1.8280313 -0.71829057 -0.94749117 -0.009509354 1.153977 -0.21104178
1.9401486 -0.9911819 0.25190088 -0.13301866 -0.25651404 1.5502009 0.94284034 0.54130065
2.4673786 1.8042455 0.77634895 2.5178878 -0.490295 -0.9080887 -1.3803703 0.2705422
00000000: 6279 c0bf 1587 0d40 3552 b3bf d304 2abf
00000010: 25cd 2d40 82ef 7f3f e3c1 7a3f 8055 b4bf
00000020: 2c80 7fbf f3ff 1fbf efc7 c4be b6c8 2b3e
00000030: 34ed 553e 0a02 6c3f f9f7 1bc0 01cb 1dbf
00000040: 1469 87be 942e b4be 7de6 683e 21ce 173e
00000050: 8181 8ebe f7ee e23d 5cc7 8bbf ac7f 0a40
00000060: 85a3 ad3e ae88 553f 9e9f 683f 317f 303f
00000070: bf81 c13b fe29 0bbc 236f a43d 58f8 ce3d
00000080: 0dc0 c63e 0bfe f3be 1d31 013f 08f8 083e
00000090: 20fd ef3e b299 f0bd 0977 31bf 7c55 adbd
000000a0: c1b8 8c3e 4f5e 98bd 26da 543f 8511 13c0
000000b0: 6e46 ac3e 77b2 3abf b2df 09bd 1cb5 1bbe
000000c0: bfb4 903f 00dd 433f b8e5 0d3e e2ce 05bf
000000d0: 48fa 253e 6802 70bd 155e b4be 1ca2 6a3f
000000e0: 8755 18bd 21de b73d 8439 05be 3826 a73d
000000f0: 3c3c 143f 9ca3 973d 3067 f13f dbf3 c33f
00000100: 4d4e b43f 6c86 3a3e 1b58 0440 9ece 11bf
00000110: 78ff 74be 2e10 95be 6274 0fbf 7e3e 9f3e
00000120: 783b 1fbf 21be 263f ad59 4a3f e0ca a83e
00000130: add9 0abf 1c17 2e3f d695 41be b029 69be
00000140: 83c9 0bbf 492b af3d b1df 6c3f 3aba b03e
00000150: 6aa6 fd3e 7c2b 41c0 242c 9ebe 8c5f 553f
00000160: c7ea 19be ee7d 9f3e 979b 8a3f e616 273f
00000170: b9f2 73bf fe78 26bf fb3a f63d a77b 42be
00000180: 8cfd 9a3d ca20 013f 6c0f 57bd f03d 753e
00000190: 0662 f4bd 29f3 27be 61e4 553f 4cbd 04c0
000001a0: a4f7 47bf cfc6 643f fd32 1c3f d13f 3bbe
000001b0: 87a1 413f 4175 9c3f 6e6f f63e 3a0e a7be
000001c0: 20b1 56bd f711 9e3d 7bb1 a73e 0ffa fbbf
000001d0: 6bba f4be 44fb 17bb 8d87 23bd 2275 82bb
000001e0: 4b44 b53f f0c7 d6be 6c68 043d 3caa 593f
000001f0: 426c e43a 037c 363d 3c63 0a3e 205d 9dbf
00000200: 6ac0 7c3e 8db6 833d c734 383f 6884 23bf
00000210: 694a 9e3d 8a7d cfbe 6edc 08c0 dfc1 9c3f
00000220: ae0f 3c3f 97e5 a8bd 42ea 87bf 2459 15bf
00000230: 4d31 94be 7971 933f b261 d83c 4347 043e
00000240: f2d0 dcbe 0003 95bf 0269 443f 8bf4 ed3e
00000250: 923d df3e 647d 6abe cde6 9e3e 78f2 cdbe
00000260: 1362 61bf 2801 a7be 7a0a f2bf 039c 5b3f
00000270: f2ae 52bd 3a14 bfbd f472 dd3e 2321 96bf
00000280: aa79 bcbe 7718 f33f 7938 0cbf 348b ed3d
00000290: ea91 f0be 3b94 4c3e e11a fdbf 09d3 87be
000002a0: d2ba a23d 4c0c d23e d3aa b63e 7e17 473f
000002b0: 115f a63f 246a 973e b008 bebe 62c7 5e3f
000002c0: 8e3d 30bf b182 f63f 934d 8abf fe6d 24bf
000002d0: 9361 0c3e 7f56 7f3c dbdc 623f 9ada 3f3f
000002e0: 7433 77bf 7394 71bf 1436 3e3f c522 113f
000002f0: 52e6 46bf cd2c 5cbf 77c6 023f 32e1 0a3f
00000300: 7f0b 53bf c7c9 3a3e 5f94 ca3c 1f63 5a3e
00000310: a0e8 84be 7020 05be a470 c3be 4558 debe
00000320: c64f 3a3f eea0 b2bf 8ed8 5cbc eba9 7fbf
00000330: f908 0abf d1ba 85be f117 57bf a5f3 ce3f
00000340: 5ca9 a3be eaad 84bf 1a29 2f3f 25e1 e83e
00000350: b863 ef3e bd71 1940 bdc0 6540 9481 923f
00000360: a862 12bf f47a dcbf 0781 abbf 1764 893d
00000370: a33d adbe 8600 6d3f d295 d33f 0e49 0dbf
00000380: 5dce 2c3d 985d 013f 10ee 0d40 5f19 cfbe
00000390: efc1 433f f050 8ebe a72b 27bf f9b1 5fbf
000003a0: c8aa 433f 05bc 35bf eefc e93f e4e1 37bf
000003b0: c88e 72bf 1fcd 1bbc 85b5 933f 561b 58be
000003c0: ca56 f83f 19be 7dbf 27f9 803e 0b36 08be
000003d0: cf55 83be fc6c c63f fc5d 713f ae92 0a3f
000003e0: 88e9 1d40 84f1 e63f cebe 463f 1325 2140
000003f0: f207 fbbe 8078 68bf f9af b0bf 8284 8a3e

network.6.bias f4 [30]
-2.684944 -0.5144707 1.8410889 4.2612915 2.7577064 -0.8980361 1.0651284 -5.71663
-4.8378177 -4.160721 3.8366556 1.5026126 -0.89739525 -0.07350822 0.24589272 -0.33605918
1.5513986 -1.273856 3.7142677 0.3286877 0.7010914 -1.676883 0.56104237 -2.1135516
-2.33893 0.22572473 -1.5379136 1.4202957 -0.9618824 3.091585
00000000: 1fd6 2bc0 5ab4 03bf cda8 eb3f 805c 8840
00000010: 437e 3040 b2e5 65bf 2156 883f a2ee b6c0
00000020: 67cf 9ac0 a024 85c0 c48b 7540 9c55 c03f
00000030: b2bb 65bf 7a8b 96bd 4dcb 7b3e f30f acbe
00000040: 3b94 c63f b70d a3bf 90b6 6d40 c149 a83e
00000050: ba7a 333f 1aa4 d6bf 79a0 0f3f 6e44 07c0
00000060: 07b1 15c0 6224 673e 5ada c4bf 40cc b53f
00000070: ed3d 76bf 87dc 4540

network.8.weight f4 [30, 30]
-0.06034011 -0.013207421 0.006000591 0.062371116 0.040500883 0.031188635 0.009536359 0.011889429
-0.03749208 0.022414258 -0.056124073 0.033277538 0.017906973 0.02788759 -0.01459161 0.0147655085
0.01652409 0.004454632 -0.0059573883 -0.012858556 -0.046710916 -0.07119911 0.048022628 0.020580618
0.07922364 0.022946699 0.07363751 0.04205804 0.06246598 0.03442337 -0.0038421964 0.012378852
-0.05000922 0.025431631 0.028181423 0.0058318437 0.04305292 -0.019553587 -0.025099117 0.0035176706
-0.1162055 -0.03621714 0.019741165 0.003593001 0.00582746 -0.07374053 0.014573748 -0.010230389
0.07390043 0.034748647 -0.03484933 -0.023813702 -0.039510004 -0.008420994 0.023867877 0.011190251
0.028010465 0.0485929 0.024252944 -0.0171711 -0.024918731 0.0045068725 -0.05528136 0.010000293
-0.020186985 -0.008515214 -0.06469517 -0.03587681 0.008538361 -0.021779275 0.013017235 0.0065710703
0.010431795 -0.017876536 -0.017207935 0.04121306 -0.039297093 -0.035135325 -0.004899017 -0.02238979
0.07118562 0.021149373 -0.025190555 0.010625765 0.008896161 0.022760872 -0.034288462 0.023084596
0.017349781 -0.011472129 -0.0007789367 -0.72918767 0.21887049 0.43927574 -0.2953781 -0.329999
-0.13756196 0.005185048 0.7375195 -0.14897472 -0.17356953 -0.28220752 -0.6027893 -0.1767112
0.15249044 1.133536 0.3397039 0.11149286 -0.012688427 0.30209592 0.3730202 -0.066428974
0.44864193 0.123964824 -0.121837474 -0.7656763 -0.01586127 0.016013525 -0.6831246 -0.045019645
-0.0084837815 0.0025052247 -0.026685765 0.0068562236 0.022174554 -0.014405081 -0.028497703 -0.024308257
0.06390157 -0.00109167 0.033387728 0.014567358 -0.024842707 -0.0051521 0.00412292 0.036516145
0.053213146 0.021106118 -0.026811698 0.06252005 -0.028394807 -0.024414105 -0.047173806 -0.03303538
-0.022737414 0.017066445 -0.0058121094 0.007466733 -0.041613646 0.057259735 0.032267373 0.035628323
0.054775566 -0.038898274 -0.046871487 0.02576852 0.061101396 0.061064925 0.012064704 -0.012538983
0.0006106064 -0.05840383 -0.038757086 -0.003458608 -0.01630387 0.0030294931 0.012712723 0.019403053
-0.012374501 -0.020945698 -0.0038007703 0.052924637 0.0064419745 0.057726182 -0.006025395 0.032997444
0.03267869 -0.0012242615 0.05958449 -0.049501944 -0.17845462 -0.31747285 0.2037044 0.43666813
-0.24697022 0.3473398 0.35063732 -0.08460993 -0.25895092 -0.2708602 0.14259347 0.10454222
-0.30856013 0.19304033 0.27758852 0.48931575 0.19345996 0.2962606 0.15874906 -0.24039403
1.0193303 -0.6235226 0.078451835 -0.1356406 0.01834058 0.45469934 -0.2121831 0.14943184
-0.09843753 0.3100926 0.03130473 -0.007915054 0.041371744 -0.031676233 -0.0693581 -0.036919422
0.019154312 0.020255236 -0.0039858962 -0.04397267 0.07987466 -0.025462618 -0.0031800198 -0.00029239058
-0.0067048375 0.00029493147 0.00015220302 0.030406343 -0.022310108 -0.029992953 -0.036580734 0.030207697
0.061447054 -0.013278651 -0.04192253 -0.00942052 0.0051566707 0.03207599 -0.03536787 -0.009553512
0.02863186 0.025330396 0.021878228 -0.03605808 -0.021513369 0.018806515 -0.024302216 0.0028501172
0.058942724 -0.0140716955 -0.01932418 -0.022488773 0.00024979687 0.045577765 -0.031185064 -0.041636012
00000000: 3127 77bd f063 58bc 9ba0 c43b db78 7f3d
00000010: 41e4 253d 4f7f ff3c 643e 1c3c e1cb 423c
00000020: 4c91 19bd 1b9e b73c 5be2 65bd 074e 083d
00000030: a5b1 923c 8474 e43c a611 6fbc 08eb 713c
00000040: 875d 873c 29f8 913b 3236 c3bb b1ac 52bc
00000050: f253 3fbd d7d0 91bd 60b3 443d af98 a83c
00000060: 0140 a23d b7fa bb3c 43cf 963d 0d45 2c3d
00000070: 54dc 7f3d 85ff 0c3d 5ccd 7bbb abd0 4a3c
00000080: 78d6 4cbd ff55 d03c badc e63c 0d19 bf3b
00000090: 4258 303d d82e a0bc aa9c cdbc b888 663b
000000a0: 26fd edbd 6c58 14bd 39b8 a13c 8e78 6b3b
000000b0: 47f4 be3b 4605 97bd bbc6 6e3c 5d9d 27bc
000000c0: 1c59 973d 9954 0e3d 2cbe 0ebd f414 c3bc
000000d0: 3ed5 21bd 35f8 09bc 9186 c33c 5157 373c
000000e0: 3476 e53c 5909 473d 1cae c63c 68aa 8cbc
000000f0: 5e22 ccbc 63ae 933b b56e 62bd 45d8 233c
00000100: 2d5f a5bc 6583 0bbc e77e 84bd 90f3 12bd
00000110: 7be4 0b3c 736a b2bc 3e46 553c 2252 d73b
00000120: 1fea 2a3c d071 92bc a8f7 8cbc 07cf 283d
00000130: fdf5 20bd 0fea 0fbd ef87 a0bb cb6a b7bc
00000140: c4c9 913d 7341 ad3c 6c5c cebc b017 2e3c
00000150: 34c1 113c 0275 ba3c 0f72 0cbd e81b bd3c
00000160: 2121 8e3c 99f5 3bbc 8f31 4cba 0bac 3abf
00000170: 961f 603e c0e8 e03e cc3b 97be a1f5 a8be
00000180: 0bdd 0cbe 56e7 a93b 14ce 3c3f d48c 18be
00000190: 36bc 31be 817d 90be 6650 1abf c8f3 34be
000001a0: 7426 1c3e b517 913f abed ad3e 5e56 e43d
000001b0: 1fe3 4fbc 51ac 9a3e 81fc be3e ea0b 88bd
000001c0: 65b4 e53e 45e1 fd3d ed85 f9bd 5d03 44bf
000001d0: 7eef 81bc cc2e 833c 41e1 2ebf 8566 38bd
000001e0: 8fff 0abc b22e 243b 1b9c dabc 2caa e03b
000001f0: 69a7 b53c 4a03 6cbc 0474 e9bc 1c22 c7bc
00000200: d4de 823d 5e16 8fba 92c1 083d eeab 6e3c
00000210: ef82 cbbc f3d2 a8bb 8f19 873b f491 153d
00000220: 07f6 593d bde6 ac3c 35a4 dbbc 830a 803d
00000230: 3a9c e8bc 1700 c8bc 5239 41bd 1b50 07bd
00000240: d043 babc eece 8b3c 8273 bebb 7fab f43b
00000250: 1273 2abd 2f89 6a3d cb2a 043d 01ef 113d
00000260: 585c 603d cc53 1fbd 51fc 3fbd 8118 d33c
00000270: 7545 7a3d 371f 7a3d 09ab 453c 4e70 4dbc
00000280: 1a11 203a db38 6fbd c0bf 1ebd d0a9 62bb
00000290: b28f 85bc 768a 463b 0649 503c 27f3 9e3c
000002a0: 6bbe 4abc 5096 abbc 5816 79bb 81c7 583d
000002b0: 3317 d33b 4a72 6c3d ad70 c5bb 5428 073d
000002c0: 17da 053d 6677 a0ba de0e 743d 8dc2 4abd
000002d0: cfbc 36be cd8b a2be e397 503e f792 df3e
000002e0: c3e5 7cbe 86d6 b13e bc86 b33e f947 adbd
000002f0: 3795 84be 30ae 8abe 0604 123e 3b1a d63d
00000300: 98fb 9dbe 5dac 453e 1520 8e3e 9887 fa3e
00000310: 5e1a 463e 78af 973e 1d8f 223e da29 76be
00000320: 6a79 823f 2d9f 1fbf 5bab a03d 5fe5 0abe
00000330: fc3e 963c 5ace e83e 8746 59be a904 193e
00000340: 9e99 c9bd 75c4 9e3e 6339 003d 25ae 01bc
00000350: 6b75 293d f0be 01bd 9f0b 8ebd d238 17bd
00000360: 81e9 9c3c 4fee a53c 1f9c 82bb b01c 34bd
00000370: 5395 a33d fb96 d0bc e167 50bb 004c 99b9
00000380: 41b4 dbbb 08a1 9a39 b098 1f39 b916 f93c
00000390: b0c3 b6bc c8b3 f5bc aed5 15bd 2276 f73c
000003a0: e8af 7b3d b38e 59bc f5b6 2bbd 8658 1abc
000003b0: 4af9 a83b 1d62 033d e6dd 10bd 5586 1cbc
000003c0: 5d8d ea3c b181 cf3c f839 b33c a3b1 13bd
000003d0: ce3c b0bc 1f10 9a3c 7115 c7bc 08c9 3a3b
000003e0: ed6d 713d f88c 66bc be4d 9ebc 603a b8bc
000003f0: 2bf7 8239 c0af 3a3d d277 ffbc 868a 2abd

network.8.bias f4 [30]
0.003410128 -0.038199175 0.016987776 -0.10316318 -0.018526705 0.035685815 -1.1512855 -0.041913263
-0.020783601 3.5540628 -0.017851725 -0.26214322 -0.027683495 -0.046250157 0.023648908 0.052446347
0.011315171 -0.024975413 -0.04608154 0.03462548 -0.024849122 0.028583476 0.034298792 -0.037298
0.046246614 -1.1251814 -0.37524554 0.634507 1.3227133 -3.2708106
00000000: 747c 5f3b bd76 1cbd f329 8b3c 3847 d3bd
00000010: 51c5 97bc 4a2b 123d 535d 93bf 3ead 2bbd
00000020: 5f42 aabc c475 6340 c83d 92bc a337 86be
00000030: 7fc8 e2bc ce70 3dbd 5bbb c13c fbd1 563d
00000040: 4463 393c 3d99 ccbc ffbf 3cbd 73d3 0d3d
00000050: 6390 cbbc e527 ea3c e47c 0c3d cac5 18bd
00000060: 176d 3d3d f205 90bf 2f20 c0be 0d6f 223f
00000070: ab4e a93f f654 51c0

network.10.weight f4 [1, 30]
0.006210721 -0.0012837176 -0.0019322885 0.037148446 0.005625563 -0.0022949225 0.09002541 -0.0027648301
-0.0031522375 0.09637382 -0.0072255945 -0.016607935 0.0011487486 0.0039691073 -0.0033977267 0.0074677393
0.0064746933 -0.0014701101 -0.0048793945 0.006691315 0.007638778 0.0063238726 0.0014651306 0.0017458044
0.0005938526 0.038410876 -0.071505986 0.14485054 0.15615737 0.0464999
00000000: 4e83 cb3b 6a42 a8ba d844 fdba f828 183d
00000010: a556 b83b 6966 16bb 3e5f b83d 2732 35bb
00000020: c595 4ebb a35f c53d aec4 ecbb 5d0d 88bc
00000030: 9b91 963a 490f 823b 65ac 5ebb f0b3 f43b
00000040: aa29 d43b b6b0 c0ba 54e3 9fbb d242 db3b
00000050: b74e fa3b 7d38 cf3b a009 c03a 7ad3 e43a
00000060: c6ac 1b3a b954 1d3d bb71 92bd b353 143e
00000070: b8e7 1f3e ae76 3e3d
