injector_surrogate/results/model5_4hidden_40nodes_1000epoch_0.01_-5.pth (torch, 31489 bytes, 11 tensors)

network.0.weight f4 [40, 9]
00000000: 8dd5 a83e 4231 4b3f 00b8 823f 6c3e 5c3d
00000010: 4342 55be 6c15 f43d 7b3e 313e daaf 0fbe
00000020: 6708 3fbe f7b0 d73e d91b f03e 1308 883d
00000030: b73a 70be f6e4 8d3f f685 8ebc 114b b43d
00000040: 9810 dd3d 7e13 f3be 4430 ffbc e4b8 0abe
00000050: 3992 723e ae70 163d 3652 d6bb b3ff 21bc
00000060: a32c 1b3d defc 29be 135a 1f3e 42f9 d03d
00000070: a17b db3e dc08 ac3e 96fa 183e 63c8 153d
00000080: a136 b53e 889a 8f3e 67da ecbf f454 72c0
00000090: c3df e5bd 4462 8dbe d5b8 713d e0d7 c0be
000000a0: 6728 c8be 47d9 0dbf edeb 603e deef 633d
000000b0: ddd9 2dbe c2cc e9be edbd 173e 4b9d 953d
000000c0: 6d22 c5bf 7687 59c0 6c62 fe3d 4107 933e
000000d0: 511c 72bd 9761 9f3d 2ccb a33f ada5 6abd
000000e0: 1c76 173e 139a acbf d1ad 71bf fc48 193e
000000f0: fb9c 003d 05f2 8abc e946 773d ed4f cf39
00000100: 2604 d33d c9b6 7abe 94e4 22be b9b5 8e3d
00000110: 602d 6f3d fbd6 dfbc f016 603d db1f 26bd
00000120: 9283 2f3f 768a a33e d49c 92be bcaa a9bf
00000130: 2176 a1bf 6e0e a33e d450 9b3e 3d50 17bd
00000140: 5d7d 973e bf12 c2bd a557 6dbd 8465 00be
00000150: 4fb5 a4bd ee5c dbbc 2878 60bf 5779 bbbf
00000160: 6100 0cbf 77fe f3bd 3917 7ebd c636 f6bc
00000170: c2ba e6bc 4cac c8bd 097f acbe 1638 f23e
00000180: be04 3c40 e839 2ebe 4547 2abe 8bab d03f
00000190: 98be 09bf 24cf ce3e acee 913e 462c 07be
000001a0: bafb 1abc 4bee ecbd 63be 6cbd 8320 5f3c
000001b0: 3bf9 81ba 38a5 23ba f586 a23a ea0c a3b9
000001c0: 2951 69b6 f9b3 ed3a 794d d4ba ed98 063b
000001d0: e513 14bb 5966 0abd c7f1 9a3d 80e4 1c3d
000001e0: 48fb 563d 14b7 2c3e 6efb 9ab9 214b 213f
000001f0: 978a ca3f 42a6 6b3f 24ef e3be b6e7 bc3e
00000200: 7747 bb3e a6cf b7bc 4968 013f fff2 aabe
00000210: 30a1 73be b131 57bd 5357 ed3d 67ad b03f
00000220: dfeb 00bf 3dbd ea3e 810e f5be 21ce 52bf
00000230: bfd1 6dbc 9a3e 883c 48b1 933e 2491 6b3e
00000240: aff9 eebe 4249 b4be 307f dfbe 12af ad3e
00000250: 133b 1e3f 25f2 2f3f 5360 e53e 57b2 88be
00000260: 93b1 b2bc e364 5bbf 3376 cbbe 6ed4 87bc
00000270: b9b4 233e f80c aabe 125b a83d 4d8f ae3d
00000280: ef37 0cbe 1516 ebbe 91e4 7d3f 7a47 c5be
00000290: 7981 12bf 94ca 2bbe 281c 213e b567 f8be
000002a0: a127 4ebe 380f a5bd 6edb 2abe 0589 1a3f
000002b0: 9f07 36be a05b 8f3c 50cf 013f 4fe3 7a3d
000002c0: 5ae4 a8bf bcdd 92bf cc21 b43e 7348 ff3e
000002d0: 3dfe 193e c0a1 0d3f 8021 34be c7e7 683f
000002e0: 733b d73f 336d 1ebf 3261 3bbf a58d 48be
000002f0: 4859 cbbd 2db0 bfbd e2b8 c4bd 6843 11bc
00000300: cafc 603d f4aa f53d c8be f5bf 470d 03bf
00000310: 8177 723e 99c7 9f3d 0be0 51bd f91e 4abe
00000320: 301a d7bd c418 7abc 43fa e6bd c218 86bf
00000330: cd1e 87bf 7734 f2bd 4b1c 1bbe 2c41 d93d
00000340: d5da 01bd 1f89 5fbc 5c8c 53bf 7a41 0dbf
00000350: a9ef bcbd 7490 1ebe 8a59 20bf 1c5c 33bf
00000360: 0a0e d53d 634d 7cbe 4999 473e e909 a13f
00000370: 6cb0 1940 8a93 183c 8056 eb3d b7ad 24bd
00000380: d82d ba3b 427e 523d ce19 8bbf 42bc 14bf
00000390: 8694 2bbb cc46 38be 6c9d 9abb 5264 d1bc
000003a0: 7b89 5abe d374 cebd 87d8 873d a259 c73b
000003b0: 42e0 163d 9594 053d 5fe0 c23d 95d7 1d3e
000003c0: d9c4 bf3e 33e5 1fc0 926f ffbe 3104 b1bf
000003d0: 5752 09bf 11bc 8b3e 9895 2fbd e85a 73be
000003e0: 3c2b 3e3e 5be5 e23e 9429 38bd c359 0cbe
000003f0: 3a04 f5bc c950 d63d 293b 0d3e 42c7 97bc
0.32975426 0.79372036 1.0212402 0.053770468 -0.20826058 0.119181484 0.1730899 -0.14031926
-0.18655549 0.421272 0.46896246 0.06642165 -0.23459898 1.1085498 -0.017397862 0.0880338
0.10794181 -0.4747581 -0.031150945 -0.13547093 0.23688592 0.036728553 -0.006540562 -0.009887624
0.037884366 -0.16600367 0.15561704 0.10203792 0.4286776 0.3360051 0.14939341 0.036568057
0.3539324 0.28047585 -1.8504151 -3.7864351 -0.1122432 -0.27614033 0.05901416 -0.376647
-0.39093325 -0.55409664 0.21964999 0.055648677 -0.1697764 -0.4566403 0.14818545 0.07305392
-1.5401131 -3.3988929 0.12421116 0.28716472 -0.059109036 0.07782286 1.2796378 -0.057286907
0.14791149 -1.348452 -0.9440585 0.14969248 0.03139971 -0.016961107 0.06037036 0.00039541666
0.103035256 -0.2448379 -0.15907508 0.069682546 0.058392882 -0.02732419 0.054709375 -0.040557723
0.68560135 0.31941575 -0.28635275 -1.3255229 -1.2614175 0.31846946 0.30335104 -0.036941756
0.29587832 -0.09476232 -0.057944912 -0.12538725 -0.08042394 -0.02677771 -0.87683344 -1.4646405
-0.5468808 -0.1191377 -0.062033866 -0.030055415 -0.028165225 -0.09798488 -0.3369067 0.47308415
2.9377894 -0.17014277 -0.1662875 1.6302351 -0.5380645 0.4039241 0.28502405 -0.13200483
-0.00945943 -0.11568888 -0.057798754 0.013618591 -0.0009916195 -0.0006242576 0.001239984 -0.00031099404
-3.4766947e-06 0.0018135301 -0.0016197405 0.0020537928 -0.0022594866 -0.033789013 0.075656466 0.038303852
0.052485734 0.16866714 -0.000295605 0.6300526 1.5823544 0.92050564 -0.44518387 0.3689553
0.3657796 -0.022437882 0.5054975 -0.33388516 -0.23791957 -0.052537624 0.115889214 1.3802918
-0.5035991 0.45847502 -0.47862628 -0.8234578 -0.014515339 0.016631413 0.28846192 0.23004586
-0.46674868 -0.3521214 -0.43651724 0.3392263 0.6180889 0.6872886 0.44800052 -0.26698563
-0.02181319 -0.85700816 -0.39738616 -0.016580787 0.15986909 -0.3321302 0.08220495 0.08523426
-0.13693212 -0.45915285 0.9917689 -0.38531095 -0.5722881 -0.16776496 0.15733397 -0.48516622
-0.20132305 -0.08059543 -0.16685268 0.60365325 -0.17776345 0.017499745 0.5070696 0.061251935
-1.3194687 -1.1473918 0.35182035 0.49859962 0.1503839 0.55324936 -0.17590904 0.90978664
1.6815017 -0.61885375 -0.73195183 -0.19585283 -0.099291384 -0.09359775 -0.09605576 -0.008866169
0.05492858 0.11995497 -1.9198847 -0.51192135 0.236784 0.07801742 -0.051239055 -0.19738378
-0.10503042 -0.015264694 -0.112782024 -1.0476305 -1.0556275 -0.11826413 -0.15147512 0.10608134
-0.031702835 -0.013643532 -0.82636046 -0.55178034 -0.09225399 -0.15484792 -0.62636626 -0.7006242
0.10403068 -0.24638896 0.19492067 1.2581149 2.401393 0.00931252 0.11491108 -0.04020473
0.0056817345 0.05138994 -1.086725 -0.5809976 -0.0026181056 -0.17995757 -0.004718473 -0.025560532
-0.21341507 -0.10080876 0.06633096 0.006083683 0.036834963 0.032612402 0.09515452 0.1541427
0.3745487 -2.4983642 -0.4988981 -1.3829404 -0.53641266 0.2729192 -0.042867273 -0.23765147
0.1857118 0.4431561 -0.044961527 -0.13706116 -0.029909242 0.10464627 0.13792099 -0.01852763

network.0.bias f4 [40]
00000000: 4307 92bf 675f c9bf c4d0 2cbd ced1 7b3f
00000010: 4e1b 893f fcab 1f40 a9f6 5fbf 7cd3 523d
00000020: 4461 133f e6df 8a3f 0fa4 14c0 458d cdbf
00000030: 8790 cdb9 f911 5bbf ae29 49bd 223a 4fbf
00000040: 9c16 02bf 2768 833f 83fa 323f 2434 91bc
00000050: 0d8a 81bf 8190 9d3e a505 c13f 179b d73f
00000060: e0eb 9ebf 00f4 a33f 1280 f93f 39db 8d3e
00000070: f19f d03f b06b b73f 186d 183f ab7e 85b7
00000080: eb7e b8bf de95 64bf c1e8 df3e c78c 833f
00000090: 037b 59bd 36e4 e03f d853 513f 966b 05bf
-1.1408466 -1.573224 -0.042191282 0.9836701 1.0711458 2.494872 -0.8748575 0.05147122
0.5757029 1.0849578 -2.3225133 -1.6058737 -0.00039208328 -0.855743 -0.049112014 -0.8094808
-0.5081575 1.026616 0.699135 -0.017725058 -1.0120255 0.3077431 1.5079848 1.6844205
-1.2415733 1.2808838 1.9492209 0.27706316 1.629881 1.4329739 0.59541464 -1.591382e-05
-1.4413732 -0.8929118 0.43732265 1.0277337 -0.05309583 1.7569644 0.8176856 -0.5211729

network.2.weight f4 [40, 40]
00000000: 9e71 0b3f 84e9 fabc df3f f9bd decc f03d
00000010: 5d2d 50bd 5343 053e 28d9 f6bd 2445 fb3d
00000020: f201 e93d b69f 163e fba4 08bc 3d39 3dbe
00000030: d40f 0fb9 8f51 f83d 79b9 953e a3d9 28bd
00000040: 7e36 c9bd d1f5 873e 7761 8ebd b95b 63bd
00000050: 65b9 2e3e b877 813c dd0a f7be 82c1 3939
00000060: c7f7 e63d e37b 65bf 0dca ac3c 9331 a13d
00000070: 9e02 c03e 3328 07be 8c8b 16bf c531 58b9
00000080: 76cf 9bbd c9ef 58bd c572 783e f439 593e
00000090: 310f 06be 3f81 c7bd a4f1 69bd 01f8 d93d
000000a0: 176c 333e 8805 4dbd 8fb7 43bd 630c 2bbe
000000b0: 6fc8 47be 5c2f 5e3d cb54 12bf acf1 ad3d
000000c0: 2eca 49be 2a6f d9be 11e5 ccbd bdbf 4bbd
000000d0: 4ea2 ad39 4cd7 163e c920 9a3e 8056 2cbe
000000e0: 2193 b6be eff7 9a3e 1921 243f 86a6 ac3e
000000f0: dbfa dfbd 463b 69bd 312f c63e 826d 06c0
00000100: 6ccb 9b3e 8b50 863d 6275 4cbd 1cff a4bd
00000110: 1ad6 3a3e 7bf6 893c d212 9d3e 1d23 0f3a
00000120: b389 2e3e a99a 65bf 44eb 1f3f b200 403d
00000130: 1974 b0bd d36d 52bf b9ae 1e3f 9d36 61be
00000140: 09d4 393e e210 01bf 6289 47bb c353 033e
00000150: 7868 8f3d 4f02 db3e 86e9 ddbe 1c2b 723b
00000160: 3ad8 0c3e bc9f 48bd 771d 0140 4569 8bbd
00000170: 7799 ae3a 1395 933e 029a 413f b552 e53e
00000180: a065 0abf a324 153f b4fb a73e d148 a3be
00000190: a585 983e b4da d13d 865d 74bf f40d 85be
000001a0: 164f 123e 5be6 793e 2008 d7bf c00d 69be
000001b0: 1b40 bbbe 7a73 7e3e f855 0cbe c108 3c3b
000001c0: 0b3b 423f e5b5 9b3e 9b7e babd 8f28 65bf
000001d0: 3f29 de3b c9c9 6a3c 8319 70bf e3e6 3abe
000001e0: f20b 243e 451d de3e 126f 1d3c aeeb 3cbc
000001f0: ca8a 0abe 385d 29bf 3481 ebbe 900c ddbd
00000200: f9f3 0e3e a976 ac3e 6200 83bd 83b9 fa3e
00000210: 9255 923a 5cf9 5b3d 4cc9 023f 203a 4c3e
00000220: 8a41 713d 4c09 0c3f 8ad9 4b3e f882 d7bd
00000230: 8424 8c3e 04c3 07bd 8023 06bf 1305 bdbe
00000240: 19b9 893f e199 113d 40cb 86be c562 9abe
00000250: 0095 9b3e cb21 123d 3f3a 793e 4261 423a
00000260: 4610 1a3e 21fe 003f 83c3 8d3e 3917 13be
00000270: 5706 9c3d e77a 9b3c da74 6a3e de98 63be
00000280: 6e82 adbb 1375 1fbe 2be5 ca3d ba3a 5ebd
00000290: 2ec7 de3e 2c2b 09bf 495c acbe cffb 9dbd
000002a0: 9bae b53e 3af0 bfbe a794 50bd 5067 59bf
000002b0: f70d c4ba d718 08bf 0870 773e 1fae 9abc
000002c0: 6113 983d ccff 0e3f 249e 83be 6094 7cbe
000002d0: 0098 763d 463a 99bc bc80 e03e 9c55 04bf
000002e0: 9d6a bf3c b4ca a3bd 0326 9e3d 9b14 123f
000002f0: dae7 803e 5812 92bc e7fe 023f 5d75 22ba
00000300: 88fa fbbe 7c54 f63e c83c a1bc 089a 613f
00000310: a8e6 b43d 0a7f fcbe c652 31bf 149f 063e
00000320: 7d6a 11be 013d 12bf a325 b7bd 0843 213d
00000330: 87bc 29be aa4d c53f e472 3c3f de41 9e3c
00000340: 57bb 9f3e 7834 b03e 5592 68bf 77d0 0bbb
00000350: 83da 7d3a 4e08 c33d 7fcc c4be c2ca 80bf
00000360: 6b66 323d 9e7d 223e 23dd f5be a8d7 763e
00000370: 8ca4 28be dc4d b73b 4f90 a63e 98d1 ec3f
00000380: 56b6 8ebe 6f10 74bd d1da ff3d bb4d 9d3e
00000390: 8924 553f 5525 883c f67b 2abf 9a65 4d3a
000003a0: 14a7 2d3f de05 48bf 1f78 27bf 6105 223d
000003b0: f344 27bd efdd 9fbd dfc9 903e eadd f3bb
000003c0: 7bbf 283f 0458 34bf b6c8 7ebe 67e3 09bd
000003d0: 0a3d f3be 6d68 523e a597 16bf 9038 833e
000003e0: cb5c 85bf 4c88 fdbe ced0 ac3c ef14 ee3e
000003f0: 17c7 ef3a cadf 153f e9cb f0be b74d b9be
0.5447024 -0.030628927 -0.121703856 0.11757825 -0.05082451 0.13013963 -0.12053138 0.12269047
0.11377324 0.14709362 -0.008340116 -0.18478866 -0.00013643439 0.12124931 0.29243067 -0.04122318
-0.09824847 0.2655473 -0.06952184 -0.055507395 0.1706291 0.015804157 -0.48250476 0.00017715062
0.112777285 -0.8964216 0.02109244 0.07870784 0.37501997 -0.13198929 -0.5880668 -0.00020617906
-0.076079294 -0.052963052 0.24262531 0.21213514 -0.13091733 -0.097414486 -0.057115212 0.10643006
0.17521702 -0.050054103 -0.047782477 -0.16703944 -0.19510053 0.054244384 -0.57160634 0.08493361
-0.19706032 -0.42467624 -0.100046284 -0.049743403 0.00033118058 0.14730567 0.30103138 -0.16829872
-0.35659125 0.30267283 0.64113003 0.33720797 -0.10936519 -0.056941293 0.3870788 -2.1004338
0.30428636 0.06558331 -0.049916632 -0.08056471 0.18245736 0.016841164 0.3067842 0.00054602494
0.17044716 -0.8968912 0.6246836 0.046875663 -0.08615894 -0.8219883 0.61985356 -0.2199349
0.18147291 -0.50416386 -0.0030446877 0.12824921 0.07002348 0.427752 -0.43342227 0.0036951965
0.13754359 -0.04898046 2.0174234 -0.06807188 0.0013320883 0.28824672 0.7562562 0.44789663
-0.5406132 0.5825903 0.32809222 -0.31891492 0.29789463 0.102467924 -0.95455205 -0.25987208
0.14287981 0.2440428 -1.6799355 -0.22759151 -0.36572346 0.24848738 -0.1370467 0.0028691741
0.7587134 0.30412212 -0.09106179 -0.8951501 0.0067798193 0.014330336 -0.9378893 -0.18252139
0.16020182 0.43381706 0.009609001 -0.0115308 -0.13529506 -0.66157866 -0.45997012 -0.10793412
0.13960256 0.3368428 -0.063965574 0.4896966 0.0011164418 0.053704605 0.51088405 0.19944048
0.058900394 0.54701686 0.19907203 -0.10523027 0.2737161 -0.033144966 -0.5239792 -0.36917934
1.0759612 0.03554714 -0.26326942 -0.3015348 0.30387115 0.03567676 0.24338625 0.0007415005
0.1504527 0.5038777 0.27688226 -0.14364327 0.07618397 0.018979503 0.22896138 -0.22226283
-0.0052950894 -0.15572004 0.099069916 -0.054255225 0.43511337 -0.535815 -0.33664158 -0.07714044
0.35484776 -0.37487966 -0.050923016 -0.8492327 -0.0014957775 -0.531629 0.2416383 -0.018881856
0.07425571 0.55859065 -0.2570659 -0.24665976 0.060203552 -0.018704545 0.43848217 -0.5169313
0.023366267 -0.07997647 0.07722094 0.5706269 0.2517689 -0.017831013 0.511702 -0.0006197298
-0.49214578 0.4811133 -0.019682303 0.8812566 0.08833057 -0.49315673 -0.6926693 0.13146621
-0.14200778 -0.57124335 -0.089427255 0.039370567 -0.16575824 1.5414326 0.7361281 0.019318517
0.31197616 0.3441503 -0.90848285 -0.0021333972 0.0009683745 0.09523068 -0.38437268 -1.0061877
0.043554705 0.15868232 -0.48020276 0.24105704 -0.1646902 0.0055939984 0.32531974 1.8501463
-0.27873486 -0.059585985 0.12492908 0.30723366 0.83258873 0.016619364 -0.665954 0.0007835269
0.67833066 -0.7813395 -0.65417665 0.03955591 -0.04083724 -0.07806002 0.28279015 -0.0074422257
0.65917176 -0.704468 -0.24881253 -0.033664133 -0.47507507 0.20547648 -0.5882514 0.2562909
-1.0418943 -0.4951805 0.02109566 0.46500346 0.0018293586 0.585446 -0.4703057 -0.36192104

network.2.bias f4 [40]
00000000: 38ed 3b3f 1714 58be 0130 6a3f 894c 9bbf
00000010: f192 163c b07b 2dc0 74c6 213d 5448 363f
00000020: 339e c33f 650c 49bf 5505 3f3e f1f3 ca3e
00000030: 83bd 82bf 5d0f 66bf b408 8f3f 2794 0f3f
00000040: 3211 0440 c20f ad3e bfa1 15bd 5843 343f
00000050: 0455 4bbf ecb8 643e b3e0 0dbf 94bd 253e
00000060: fb87 183d 9212 5fbf 4422 c03e c50c 87bf
00000070: 494a 3abf 77ab ab3c a45b b33f 5174 a3be
00000080: b05d b9bf 4b92 75be 2f29 62be f284 1dbf
00000090: 5941 453f a313 783e cfa8 28bf 47d0 edbc
0.7340884 -0.21101414 0.914795 -1.2132732 0.009190307 -2.7106743 0.0394959 0.71204114
1.5282654 -0.7853454 0.18654378 0.39639238 -1.0214084 -0.8986719 1.1174531 0.5608544
2.0635495 0.33801085 -0.036531206 0.7041526 -0.794266 0.22336167 -0.5542099 0.161856
0.037239056 -0.8713771 0.37526143 -1.0550772 -0.727696 0.020955784 1.4012341 -0.3192468
-1.4481716 -0.23981588 -0.22086023 -0.61530983 0.7705284 0.24226241 -0.6588258 -0.029029978

network.4.weight f4 [40, 40]
00000000: a3ee 84be 9882 833e 78b2 4f3f e739 e43e
00000010: 6fce 8e3e 2ade c0bd 09be 8e3e 4810 753e
00000020: 60f2 b3be 2f91 f0bc 1c34 c1be 1772 8c3e
00000030: 67f0 d23e 1b05 09be b729 1ebf 41c1 8ebb
00000040: a450 4bbe cad0 95be 4d98 153e ec2b c13e
00000050: d1ee bdbe 145f 5d3e aff3 2bbe 1233 72be
00000060: 8681 dabe de8d 813f 269e 68be 3b6a b23d
00000070: 427c 4a3e 28e8 f6be c3c8 b4be c0b1 cd3e
00000080: 2d53 42bf 1a69 363f e6a4 aabe cfbe 7bbe
00000090: 3ad6 1abd c3ce 9d3d b8da 5cbf f244 e93d
000000a0: 8a01 11bd f9f3 b0bd b6c5 d43e a833 6e3e
000000b0: d203 083f f3cc ff3c 8570 10bf c39b c1be
000000c0: 15cd b23b 67a9 00bc aea2 92be cab7 54bd
000000d0: b96f 92be d2bb 25bd 86a7 083f 9337 4cbe
000000e0: 3f20 023f 68f1 ce3e 84cc 02bf f638 cc3f
000000f0: 5ced dbbd 49b9 b23e d2bb b73e 12e4 fbbd
00000100: 2811 863c 3e2f 0fbf e41a 3cbf db61 853f
00000110: b2c7 87bf 9bcd f3bd 19b5 fbbe 9fc2 2e3e
00000120: 9949 4ac0 bbb1 803f d45c 473f 8d10 443e
00000130: 0458 7f3e 115d 083e ae9f 2c3e fa67 133f
00000140: 6105 2dbe 818e 02bf 11f7 323e 458a cf3e
00000150: ea5a a83e 36aa 89be 5583 aa3e b415 303f
00000160: 14df 94be d00d aa3e 3fc6 7f3e 3d11 4cbd
00000170: 343a 193f e5cb 3abd b832 39bd 6148 7cbe
00000180: 46a5 d43d 3e7e 553e 6577 43be d8d2 163e
00000190: 864f 2dbe 4f38 343f 2263 d23e bec3 75be
000001a0: 416c a63b 87d9 553e 99e1 d4bf c1f6 09bf
000001b0: f543 b6be 472f 053e a5c1 9cbe affd 8b3e
000001c0: e8a1 c63c 0a65 fbbe 07c5 cb3e 466f c8bc
000001d0: f4a2 3c3c 0249 803e 4d7d aa3d 22d4 a03e
000001e0: 4484 113e ba84 e9be 58f1 e0bc d733 0d3d
000001f0: 87f7 863e e8b3 943c 3fbb b33e 09cf 523e
00000200: a29b 22be 27ad 9b3d 638f 74ba 67be 7e3c
00000210: 57b6 42be 6575 c83d 675e 603c 2126 04be
00000220: f7b8 dc3d 612b 3e3d 47c1 a2be e204 993d
00000230: c53c 4ebd 3a08 8e3f 551a 20bf 19d0 29bf
00000240: fc0a 653e 93e8 6bbc ba17 99bd 97e1 c13e
00000250: eb9e 51bf 41c2 653d 5d5e ebbd 0638 1f3e
00000260: 8551 07bf e1a2 1fbd 8a0a 963e 41d4 93be
00000270: 9b63 b4ba 9814 383d 5667 943e ec45 f83e
00000280: 2704 3c3e 71cd 5f3f 1638 dd3c 6c21 2b3e
00000290: f255 db3e fbdf 92be 06f5 d03e 389a a3be
000002a0: 49b0 12be 8fb5 953e eeaa 873e 09d2 2e3d
000002b0: 4bc9 513f 2a9b 083d c605 38bd 9fa2 893e
000002c0: dcec 32bd 3677 55bd 88ef 8cbe a9ce afbd
000002d0: fb73 1dbc 57c2 e73c 4f4a dcbd b25f 003d
000002e0: 9282 913e 7af9 163d ff83 0ebf 876d 2cbe
000002f0: 438b 9b3e 550c 9cbd e42d 9abe 61e7 bfbc
00000300: e365 b63e 3ca6 453e 6840 88be 7c92 0cbe
00000310: 77e5 1cbe 1f87 643d 0720 cabd 1826 243e
00000320: 096f 0cbe 0ed2 4ebc 2934 07bf 8650 dabf
00000330: 036b 8dbe db10 e3be 2e53 a3bd b4be 06bd
00000340: 8778 75bf 9fd4 8c3e 93ad 843e 7a4c babe
00000350: a42a 65bd adf1 893d 08e1 ecbe 0e08 113b
00000360: 4dfe ce3e 4ce0 ddbf 4f3e ecbb e146 3ebe
00000370: f33c 51bc 7c7d 83be 3659 d0bd cd3d e0bd
00000380: 84e6 13bd 92ee efbe 91da 023c 011c 97be
00000390: 9ff7 643c 1a5c dfbd cf89 aa3e 1727 cbbe
000003a0: 626c 04bd 9afa a2be 8cd7 85bd 65f6 c3be
000003b0: d77a 0abd 1b53 36be f722 52be 26f4 8f3c
000003c0: 7d5c 64bc 5f05 b5bd 83fe 063d 1db9 0e3a
000003d0: fa9f c0be eb52 133e 4de9 5abe b810 0e3e
000003e0: 3cce 333d d1f3 73be b29d e3be 2379 113e
000003f0: e9bb 59bf f748 bebd da68 aa3d 79a8 f2bc
-0.25963315 0.25685573 0.81131697 0.44575426 0.2789187 -0.094173744 0.2787936 0.23931992
-0.35145855 -0.029366104 -0.3773507 0.27430794 0.41199037 -0.13380854 -0.617824 -0.0043565338
-0.1985498 -0.29260856 0.1460888 0.37728822 -0.37096265 0.216183 -0.16792177 -0.23652294
-0.42676944 1.012142 -0.22716579 0.08711668 0.19773963 -0.48223996 -0.3530942 0.40174675
-0.75908166 0.7125412 -0.33328933 -0.24584506 -0.03780196 0.07705452 -0.8627124 0.113901034
-0.03540186 -0.08640284 0.4155709 0.23261893 0.5313083 0.031225657 -0.5642169 -0.3781415
0.0054565766 -0.007852889 -0.2863974 -0.051933087 -0.28600863 -0.040462323 0.5338062 -0.19943075
0.50830454 0.40418553 -0.51093316 1.5954883 -0.10738632 0.34906986 0.35885483 -0.1229936
0.016365603 -0.5593146 -0.7347853 1.0420488 -1.0607817 -0.119044505 -0.49161604 0.1706643
-3.160742 1.0054239 0.7787602 0.19146939 0.24935919 0.13316752 0.16857788 0.5758053
-0.16896583 -0.50998694 0.17477061 0.4053518 0.32881862 -0.26887673 0.33303323 0.68783116
-0.29076445 0.33213663 0.24977969 -0.049821127 0.59854436 -0.045604605 -0.045214385 -0.24636985
0.10383086 0.20848939 -0.19088514 0.14728868 -0.16924867 0.7039842 0.41091257 -0.24000451
0.005078823 0.20883761 -1.6631347 -0.5389214 -0.35598722 0.13006316 -0.3061649 0.27341983
0.024247125 -0.49100524 0.39798757 -0.024467122 0.01151346 0.250557 0.083246805 0.31411844
0.14210612 -0.45609075 -0.027458832 0.034473266 0.26360723 0.018152192 0.35103795 0.2058679
-0.15879682 0.076013856 -0.00093292276 0.015548325 -0.1901487 0.09788016 0.013694382 -0.1290517
0.10777467 0.046428088 -0.31788084 0.074716344 -0.050350923 1.109626 -0.6254018 -0.66333157
0.22367471 -0.014398712 -0.074752286 0.37867424 -0.81883115 0.056093458 -0.11492608 0.15548715
-0.52858764 -0.038973693 0.29304916 -0.28872874 -0.0013762595 0.044941515 0.2898509 0.48490846
0.18360959 0.87422854 0.027004283 0.16711968 0.4283901 -0.2868651 0.40811938 -0.31953597
-0.1432506 0.2924008 0.26497597 0.042680774 0.81947774 0.0333511 -0.04492738 0.26881883
-0.043682918 -0.05211564 -0.27526498 -0.08584339 -0.009610171 0.02829091 -0.10756361 0.031341262
0.2841993 0.036859013 -0.5567016 -0.16838656 0.30379686 -0.0761954 -0.30113137 -0.02342576
0.35624608 0.19301695 -0.26611638 -0.13727754 -0.15321909 0.055792924 -0.0986939 0.16030157
-0.13714232 -0.012623323 -0.52813965 -1.7055824 -0.27620706 -0.44348797 -0.0797485 -0.032896712
-0.95887035 0.27505967 0.25913677 -0.36386472 -0.05594887 0.06735549 -0.46265435 0.0022130045
0.4042839 -1.7334075 -0.007209576 -0.18581726 -0.012770879 -0.25681674 -0.10173266 -0.109492876
-0.03610851 -0.46861702 0.007986681 -0.29513553 0.013975053 -0.10906239 0.33308265 -0.3967826
-0.032329924 -0.3183182 -0.06535253 -0.38273922 -0.033808555 -0.1780514 -0.2052115 0.017572474
-0.013938067 -0.08838915 0.032957565 0.0005444454 -0.37622052 0.143871 -0.2137806 0.13873565
0.043897852 -0.23823477 -0.4445625 0.14206366 -0.85052353 -0.09291261 0.0832078 -0.02962135

network.4.bias f4 [40]
00000000: 7bb4 b7be a5d6 85bf e81e 6e3f b80f 5fbe
00000010: f936 5abf 6ad9 83bf 005e 23bf 450b 71be
00000020: 49f2 fd3e 3bbd 0fbf 3f28 f2be 2eb5 fbbe
00000030: fab1 48bf 20b9 5e3f 0e88 80be 0088 70bf
00000040: b0a9 b7bf cbb3 4ebf ff7d 9e3d 39d3 883e
00000050: 4e34 49bd d63f 62bf 3d2e 6c3e d8c3 513f
00000060: 4497 a1be 80d8 7b3f 78f7 0ebf cf2f 233f
00000070: d7df 7fbf 655f 203e 6fe6 acbf 2c7e e6bd
00000080: 2a55 61bf 156d 95be 27cb b6bf 3b53 49bf
00000090: 8e5b 793f ae90 593d 97a6 a6be 50f5 a3bf
-0.35879883 -1.0456129 0.9301591 -0.2178334 -0.8524013 -1.0300725 -0.6381531 -0.23539455
0.4959891 -0.5614812 -0.4729633 -0.49161667 -0.7839657 0.8700123 -0.251038 -0.9395752
-1.434866 -0.8074309 0.077388756 0.2672365 -0.049122147 -0.88378656 0.23064514 0.8193946
-0.3156072 0.9837723 -0.5584636 0.63744825 -0.9995093 0.1566139 -1.3507823 -0.11254534
-0.88020575 -0.29184785 -1.4280747 -0.78642625 0.97405326 0.053116493 -0.32548973 -1.2809238

network.6.weight f4 [40, 40]
00000000: d2b4 2c3f 71a2 d2bd 069b ccbe 3a1f d93f
00000010: 5b68 3fbf 6232 2f3f 4b1e 4d3f ca9f a3be
00000020: 5945 3b3f dd4f 9a3e 0618 a43e f5cc 21bd
00000030: b5bb 65bf 14a4 723e ab5a 30bf 88c7 533e
00000040: e0a5 973e f1a5 36bf dc58 79bf 202a bf3e
00000050: ea73 d53e 949e bf3e 687d 4abe 6f02 7f3e
00000060: d74d 78bf 5875 c83d c991 033f d462 b6be
00000070: c0d7 ee3e 3204 ed3e 8373 37bf d0ff 283f
00000080: 2d9b 8e3d 74c9 0cbe 4c12 453f c903 e8bd
00000090: 780e 7f3d 0506 203f ad78 aebe 2e3e a9bf
000000a0: ae6e 4f3e 6743 c23e 0e4b 6b3e cf13 6c3f
000000b0: 335c a4bf b3ae d4bd 1660 bcbf f989 11bc
000000c0: 4bcb 81bf c444 2dbe 48a1 043e d141 1bbf
000000d0: 5eae 5fbe 4718 4ebb 186b fa3e 0753 8e3e
000000e0: 0899 583e 2b02 ad3e 35d2 5e3e 05f1 a6bf
000000f0: 71fb 5e3d aaab 013f ec2c eebe e4a9 67bc
00000100: 2a77 07bd 7ffd 51bc 93b1 9abc 4957 d9bc
00000110: 17b4 2e3e 9a5d 693b 5f1d 0ebf 6e60 a53c
00000120: 6ae6 fdbd b8f5 9dbc 3c08 08be 1cee 3ebe
00000130: 02cb 2b3e bdb3 ffbd 6a10 b4bf ad02 9bbe
00000140: e87b 143c f348 793d d454 243f c6fc 003d
00000150: 4c3b 68be e87f 093e dbb5 aa3e 9eda b43f
00000160: 5053 cebe 9ea6 0d3e 6af5 323e b983 9fbe
00000170: d89b 733f afb7 fc3d e500 803f 34f6 e9bd
00000180: c6cf ca3d e8e3 3dbf f741 c53e ee74 313d
00000190: d70f 2bbd 75ce 643e dd76 f3be d1d7 a3be
000001a0: 3386 45bf 9bd0 6fbe b9ca 82be 4468 23be
000001b0: 94d2 ccbd ee65 4d3d 9d2f 503b ec0b 82be
000001c0: b4d1 53bd f048 3bbe eb4c 3bbe 7c55 0e3f
000001d0: 0d04 213e 7548 f43e a735 01bf 1f1d ef3e
000001e0: 217b f8bd 4ade fb3e 61e2 ca3d 67cc 883e
000001f0: 8a8d d8be 3a67 703e 14b1 063e 7b65 5bbf
00000200: 3127 89bf 680f c8bd 1c9f fcbe faf7 413f
00000210: d2e1 20bf 6675 1dbe 75fc d6bd 861b d6be
00000220: 7910 0f3e 8a79 a2bf c2c3 9c3e b289 933e
00000230: 63d4 d63e b064 efbe 4ae3 0cbf c64d 2cbf
00000240: f028 90be 05ef bc3e 1991 9abe 8578 973e
00000250: 05f2 89be 6993 0e3e 7d5d 9b3f 702e efbe
00000260: a31e 0ebe a83d d7be 17ef 303f 29a0 1cbf
00000270: 4e8e 013e e3cd 0a3f 2831 89bf c2b1 0bbe
00000280: fff5 b13e 1305 fa3e 5cec 9e3e 9770 b7bf
00000290: 8f77 ac3e a9c4 b3bc 07a7 383f db38 0440
000002a0: 9815 46bf 17de dbbd 0b28 5cbd e2ef 75be
000002b0: 5ccf b33e c0db 0dbe d68f dfbe 7ed3 80be
000002c0: 0f3b 0b3e 0173 033f fc76 3a3f 6d00 68bf
000002d0: f08c c5bc 4f9f 063e abee 7cbe b96f 833d
000002e0: 0490 abbe 3511 c4bd b578 dabd e4f8 f6bd
000002f0: ca0d 803e 9eaf 403e 7d7e 0e3f 9e9d 03be
00000300: 2538 f83d 330d cabe 0316 a2be 5140 913e
00000310: 1d9d 5fbd 14b1 ba3e 2243 e2be f545 303f
00000320: e171 babe e6c9 6a3e 699a 0ebf 5dfa 7fbe
00000330: 448c 2bbf baaa 1a3f 8099 78be 3af1 743e
00000340: d841 44be a4e6 153d cede bc3d fbd7 30be
00000350: 2ead 8fbf aff9 443e 414b 8b3f adc5 953d
00000360: 420a 6cbe 67b2 073f 2a32 883e 2737 b93e
00000370: 7ac1 b2be 1310 1dbf 61d7 503e 361a dabd
00000380: 311f 383e d358 153e 0ee5 e63e fccb 9e3d
00000390: 1ed3 77be 36ee 6abe 2883 ba3e b571 ff3e
000003a0: 93f9 653e 0727 ddbd 8fe9 2f3e 2e67 d23e
000003b0: 7a38 04bf 2858 cabe 2556 d1bd 8322 15bf
000003c0: 9afe 66bf 65ec a5bd 5d05 9b3d 419b b03f
000003d0: 28ae e8be 621a 41bd 4d4a d9bd 7231 7d3e
000003e0: 2733 643f e7a6 52be 38eb a53e e39f 2fbb
000003f0: 988d 9a3d b323 a53d 6cb9 9cbe 7a27 7cbe
0.6746341 -0.102848895 -0.39962023 1.6962655 -0.7476861 0.68436253 0.8012435 -0.31957847
0.7315269 0.30139056 0.32049578 -0.039502103 -0.89739543 0.23695403 -0.6888835 0.20681584
0.2961874 -0.71346956 -0.97401214 0.37336826 0.41689998 0.37425673 -0.19774401 0.24903272
-0.96993774 0.097880065 0.51394325 -0.35622275 0.4664898 0.46292263 -0.7166063 0.6601534
0.06963191 -0.13748723 0.76981044 -0.11328847 0.062269658 0.62509185 -0.34076443 -1.3222101
0.20257065 0.3794205 0.2297785 0.92217726 -1.2840637 -0.10384884 -1.4716823 -0.008882993
-1.0140165 -0.16920763 0.12952149 -0.606473 -0.2184386 -0.0031447576 0.4890983 0.2779772
0.21152127 0.33790717 0.21759875 -1.3042303 0.054439012 0.50652564 -0.46518648 -0.014139626
-0.033072628 -0.012816786 -0.018883502 -0.026530879 0.17060886 0.003560877 -0.55513567 0.020187583
-0.123974636 -0.019282207 -0.13284391 -0.18645519 0.1677666 -0.12485454 -1.4067509 -0.3027548
0.009062745 0.060860585 0.6419194 0.031491064 -0.2267887 0.13427699 0.3334187 1.4129217
-0.40297937 0.1383309 0.1747643 -0.31155184 0.95159674 0.12339722 1.0000273 -0.11423913
0.09902911 -0.7417588 0.3852689 0.043324403 -0.041763153 0.22344382 -0.47551623 -0.32000592
-0.77157897 -0.2341942 -0.2554529 -0.15957743 -0.10001102 0.050146036 0.003176666 -0.2539972
-0.05171366 -0.18289542 -0.1829106 0.5559919 0.15724202 0.4771153 -0.5047249 0.46701905
-0.1213286 0.4919303 0.099064596 0.26718447 -0.42295486 0.23476878 0.13153487 -0.8570172
-1.0715085 -0.097685635 -0.4934014 0.7576901 -0.62844574 -0.15376815 -0.10497371 -0.41817874
0.13971128 -1.2693341 0.306181 0.2881599 0.41958913 -0.46756506 -0.55034316 -0.6730617
-0.28156233 0.36901107 -0.30188826 0.29584137 -0.2694246 0.1392342 1.2137905 -0.46715117
-0.13878874 -0.42039227 0.6911482 -0.61181885 0.12651941 0.5422041 -1.0718126 -0.13642028
0.34757993 0.48831996 0.31039703 -1.4331235 0.33684966 -0.02194436 0.72129864 2.0659702
-0.773767 -0.1073572 -0.053749125 -0.2401729 0.3511914 -0.13853359 -0.43664426 -0.25161356
0.13596748 0.5134736 0.72837806 -0.9062565 -0.024115056 0.13146709 -0.2470042 0.06417794
-0.33508313 -0.095735945 -0.10667554 -0.12059191 0.2501052 0.18816993 0.55661756 -0.12853095
0.12120084 -0.39463195 -0.3165742 0.28369382 -0.054593194 0.36463225 -0.44191843 0.68856746
-0.36415008 0.2292858 -0.5570436 -0.2499785 -0.67010903 0.6041676 -0.24277306 0.23920146
-0.19165742 0.03659691 0.09222184 -0.1726989 -1.1224725 0.19235872 1.0882341 0.07313094
-0.23050788 0.53006595 0.26600772 0.3617489 -0.34913236 -0.6135265 0.2039466 -0.106495306
0.17980649 0.14584665 0.4509663 0.07753751 -0.24201629 -0.22942433 0.3642819 0.4989144
0.22458486 -0.107984595 0.1717894 0.41094345 -0.51648676 -0.39520383 -0.10221509 -0.58255786
-0.9023224 -0.08101729 0.07569382 1.379738 -0.4544537 -0.0471443 -0.10609875 0.24725893
0.8914055 -0.2057148 0.3240602 -0.002679818 0.07546538 0.0806345 -0.30610216 -0.24624434

network.6.bias f4 [40]
00000000: d573 94bf 80c3 acbe aa1b a13e 769f 293d
00000010: 6ff4 713e d71d aabf e880 59be 38a1 3cbf
00000020: 008a 9abd f357 643f 83db 73bf 991e 20bf
00000030: b4c9 8e3e ce70 e7bd 92b7 b6bd 027f 74bf
00000040: bf9e efbe 213e f73e 1a70 2dbf 096b bd3e
00000050: 2678 f13e 0746 c5be 4afe 4eba 19c4 68bf
00000060: dc65 40be 1e4f 3cbf 484c 9abf a937 d8be
00000070: 6006 12bf c9a1 79bd 0acd 953e 0af8 5b3e
00000080: ddfa 29be 1ade 88bf 43bd 81bf 46d6 8a3f
00000090: 20bc db3d 59c4 c23e d46d 0e40 a2c4 4d3e
-1.1597849 -0.33742905 0.31466419 0.04141184 0.236284 -1.3290356 -0.2124058 -0.736835
-0.07545853 0.891967 -0.95256823 -0.6254669 0.27888262 -0.11300813 -0.08921732 -0.955063
-0.468008 0.48289588 -0.6774918 0.36995724 0.47161978 -0.3852999 -0.00078961684 -0.9092422
-0.18788856 -0.73558223 -1.2054529 -0.42229965 -0.5704098 -0.060945306 0.29257995 0.21481338
-0.16599603 -1.069278 -1.0135883 1.0846641 0.10729241 0.38040426 2.2254534 0.2009454

network.8.weight f4 [40, 40]
00000000: e484 80ba b885 a7ba 4bde b9ba 524b 2dbb
00000010: b17e cb3a 0d92 cdba 08e7 d6ba 8cba a4ba
00000020: c3d4 703b c9d6 ecb9 3849 983b 28c8 c3bb
00000030: 3da4 1d3a a2e0 83ba 74dd f43b 3ce4 f73b
00000040: fc45 30bb 94d0 7e3b 57f5 f8ba cd97 3cbb
00000050: 1619 0a3b d074 4ebb 8d7f 3d3b 7396 30bb
00000060: 254e c9bb abdc 1a3b 6e3e 3e3b 12a9 a6bb
00000070: fd40 0c3b 4087 813b 7539 a3bb 4995 c3bb
00000080: feb1 733b 4ad0 9dbb af7f 533b 7ce9 8abb
00000090: 8db6 c63b da73 14ba 145f 9c3b 7a60 9f3b
000000a0: 80f4 a5bd d05a 33bf 3093 033f f6e3 1e3e
000000b0: 1350 18bf dbcf 64be da09 c6bd 3223 b6be
000000c0: f891 d93d 5dac 84be 44af ec3d 9e2d e93e
000000d0: a673 99bc 716b c63e 64b1 bb3d 644e 4c3d
000000e0: 4141 03bf 2261 7c3e 720a d03e 3043 743f
000000f0: 60d6 aabc cc2d 5abd eb5d 78bd d0cc b13d
00000100: 25dc 0a3c 1774 543e 9bf0 26be a2ad 763e
00000110: 2ce8 87bc 5763 5abf f04a 4dbd bc0e 4ebf
00000120: cde7 863e babd 063f 207e d03d 4bc1 d7be
00000130: a705 d73b f227 65be 5546 1b3f 6fec c93e
00000140: 14d4 333e 7c24 0dbf 7d56 dcbe fe91 0cbe
00000150: eab2 3f3f 8848 943e 6695 5d3e 0af5 3ebd
00000160: 87dd 603d 653e 1bbe 7015 5cbd 319c b4bd
00000170: 4b63 823e 9b9d 743d 9744 c138 9e9c 8abe
00000180: 08eb b83e 691b 42be e8c1 0a3c 69fe 31bf
00000190: 93ba 99bd d475 373c a16b 8e3d bc22 d2be
000001a0: c68d 93be ad12 d3be b87c 073d 7774 45be
000001b0: 3c27 23be c6dc 78bd 569b ba3c 20fd 253e
000001c0: 5a0a f6bd e99d d4bd 0942 66bf 9bba be3e
000001d0: 3458 41bd 42ee 793e 9c61 09bf 5b29 35be
000001e0: dfb7 513a cd46 40ba b5ec 69ba e6b2 10bb
000001f0: 28c7 a33b b78d 963b dfb5 b1b9 86d9 dfbb
00000200: b310 6fba d69e 47bb d5a3 b33b fd22 923b
00000210: 9b8d 803b 7671 22bb b7ba 1abb 62cf 88bb
00000220: 307d 33bb 731d c83b 5663 6bba cb7b 63bb
00000230: 8b83 7e39 5ae3 593a cfd6 103b 9453 21b9
00000240: 6958 30bb 27bf 01bb a5ff ce3a 149c 84b9
00000250: aa2d 85ba e0f8 433b f7e1 9dba 407b 973a
00000260: 15e3 a1ba 25bd 41bb 2a79 6b3a de1b ebbb
00000270: c10a ea3b fbd1 0abb fcf4 b13b b342 653b
00000280: 32e9 9ebe db14 063f 5929 6c3e 281b f9bd
00000290: c420 e93d bccd c43e 862a 523d 31c1 873e
000002a0: 1f33 433d 5bb8 8e3d a561 c6bd 78d1 f03c
000002b0: 0394 f1bd bc39 753e 653f 95bd 581c 803d
000002c0: 2031 a3be 2e74 8c3d df84 fc3d b3f6 30be
000002d0: 2680 813e 6bef 8abe bbe0 a7be 2911 a73e
000002e0: da23 dfbd 1d2d 59be c840 33bd 65aa 3bbe
000002f0: ab72 2a3e 5357 fb3d 70c0 86bd 466b dcbd
00000300: 2169 06bd 26c1 8fbd 55af a3bd e226 00be
00000310: cd08 64be e1f5 9a3e 1054 523e 0e44 6fbd
00000320: f7af 50ba 44e4 4c3b 2cc3 a8b8 18d4 453b
00000330: 644b a0bb ddbf 233b 0271 123b 3984 793b
00000340: 9a30 29bb 51c5 e73a bc83 58bb 33e9 8b3a
00000350: 8bfc 58bb 4875 f03a 6936 9cbb 80c0 14bb
00000360: 55ec d939 b486 b6bb fe2e 803b 4e04 8c3b
00000370: 8fdd e43a 204a 443b e4a3 96bb 35ae 743b
00000380: ce0b 013c 0149 003b 4762 5dba e0a5 243b
00000390: e13b 08bb ceff 8d3a 1fb6 853b 039e a63b
000003a0: 1322 2eba f00d 07b9 8525 e1ba 0b15 ef3b
000003b0: 8f72 bcbb 2966 833a c483 8fba b382 42bb
000003c0: e0d2 ac3e 9542 cd3f 8cfc 183e bbb2 383e
000003d0: 0b2a 083d f079 a13e 0acd c4be a23a ac3e
000003e0: 7dce 06bf da83 91bf 9ab1 3abf 75e0 40be
000003f0: b8ff 283e 4b1c aebf 0739 ddbe 64d3 e03c
-0.000980523 -0.001278094 -0.0014180628 -0.00264426 0.0015525428 -0.0015683785 -0.0016395757 -0.0012567802
0.003674791 -0.00045173455 0.0046474 -0.005974788 0.0006013548 -0.0010061453 0.0074726883 0.0075650495
-0.0026897183 0.0038881646 -0.0018994015 -0.0028777004 0.0021072081 -0.003150273 0.0028915138 -0.0026945143
-0.0061433488 0.0023630064 0.002902891 -0.0050860727 0.002140104 0.0039528906 -0.0049812146 -0.005968724
0.003718495 -0.0048160898 0.003227215 -0.0042392593 0.006064242 -0.0005663015 0.0047720764 0.004863796
-0.08103275 -0.70060444 0.51396465 0.15516648 -0.59497184 -0.22344916 -0.09669848 -0.35573727
0.106235445 -0.25912753 0.11556867 0.45542616 -0.018731903 0.38753846 0.09164694 0.049879447
-0.51271445 0.24646428 0.4063297 0.9541502 -0.020854175 -0.05326633 -0.060636442 0.08681643
0.008475338 0.2074741 -0.16302721 0.24089673 -0.0165902 -0.8530783 -0.050120294 -0.8049123
0.26348725 0.5263325 0.101803064 -0.42139658 0.006561953 -0.22378519 0.60654193 0.39438197
0.1756137 -0.55133796 -0.43034735 -0.13727567 0.74882376 0.28961587 0.21639022 -0.046620406
0.054898765 -0.1516052 -0.053731382 -0.08818854 0.2546638 0.059720617 9.215733e-05 -0.27072614
0.36116815 -0.18955769 0.008469082 -0.69528824 -0.07506289 0.011197526 0.06954122 -0.41042125
-0.28819102 -0.41225186 0.033077925 -0.19282709 -0.15932935 -0.06075742 0.022779148 0.16209841
-0.12013693 -0.103816815 -0.8994451 0.37251744 -0.047203258 0.24407294 -0.53664565 -0.17691557
0.0008000116 -0.0007334769 -0.0008923517 -0.0022079288 0.0049981065 0.0045945304 -0.00033895575 -0.0068313507
-0.0009119615 -0.0030459664 0.005482177 0.0044597373 0.0039231307 -0.0024786866 -0.0023609826 -0.0041751126
-0.002738785 0.0061070262 -0.0008979341 -0.0034711238 0.00024272331 0.0008311771 0.0022100692 -0.00015385292
-0.0026908165 -0.0019797774 0.0015792741 -0.0002529329 -0.0010160704 0.002990298 -0.0012045492 0.0011557117
-0.0012351001 -0.0029562202 0.00089825934 -0.007174953 0.0071423952 -0.0021182287 0.0054308157 0.0034982383
-0.3103729 0.5237557 0.23062648 -0.12163383 0.11383203 0.38438213 0.051310085 0.2651458
0.047656175 0.06968757 -0.09686593 0.029396757 -0.11795809 0.23947805 -0.07287482 0.06255406
-0.31873417 0.06858097 0.12330031 -0.17281608 0.25293082 -0.27135786 -0.32788643 0.3263028
-0.1089551 -0.21208616 -0.043762952 -0.18326719 0.16645305 0.12272515 -0.06579673 -0.10762648
-0.032815102 -0.07019262 -0.07992426 -0.12514833 -0.22268982 0.30265716 0.2053988 -0.05841451
-0.0007960791 0.0031263987 -8.047218e-05 0.0030186232 -0.0048917998 0.0024986186 0.002234519 0.0038073196
-0.0025816322 0.0017682706 -0.0033037504 0.0010674357 -0.0033109512 0.0018345499 -0.0047672284 -0.0022697747
0.00041565546 -0.005570257 0.003911852 0.004272974 0.0017461049 0.0029951409 -0.004597174 0.003733528
0.00787635 0.0019574764 -0.00084451254 0.0025123283 -0.0020787644 0.0010833682 0.0040805484 0.0050847544
-0.00066426507 -0.00012879795 -0.0017177319 0.0072962097 -0.005750961 0.0010024953 -0.0010949303 -0.0029679954
0.33754635 1.6035944 0.14940089 0.1803693 0.03324322 0.31538343 -0.38437682 0.33638483
-0.52658826 -1.1368363 -0.7292725 -0.18835624 0.16503799 -1.3602384 -0.4320757 0.027444549

network.8.bias f4 [40]
00000000: 2f50 a5bb 4ee1 51bf d9ea 0e3e b13a 08ba
00000010: e012 47be ad79 64bb 9d1e 5abf 17de a23b
00000020: 7648 c33e a5a8 243b 06d9 ed3e 7031 f93b
00000030: 4368 103f 2722 70bb 4733 9cbf 56c0 c5bf
00000040: bcb6 0f3a deb3 d2bb a83f 133f 56df f03e
00000050: edc0 6abb 93ec fd39 9122 383e 571c b4ba
00000060: 7d8a 91bb ab82 ea3a f243 b33a 4e2e 773d
00000070: b0be a33a a61b 85ba 7c36 df3e 9520 033c
00000080: 86c2 253a e9e7 73be c5a4 263f 0118 23bf
00000090: 53f7 143b 52a2 263b 6b70 0c39 0b70 71bb
-0.005044959 -0.8198441 0.13956775 -0.0005196734 -0.19440794 -0.0034862563 -0.8520296 0.004970323
0.3814122 0.0025124934 0.46454638 0.0076047704 0.5640909 -0.003664145 -1.2203149 -1.5449321
0.00054822466 -0.0064301332 0.57519007 0.47045392 -0.003582056 0.00048432182 0.17981936 -0.0013741356
-0.004441558 0.0017891725 0.0013676865 0.060346894 0.0012492742 -0.0010155335 0.43596256 0.008003374
0.0006323237 -0.23818935 0.6509517 -0.637085 0.0022730425 0.002542634 0.0001339332 -0.0036840464

network.10.weight f4 [1, 40]
00000000: 33d6 dbba 0451 c43d fbd0 4bbe 644f 27bb
00000010: 1311 db3d f62b 4d3b adb5 0fbe 6336 4b3b
00000020: e5e4 5e3e cfff 543a 6f2a 863d dbb2 2b3a
00000030: 4c3d 0d3e 715c bbb9 7b46 2d3e 6ea0 da3d
00000040: 9a37 31b9 7612 e73a dd79 d73d 0ae3 1a3e
00000050: 6225 5ebb 095a 04ba 6aae cf3d 998c 063b
00000060: 1e01 553b e872 bcb7 6081 0e3a f513 23be
00000070: f509 45bb b13f 17bb de9f 8dbd ec65 073b
00000080: e399 26bb c8d2 0b3e 57c2 aebd 8541 02be
00000090: 7962 50bb 3530 7e3a 0964 203a 78fa 3b39
-0.001677221 0.09585765 -0.19903938 -0.0025529498 0.10696616 0.003130672 -0.14034148 0.0031007759
0.21767004 0.00081252767 0.06551062 0.0006549784 0.13792914 -0.00035736294 0.16921417 0.10675131
-0.00016900749 0.0017629403 0.105212905 0.15125671 -0.0033896794 -0.00050488167 0.10140689 0.002053058
0.0032501887 -2.2464854e-05 0.00054361485 -0.15925582 -0.003006575 -0.0023078735 -0.06915258 0.0020660115
-0.0025421313 0.13654625 -0.08533161 -0.12720306 -0.0031796976 0.00096965145 0.0006118422 0.00017927017
