injector_surrogate/results/model_1.pth (torch, 2903 bytes, 5 tensors)

linear1.weight f4 [10, 9]
000000 c6 75 c0 bc fc 3d b7 3c b1 71 6e 3e 68 8f 47 3f
       -0.023493659 0.022368424 0.23285557 0.77953196
000010 1f fd 29 3f cf e8 db 3d 58 d9 96 3d 22 cf 1c 40
       0.6640186 0.10737764 0.07365674 2.4501424
000020 c1 54 8f bf 02 12 6d 3d 1f 68 93 be 95 c7 5b bd
       -1.119774 0.0578785 -0.28790376 -0.053657133
000030 38 1d dc 3f 11 a2 76 3f 9d 90 f2 bf 8c f8 fd c0
       1.7196417 0.96341044 -1.8950382 -7.93659
000040 5d be cf c0 46 8b 51 c0 e3 bf 82 3f 16 23 55 be
       -6.4919877 -3.2741256 1.0214809 -0.20814165
000050 48 48 0e be 75 8c aa bf 2a 48 a2 3d 29 23 c5 3f
       -0.1389476 -1.3324114 0.079239205 1.5401355
000060 1e b3 4a 40 ef 80 85 c0 a8 92 f5 be e3 d3 98 3b
       3.1671824 -4.171989 -0.47963452 0.0046639307
000070 9e 7d 3f be dd be f2 bd 6c 09 77 bf 24 45 42 c0
       -0.18700263 -0.118528105 -0.9649875 -3.03547
000080 c3 96 c6 40 af 32 d1 40 e6 12 c5 3f 33 1a 42 c0
       6.2059035 6.537437 1.5396392 -3.032849
000090 7d ed a2 be 07 0d 6d be f7 2b 15 3e ef 7b 08 40
       -0.31821814 -0.23149501 0.14567553 2.1325643
0000a0 c7 e8 73 bf 37 42 eb 3f e2 3b b8 c0 e2 56 1b c0
       -0.95277065 1.8379582 -5.75731 -2.427178
0000b0 3d 48 3a be 27 0b 8f 3e 43 73 88 bb 1b 75 27 bd
       -0.18191619 0.27938196 -0.004164131 -0.040883165
0000c0 b7 bf 0c bf ec b7 ad 3e b9 ff d8 be 87 42 00 3d
       -0.54980034 0.33929384 -0.423826 0.031313445
0000d0 09 47 01 be 35 90 76 be a4 b8 9b 3e b7 74 85 be
       -0.12624754 -0.24078448 0.30414307 -0.2606561
0000e0 67 a8 1b be 09 7c ca bd c9 5c 93 bf 4d ee d7 3f
       -0.15200959 -0.09886939 -1.1512691 1.6869599
0000f0 44 c0 fb 3e 5c 4d e0 bf 03 4d 59 40 42 48 98 be
       0.49170125 -1.7523608 3.3953254 -0.29742628
000100 b3 ae 7a 3e 07 77 04 be 02 f5 4e 3f 56 e1 8d bf
       0.24480705 -0.1293603 0.808426 -1.1084392
000110 0a c8 b9 3f 59 21 f5 bd 7a 4a 0d bf 0c ac 6f 3f
       1.4514172 -0.11969251 -0.5519177 0.936219
000120 87 79 3b bc b4 69 94 3e 23 d4 29 bd f3 77 47 bf
       -0.011442549 0.28986895 -0.041462075 -0.77917403
000130 54 7a b4 be d5 2c c8 3f f6 07 a0 bf 27 d9 64 bf
       -0.3524958 1.5638682 -1.250243 -0.8939385
000140 24 aa 80 bf 7d df 08 3e ea 8a 92 3e f9 ed 52 be
       -1.0051923 0.13366504 0.28621608 -0.20598592
000150 61 f3 99 bf 18 10 ac 3d 2b 86 1d 3f 47 f5 ab 3f
       -1.2027398 0.08401507 0.6153285 1.3434228
000160 ef ef 80 3f be b4 d4 bf
       1.0073222 -1.6617658

linear1.bias f4 [10]
000000 ec f4 93 be 89 05 4c bc 2a b7 a5 3f 46 fa ab be
       -0.28897798 -0.012452492 1.2946522 -0.3358938
000010 0a 9c 76 bf 03 98 03 3f 79 de 64 3e 5b 7f 90 be
       -0.96331847 0.51403826 0.22350492 -0.28222165
000020 ad 67 41 bf c8 4e f9 3e
       -0.7554882 0.48692918

linear2.weight f4 [10, 10]
000000 1b 9c 64 3e e9 ee 0f 3f 02 36 c5 be 74 97 84 be
       0.22325175 0.5622392 -0.38517767 -0.258968
000010 ea 5a 47 be 73 87 44 3f 93 90 a5 be e8 c7 23 bf
       -0.19468275 0.7676918 -0.32336864 -0.6397691
000020 b7 09 25 bf 86 c2 16 3f cc 33 63 be 57 b8 33 bf
       -0.6446795 0.5889057 -0.22187728 -0.70203155
000030 53 2c 5a 3f 75 a1 ed 3e a0 97 95 3e 86 a1 36 bf
       0.85223883 0.46412244 0.29217243 -0.71340215
000040 9f f8 33 3f 4c 9e 6c 3f 6f b9 c4 3e 72 5f 34 be
       0.7030124 0.9242904 0.38422725 -0.17614534
000050 50 e4 cd 3e a9 23 cd 3f ac 6e 92 3f 26 70 50 bf
       0.4021325 1.6026508 1.1440024 -0.81421125
000060 c3 84 d9 3e 02 76 06 3f 31 cd d9 3d 73 28 1b bf
       0.42484102 0.52523816 0.1063484 -0.60608596
000070 07 80 9f be 38 47 9b 3f 72 75 35 c0 5e 3b 19 3f
       -0.31152365 1.2131109 -2.8352933 0.5985621
000080 73 fa 08 bf 67 fe da 3f c8 87 59 bf 81 b1 a2 bc
       -0.53507155 1.7108887 -0.8497281 -0.019860031
000090 c2 b3 01 40 23 f7 32 3f 59 cc 15 bf db f8 11 3f
       2.0265965 0.6990835 -0.58514935 0.5702035
0000a0 cc 4f 72 bd 21 22 c9 bf e8 81 64 bf 86 b6 d2 3f
       -0.05915813 -1.571354 -0.8926072 1.6461952
0000b0 0f 05 13 3e f6 b1 48 bf b3 1f 8d 3f 84 e4 bb 3f
       0.14357398 -0.78396547 1.1025299 1.4679112
0000c0 66 c5 d1 3f cf fb ad be ad a6 f7 3e 3b 8b cd 3e
       1.6388366 -0.33981177 0.4836935 0.40145287
0000d0 e0 62 ac bf 63 4b fb be d3 59 06 3f 35 54 f4 3e
       -1.3467674 -0.49080953 0.5248081 0.47720495
0000e0 54 5c 1b bf b7 1b 2b bf a9 5e 1c bf 01 87 1e 3e
       -0.60687757 -0.66839164 -0.6108194 0.15481187
0000f0 62 de 8b 3e 93 b0 ef be 44 19 88 3f 53 36 01 40
       0.27318102 -0.46814403 1.063271 2.0189407
000100 b0 a1 ba bf 14 5c 91 3f 5e 54 bc be 72 ac a5 3d
       -1.4580593 1.1356225 -0.36783117 0.08089532
000110 7d c0 e2 3f 01 7b 82 be ae 17 0e bf 40 03 11 bc
       1.7714993 -0.2548447 -0.5550488 -0.0088508725
000120 f0 e7 74 bf e4 89 af 3f 46 80 cc 3d 23 fb ad bf
       -0.9566641 1.3713956 0.09985404 -1.3592266
000130 ef e9 b8 3f 16 2a 2e 40 e6 71 87 3f 97 81 9f bf
       1.4446391 2.7213187 1.0581634 -1.2461423
000140 32 11 c2 3f 12 8d c4 be 17 09 63 3f 9e 8d fc 3f
       1.5161498 -0.38388878 0.88685745 1.9730718
000150 bc 9d 58 3d 03 c5 ee be d5 04 f1 bf ef c2 05 3f
       0.052884802 -0.46634683 -1.88296 0.5225057
000160 ca 44 62 3e fd fb 78 3f 37 bc 25 40 25 92 0c 3f
       0.22096553 0.97259504 2.5896127 0.549105
000170 6e b5 52 3e 56 fe ef 3e 40 45 46 3f d5 9f 7a 3f
       0.20577022 0.4687373 0.7744942 0.97900134
000180 85 ce 40 bf f3 52 4a be 6e 61 75 be 6f aa 1d 3f
       -0.75315124 -0.19758205 -0.23962948 0.61588186

linear2.bias f4 [10]
000000 cb d0 79 3f 66 ae 6a bf a1 18 cd 3d bd 73 26 3d
       0.9758422 -0.9167236 0.10014463 0.04063772
000010 6e f0 40 bf d3 4d d0 3e 79 68 94 3f d5 ee de bf
       -0.75366867 0.40684375 1.1594383 -1.7416636
000020 ac ba d6 be 18 90 22 3f
       -0.41939294 0.6350112

linear3.weight f4 [1, 10]
000000 99 5c 5a c0 7a 21 6f 40 a4 79 f6 3f 9a f5 82 c0
       -3.4119017 3.7364182 1.9255872 -4.0924807
000010 ec 1f 52 c0 51 d5 4e c0 f0 1a 50 c0 2b 46 8f c0
       -3.2831984 -3.2317698 -3.2516441 -4.4773154
000020 06 b7 7b 40 93 30 91 c0
       3.9330459 -4.5371795
