injector_surrogate/results/model4_3hidden_30nodes_1000epoch_0.01_-5.pth (torch, 15495 bytes, 9 tensors)

network.0.weight f4 [30, 9]
0	0x3fe2ed01	1.7728578
1	0xbf215dfa	-0.6303402
2	0x3efaa457	0.48953506
3	0x3e62062e	0.2207267
4	0x3c3813dc	0.011235204
5	0xbda47720	-0.08030534
6	0xbe53ec26	-0.20695552
7	0xbdb160ed	-0.08661065
8	0xbe0ade60	-0.13561392
9	0x3d28e0f8	0.041230172
10	0xbdd413bf	-0.10355329
11	0xbc6b2238	-0.01435142
12	0x3e3e8751	0.18606307
13	0xbdaedb3e	-0.08537911
14	0xbe46f47a	-0.19429198
15	0xbf0c347d	-0.5476759
16	0x3fcfdbac	1.6238914
17	0x3e57525b	0.2102751
18	0xbfbd06ff	-1.476776
19	0x3c94572a	0.01810797
20	0x3dc6d109	0.09707839
21	0x3ec71070	0.38879728
22	0xbe074a7d	-0.13212009
23	0x3e03fad0	0.12888646
24	0x3f06f2d7	0.52714294
25	0x3d98d72c	0.07462916
26	0x3f1242c5	0.5713313
27	0x3f4d7211	0.80252177
28	0xbcda682a	-0.026660997
29	0x3ea2cbe9	0.31796196
30	0xbe93f9de	-0.2890157
31	0xbe0bf231	-0.13666607
32	0x3f500fe4	0.8127425
33	0x3f1cee74	0.6130135
34	0xbd6d6011	-0.057952944
35	0x3e20efe4	0.15716511
36	0xbe8d3bed	-0.27584782
37	0xbd5112fa	-0.051043488
38	0xbd1fbee5	-0.03900041
39	0x3e0bc20d	0.13648243
40	0xbe2fc571	-0.17165162
41	0x3f555ecb	0.8334777
42	0x3f4f2c1a	0.8092667
43	0x3de5ea6b	0.11226352
44	0x3e753be0	0.23948622
45	0xbe21def3	-0.15807705
46	0x3ed0cfc5	0.40783516
47	0x3ee87d7f	0.45408246
48	0xbe209a1e	-0.15683791
49	0xbdf808e3	-0.1211107
50	0x3dd7d9db	0.105395995
51	0x3df62eca	0.12020643
52	0xbf5f8b01	-0.8732148
53	0xbfbd6ad3	-1.4798225
54	0xbe9a2f20	-0.3011408
55	0xbe17f0f3	-0.14838009
56	0x3e2a5379	0.16633405
57	0x3d878976	0.066180155
58	0x3e87f480	0.26553726
59	0xbeee9b23	-0.46602735
60	0xbe18130d	-0.14851017
61	0xbe671090	-0.22564912
62	0xbff0b991	-1.880663
63	0x3e3fd221	0.18732502
64	0x3fad6273	1.3545669
65	0x3fb21632	1.3913023
66	0x3e8ed1c9	0.27894428
67	0x3d6a94a9	0.05727068
68	0x3d420e3c	0.047376856
69	0x3c898c0f	0.016790418
70	0xbe219b7c	-0.15781969
71	0xbd92ac9c	-0.07161829
72	0xbf8de905	-1.1086737
73	0xbc0e36cf	-0.00868006
74	0x3eb26971	0.3484607
75	0xbe98532d	-0.29750958
76	0x3e1519c9	0.14560618
77	0xbf2fb87a	-0.68640864
78	0xbed96ddd	-0.42466632
79	0x3ee2a3ad	0.442655
80	0x3ee5abed	0.4485773
81	0x3f32bdb3	0.6982071
82	0x3e7db596	0.24776301
83	0xbe919eb9	-0.28441408
84	0xbfe9456e	-1.8224313
85	0xbffa0c06	-1.9534919
86	0x3f08f25e	0.5349482
87	0x3eae85ed	0.34086552
88	0x3cd74fb0	0.026283115
89	0x3e52f516	0.20601305
90	0xbf4e2875	-0.8053048
91	0x3c41822e	0.011810822
92	0x3e9a13aa	0.30093127
93	0x3f1951b7	0.5989031
94	0x3f29dba3	0.66350764
95	0x3e870b0c	0.26375616
96	0xbe6d0a1c	-0.23148388
97	0xbd2b11c7	-0.041765
98	0x3eeee38c	0.4665798
99	0x3f6e26e2	0.9302808
100	0x3cd2807b	0.02569603
101	0xbf52b023	-0.82300013
102	0x3e2f72d6	0.1713365
103	0x3ee3c127	0.444833
104	0xbe68ba83	-0.22727399
105	0xbe21e74e	-0.15810892
106	0xbc82a2c0	-0.015946746
107	0xbd85d539	-0.065348096
108	0x3ee9dd7d	0.45676795
109	0x3e810e8d	0.25206414
110	0x3efbf988	0.49213815
111	0xbd960a57	-0.07326191
112	0x3d6034bf	0.054737803
113	0xbe416c28	-0.18888915
114	0xbe5162da	-0.20447865
115	0x3f0b1c19	0.5433975
116	0x3f82626c	1.0186286
117	0xbe0fc2ac	-0.14039105
118	0xbc92d50c	-0.017923854
119	0xbd3f3e56	-0.046690308
120	0xbf274092	-0.653329
121	0xbfb9403b	-1.4472727
122	0xbf48fc18	-0.78509665
123	0xbfd23e85	-1.642533
124	0x3eb72f77	0.357784
125	0x3d8c3244	0.06845525
126	0xbe822852	-0.25421387
127	0xbe0c688b	-0.13711755
128	0xbe044e77	-0.12920557
129	0xbe8cfcf0	-0.27536726
130	0xbf2a8cd4	-0.66621137
131	0xbe8c34cb	-0.27384028
132	0xbcf350a6	-0.029701542
133	0xbd042d02	-0.032269485
134	0xbe19a216	-0.15003237
135	0xbf572b81	-0.84050757
136	0x3f57718e	0.84157646
137	0xbe55d8c1	-0.20883466
138	0x3e2210a4	0.1582666
139	0x3ea204e3	0.31644353
140	0xbe560718	-0.20901144
141	0xbe0a4d2f	-0.13506006
142	0xbe51641e	-0.20448348
143	0xbecf4bfc	-0.4048766
144	0xbd079432	-0.033100314
145	0xbf13e90b	-0.5777747
146	0x3dab80e8	0.08374196
147	0xbf12d2af	-0.5735273
148	0xbec5ed4c	-0.38657606
149	0x3e49e070	0.19714522
150	0x3e92a8aa	0.28644305
151	0xbeb20a16	-0.3477332
152	0xbebef20f	-0.3729405
153	0xbe8de2b3	-0.2771202
154	0x3db4d1cd	0.08829079
155	0xbd8c2aaf	-0.06844079
156	0x3d751870	0.05983776
157	0xbea58ccf	-0.3233399
158	0x3f084050	0.53223133
159	0x3ff62a48	1.9231653
160	0xbfa61ee7	-1.2978181
161	0xbf729daf	-0.94771856
162	0x3d9104e4	0.07081011
163	0xbd154cee	-0.03645032
164	0xbd4c757b	-0.049916726
165	0xbdd41738	-0.10355991
166	0x3d26a7c4	0.040687338
167	0x3f19a9ed	0.6002491
168	0x3fc79b15	1.5594202
169	0x3fd2f126	1.6479843
170	0x3dbfce52	0.09365524
171	0x3df656ef	0.120283
172	0xbc3ce115	-0.011528273
173	0xbc7315f9	-0.014836782
174	0xbe84140a	-0.2579654
175	0x3eb6d16e	0.35706657
176	0x3ea4e7be	0.32208055
177	0xbf0e6260	-0.5561886
178	0xbfa98be9	-1.3245822
179	0xbf41aa0b	-0.7565009
180	0x3f7d1225	0.9885581
181	0x3e0e9525	0.13924082
182	0xbe125e19	-0.14293708
183	0x3e3e7486	0.18599138
184	0xbe5d21c0	-0.21594906
185	0xbeffbb5f	-0.4994764
186	0xbeb318d1	-0.3497987
187	0xbebe460e	-0.37162822
188	0xbe11cddd	-0.14238687
189	0x3d93f82e	0.07225071
190	0x3e906b83	0.28207025
191	0xbeb8e4cd	-0.3611206
192	0x3e8b93d3	0.27261218
193	0x3ea02f10	0.31285906
194	0x3ed3cfb4	0.41369402
195	0x3eaedcb0	0.34152746
196	0x3f0e9e02	0.5570985
197	0x3f2f584d	0.6849411
198	0x3f6b0806	0.9180912
199	0xbe7010b6	-0.23443875
200	0x3e097a62	0.13425592
201	0xc0086794	-2.131322
202	0xbf49f3da	-0.7888771
203	0xbd3ffb40	-0.04687047
204	0x3e5e052c	0.2168166
205	0x3f0b3b8b	0.5438773
206	0x3ec65858	0.38739276
207	0xbd38167f	-0.04494333
208	0xbdb794ba	-0.08963914
209	0x3d8c8baa	0.06862576
210	0x3e4a29b0	0.19742465
211	0x3d05f4b3	0.032704066
212	0xbf165c78	-0.58734846
213	0x3ffb6983	1.9641575
214	0xbf35546f	-0.7083196
215	0xbea6f7af	-0.32610843
216	0xbe89f8a6	-0.26947516
217	0xbd2c23ae	-0.042026214
218	0x3e428c63	0.18998866
219	0xbf366bb1	-0.71258074
220	0xc00b5e3f	-2.1776273
221	0xbd7a075b	-0.06104217
222	0x3eb1ad67	0.34702608
223	0xbd1419a6	-0.036157273
224	0x3d6b5264	0.05745162
225	0xbe8c98b6	-0.2746026
226	0xbf05f86f	-0.52332205
227	0xbe50f679	-0.20406522
228	0x3eceda31	0.40400842
229	0x3e92e2c5	0.28688636
230	0x3dcbf909	0.09959609
231	0xbe8d67b1	-0.27618173
232	0x3e05fbbb	0.13084309
233	0x3ef34a64	0.47517693
234	0x3ea71e71	0.32640412
235	0x3cdcfba9	0.02697547
236	0x39c68844	0.0003786703
237	0x3f1f413a	0.622089
238	0x3e15efd5	0.1464227
239	0xbd647521	-0.055775765
240	0xbea36b52	-0.31917816
241	0xbf349d49	-0.705525
242	0xbfa3ed87	-1.2806863
243	0xbeb67cee	-0.3564219
244	0x3e0a59d6	0.13510832
245	0xbdb35a4a	-0.08757456
246	0xbe918d8d	-0.28428307
247	0xbded2fc5	-0.11581377
248	0x3ff60703	1.922089
249	0x3fb2507d	1.3930813
250	0xbe3a9661	-0.18221428
251	0xbeedffef	-0.46484324
252	0xbea8e5d1	-0.32987836
253	0xbe018057	-0.12646614
254	0xbc82f071	-0.015983792
255	0x3eb5bd1e	0.35495847

network.0.bias f4 [30]
0	0xbfd45c3d	-1.6590649
1	0xbf9b9416	-1.2154567
2	0x3e8df2da	0.27724344
3	0xbf5d670b	-0.86485356
4	0xbf982ccb	-1.188867
5	0x3ea9df0d	0.33177987
6	0x3ed835d4	0.42228568
7	0xbf08c194	-0.53420377
8	0x3e800a48	0.25007844
9	0x3ee1be20	0.44090366
10	0xbf1652a8	-0.58719873
11	0x3eccf636	0.40031594
12	0xbf401d5b	-0.7504479
13	0x3fc0af41	1.5053483
14	0x3f977c36	1.1834781
15	0x3ec413c7	0.3829634
16	0x3f5721f7	0.840362
17	0xbf0a9ac7	-0.5414242
18	0xbfce007c	-1.6093898
19	0x3f290cb5	0.66035014
20	0x3e24598f	0.16049789
21	0xbf8c6bdd	-1.0970417
22	0xbe749e89	-0.23888601
23	0xbf57d2e6	-0.8430618
24	0x3fcc418a	1.5957501
25	0xbe019568	-0.1265465
26	0x3f2f2ee4	0.68430924
27	0xbe798fb9	-0.24371232
28	0x3f91525d	1.135326
29	0xbf1ab005	-0.60424834

network.2.weight f4 [30, 30]
0	0x3da75d9f	0.08172154
1	0x3e1614dc	0.14656395
2	0xbd47a60d	-0.048742343
3	0x3e113c13	0.14183073
4	0x3f50e5f3	0.81600875
5	0xbe8bc966	-0.27302092
6	0x3c3a90a3	0.011387023
7	0xbeb20b1f	-0.3477411
8	0xbf1facf9	-0.6237331
9	0xbe979d38	-0.29612136
10	0x3e8cc7cf	0.27496192
11	0xbed4f36f	-0.41591975
12	0xbe2a123d	-0.1660852
13	0xbe85d95c	-0.26142395
14	0xbc594cc5	-0.013262932
15	0x3e777772	0.24166659
16	0xbe8a937f	-0.27065656
17	0x3e62a7f3	0.2213438
18	0xbe67ed0d	-0.22649021
19	0x3e2d645f	0.1693282
20	0xbf2c61a9	-0.6733652
21	0x3dd6e389	0.10492618
22	0xbed84413	-0.42239437
23	0xbec58f5e	-0.38585943
24	0xbea6db8b	-0.32589373
25	0xbe75969d	-0.23983236
26	0x3e45e0f2	0.19324091
27	0xbefbbf3e	-0.49169344
28	0xbea265cd	-0.31718293
29	0x3d7ec248	0.062197
30	0x3efc9fc7	0.4934065
31	0xbf4f59d2	-0.8099643
32	0x3dd3a8ec	0.10334954
33	0x3e2024c9	0.15639032
34	0x3fc2bc2c	1.5213675
35	0xbf1dbd74	-0.6161721
36	0x3e76c3f7	0.24098192
37	0xbe0616b1	-0.13094594
38	0x3e3b9857	0.18319832
39	0xbf5e6514	-0.8687298
40	0xbf0599b4	-0.5218766
41	0x3e6191b1	0.22028233
42	0x3ec2ebe8	0.38070607
43	0x3d11d8d7	0.035607185
44	0xbef29151	-0.47376493
45	0xbe75cc77	-0.24003778
46	0xbf059577	-0.5218119
47	0x3ed4245a	0.41433984
48	0xbf85bba1	-1.0447885
49	0xbed569bb	-0.41682228
50	0x3b5ae40f	0.0033400094
51	0xbe23cf73	-0.15997104
52	0x3e99bda4	0.30027497
53	0xbdb385c3	-0.087657474
54	0xbe54643c	-0.20741361
55	0xbdb5d535	-0.08878557
56	0xbd12db37	-0.03585359
57	0x3f080db5	0.53145915
58	0xbecf1d5e	-0.40452093
59	0x3dc8ca70	0.09804237
60	0x3eb8061b	0.35942158
61	0xbd3fc645	-0.046819944
62	0xbdc51152	-0.09622444
63	0xbeaee671	-0.34160188
64	0x3cba4537	0.022738082
65	0x3e9b12aa	0.30287677
66	0xbf0381c1	-0.51369864
67	0xbdda3460	-0.10654521
68	0x3ef571af	0.47938296
69	0x3f02be8a	0.5107199
70	0x3ecbab8e	0.39779323
71	0xbed2883b	-0.4111956
72	0xbe0071b2	-0.12543371
73	0x3deabd17	0.11461847
74	0xbf343bc4	-0.70403695
75	0x3e9d6320	0.3073969
76	0xbe284c4d	-0.16435356
77	0xbe5f7c70	-0.21824813
78	0x3ea549f0	0.32282972
79	0xbcfce18a	-0.030869264
80	0xbdb16296	-0.08661382
81	0x3e8eaad1	0.27864698
82	0xbeba2eac	-0.36363733
83	0x3df74f8e	0.12075721
84	0x3e5195df	0.20467328
85	0x3f0d9db6	0.5531877
86	0x3d342105	0.043976802
87	0xbf86df57	-1.0536908
88	0x3eb01f2b	0.3439878
89	0x3e322197	0.17395626
90	0x3db2c634	0.087292105
91	0x3fc5976a	1.5436833
92	0x3ea9a038	0.3313005
93	0xbe19cc73	-0.15019397
94	0x3f8dd877	1.1081685
95	0xbf4d218a	-0.801293
96	0xbf07b3c0	-0.5300865
97	0x3ed6cd97	0.41953728
98	0x3df7edb3	0.121058844
99	0x3dca3a0a	0.09874351
100	0x3e2f4859	0.17117442
101	0x3e75729e	0.23969504
102	0x3f69414f	0.9111528
103	0x3e3e13d4	0.18562251
104	0xbf61288e	-0.87952507
105	0xbd93360b	-0.07188042
106	0xbe309eaf	-0.17248033
107	0x3f169bbe	0.58831394
108	0x3ff81fe1	1.9384729
109	0x3f10d944	0.5658152
110	0xbcc17499	-0.023615168
111	0x3dc9d8ff	0.09855842
112	0x3e428671	0.18996598
113	0x3c6d8ed9	0.01449939
114	0x3a6fe0d9	0.00091506314
115	0x3ebe06f0	0.37114668
116	0xbf2b76ea	-0.66978323
117	0xbf0ac43d	-0.54205686
118	0xbddc0ef7	-0.10745042
119	0x3d7e6830	0.06211108
120	0x3e8cf44d	0.27530137
121	0xbf9c4c1b	-1.2210726
122	0xbdff0605	-0.1245232
123	0x3e62715a	0.22113553
124	0x3e430bc9	0.19047464
125	0x3c5f830a	0.013642082
126	0x3eb0e64f	0.34550712
127	0xbe19630d	-0.14979191
128	0xbe97e529	-0.29667023
129	0x3e6a4fb3	0.22881965
130	0x3e2d826a	0.1694428
131	0xbe8603d3	-0.26174793
132	0xbec43804	-0.38323987
133	0x3f4fe3ba	0.8120686
134	0xbd12982a	-0.035789646
135	0x3f1b9c25	0.6078513
136	0x3d0592c3	0.032610666
137	0x3eba86bb	0.36430916
138	0xbe4f7b40	-0.2026186
139	0x3e310aed	0.17289324
140	0x3c8bca6c	0.017064296
141	0xbe32294c	-0.17398566
142	0xbe73fc08	-0.23826611
143	0x3e67dca4	0.22642761
144	0x3edd76c4	0.43254673
145	0x3de23bba	0.11046548
146	0xbdb6322b	-0.088962875
147	0x3d0f42ca	0.034975804
148	0x3f0c1f0c	0.54734874
149	0xbe4ce046	-0.20007429
150	0xbe5b3ec6	-0.21410665
151	0xbf323c8e	-0.6962365
152	0xbf10c25e	-0.5654658
153	0xbe6c5444	-0.2307902
154	0x3f1baaa0	0.6080723
155	0xbf339080	-0.70142365
156	0xbe1982be	-0.1499128
157	0xbdf1328c	-0.11777219
158	0xbd0c8483	-0.03430606
159	0xbec6f5a6	-0.3885929
160	0x3e9f5b3e	0.311243
161	0x3ea24ba9	0.3169835
162	0x3e129eb1	0.14318348
163	0x3f131073	0.57446975
164	0xbed0fd6a	-0.4081834
165	0x3e5d5d6c	0.21617669
166	0x3f201668	0.6253419
167	0xbe192c1d	-0.14958234
168	0x3d1bf120	0.03807175
169	0x3c6018e6	0.013677811
170	0xbed802e2	-0.421897
171	0x3cc5bbfd	0.024137491
172	0xbc120cd2	-0.008914189
173	0x3e3ef06c	0.18646401
174	0x3f2021de	0.6255168
175	0x3e34a544	0.17641169
176	0x3ec1bfbd	0.37841597
177	0xbca6b629	-0.020350533
178	0x3ba1cf51	0.004938044
179	0xbf17a888	-0.59241533
180	0x3ec7e092	0.3903852
181	0x3eacdf8a	0.33764297
182	0xbe2ebf52	-0.1706517
183	0xbdd5b44b	-0.10434779
184	0xbedb0aca	-0.4278167
185	0xbe8387fa	-0.2568968
186	0x3e961eaf	0.29320285
187	0xbda22d34	-0.07918778
188	0x3e94a8af	0.29034945
189	0xbf159188	-0.5842519
190	0xbddc2e25	-0.10750989
191	0xbbcb881d	-0.0062112943
192	0x3f026eda	0.50950396
193	0xbf7461fc	-0.9546201
194	0xbf4d213d	-0.8012884
195	0x3bd289bc	0.0064251106
196	0xbf006ec2	-0.50169003
197	0xbefa6eba	-0.48912603
198	0xbdc92f58	-0.09823483
199	0x3d2cfc39	0.042232726
200	0xbdad095c	-0.08449051
201	0x3d826696	0.06367223
202	0xbee54ff8	-0.44787574
203	0xbd5951ad	-0.053056408
204	0xbf954057	-1.166026
205	0x3f0ee146	0.5581249
206	0x3e92a9d1	0.28645185
207	0xbe5022dc	-0.20325798
208	0x3e63d0b9	0.2224759
209	0xbd1d0e70	-0.038343847
210	0xbe611913	-0.21982221
211	0x3e10f6a8	0.14156592
212	0x3f709351	0.93974787
213	0x3e2d1b7f	0.1690502
214	0x3e9a414e	0.3012795
215	0x3ef143f1	0.47122148
216	0xbeecf712	-0.4628225
217	0xbdd89910	-0.10576069
218	0x3fbb2657	1.4621075
219	0x3eb9d410	0.36294603
220	0x3ef8fca6	0.48630255
221	0x3dfbd70a	0.12296875
222	0xbf5b040b	-0.85553044
223	0x3d2732ab	0.040819805
224	0x3f5aeb49	0.85515267
225	0x3f8f1790	1.1179066
226	0x3ed0984f	0.40741202
227	0xbee2eaca	-0.44319755
228	0xbeb50f7e	-0.35363382
229	0xbe90f771	-0.28313783
230	0xbfbb093c	-1.4612193
231	0xbe8b7563	-0.27237996
232	0xbe92a141	-0.28638652
233	0x3d91556e	0.070963725
234	0x3e479a41	0.19492437
235	0x3e974563	0.29545125
236	0xbe17bc43	-0.1481791
237	0x3e1db7d2	0.15402153
238	0x3e35f249	0.17768206
239	0xbdeed9da	-0.11662646
240	0x3e200ff4	0.15631086
241	0x3e9dbb08	0.30806756
242	0x3ef15646	0.47136134
243	0x3f087e75	0.5331796
244	0x3fef5e77	1.8700703
245	0x3ecc7857	0.39935562
246	0xbd893d76	-0.06701176
247	0x3e665f3b	0.22497265
248	0xbf080089	-0.53125817
249	0x3e1bbaf7	0.1520804
250	0xbe13497f	-0.14383505
251	0xbe4d615d	-0.20056672
252	0xbf275d28	-0.6537652
253	0xbef2f9c5	-0.47456184
254	0xbf581c11	-0.84417826
255	0xbe510125	-0.20410593

network.2.bias f4 [30]
0	0xbefbf533	-0.4921051
1	0x3f4d80b5	0.80274516
2	0xbeec03cb	-0.46096644
3	0x3e182ee9	0.14861645
4	0xbe8f217b	-0.2795523
5	0xbf09fb6b	-0.5389926
6	0xbeba587e	-0.3639564
7	0xbec1ecdd	-0.37876025
8	0xbf0015bf	-0.5003318
9	0xbdb16223	-0.08661296
10	0x3f265050	0.649663
11	0x3f2a36e9	0.66490036
12	0xbdb9f2fd	-0.090795495
13	0x3e86ce6f	0.2632937
14	0xbc7b9843	-0.015356126
15	0x3d72537e	0.059161656
16	0x3dd513b2	0.10404147
17	0x3eda2155	0.42603555
18	0xbebe8d67	-0.37217256
19	0xbeb594ab	-0.35464987
20	0x3ecda10d	0.40161934
21	0xbf9dad23	-1.2318462
22	0xbf10a097	-0.5649504
23	0x3ed977d4	0.42474234
24	0x3ecbb114	0.39783537
25	0x3ecdea96	0.40218037
26	0xbf074ede	-0.52854717
27	0x3eee8183	0.46583185
28	0xbcc667d4	-0.024219431
29	0xbec7a03d	-0.3898944

network.4.weight f4 [30, 30]
0	0x3e4d8829	0.20071472
1	0xbf1a4320	-0.60258675
2	0x3c31a460	0.010842413
3	0xbf493797	-0.7860045
4	0x3eb8f78e	0.3612637
5	0x3e7abc50	0.24485898
6	0xbf1161bf	-0.56789774
7	0xbca2b4c4	-0.019861586
8	0xbe1038e1	-0.14084198
9	0xbe514b9b	-0.20438997
10	0xbde6e26f	-0.112736575
11	0x3f5ff478	0.87482405
12	0xbec10a46	-0.3770315
13	0xbd6bea12	-0.057596274
14	0x3e81bfd3	0.25341663
15	0x3e21646d	0.15760966
16	0x3f55b912	0.8348552
17	0xbec7a327	-0.38991663
18	0x3f03c11c	0.51466537
19	0x3f4f3fa9	0.8095651
20	0x3d7b4eef	0.061354574
21	0x3eb388db	0.3506535
22	0xbe717bea	-0.23582426
23	0xbec0dcd1	-0.3766847
24	0xbeb1a1a6	-0.3469364
25	0x3ea4ef58	0.32213855
26	0x3e2249d7	0.1584848
27	0x3c8efad9	0.017453598
28	0x3ec7eb37	0.39046642
29	0x3ed1fa48	0.41011262
30	0x3ee47347	0.446192
31	0xbd93efb7	-0.07223456
32	0x3e889515	0.2667624
33	0xbddda7e0	-0.10823035
34	0x3dd229b0	0.102618575
35	0x3e92cb76	0.28670853
36	0x3ea8945f	0.32925698
37	0x3ea30a36	0.31843728
38	0xbdf13b95	-0.117789425
39	0x3f89b429	1.0758106
40	0x3da89edf	0.08233427
41	0xbcbf8328	-0.02337797
42	0xbc1a2674	-0.009408582
43	0x3e36bc84	0.1784535
44	0x3e3a0c5c	0.18168777
45	0x3efe1030	0.49621725
46	0x3e4909e8	0.19632685
47	0x3e152332	0.14564207
48	0xbd1133b4	-0.0354497
49	0x3b9ad803	0.0047254576
50	0xbeaf72d7	-0.34267303
51	0x3d60d124	0.054886952
52	0x3e8a842e	0.2705397
53	0x3e1d745e	0.15376422
54	0x3e4f7bd6	0.20262083
55	0xbdca2fd3	-0.09872403
56	0x3cd3c013	0.025848424
57	0xbe90b988	-0.2826655
58	0xbed04a7d	-0.4068183
59	0xbd2d3cd8	-0.042294353
60	0x3f1e863c	0.61923575
61	0x3d94ece5	0.072717465
62	0xbe8580c5	-0.26074806
63	0xbcc6fdb5	-0.024290899
64	0xbe73d5ac	-0.23811978
65	0x3e9be2ef	0.30446574
66	0x3e03f5c9	0.12886728
67	0x3eb425bb	0.35185036
68	0xbd677099	-0.056503866
69	0xbe47ca46	-0.19510755
70	0x3f2bd79b	0.6712586
71	0xbf929341	-1.1451188
72	0xbe62aa9e	-0.22135398
73	0x3eb4962c	0.35270822
74	0x3f046847	0.51721615
75	0xbda97b35	-0.08275453
76	0x3f9a66b4	1.2062593
77	0xbda512c6	-0.080602214
78	0x3e06b1f0	0.13153815
79	0xbf513273	-0.81717604
80	0xbf9169e0	-1.1360435
81	0xbf11d964	-0.56972337
82	0x3f3b0c9d	0.7306612
83	0x3ddd4266	0.1080368
84	0x3d9f69ea	0.077838734
85	0xbf153404	-0.58282495
86	0x3f2836b8	0.65708494
87	0x3f052142	0.5200387
88	0xbede2c68	-0.43393254
89	0xbe89ca19	-0.26912
90	0xbe1ffeac	-0.15624493
91	0xbeb9df10	-0.36302996
92	0xbed16ace	-0.40901798
93	0x3da33fe0	0.079711676
94	0xbd31d931	-0.04342002
95	0xbec19a11	-0.37812856
96	0x3e9afebe	0.30272478
97	0xbdd79aba	-0.105275586
98	0xbfe59fcd	-1.7939392
99	0x3c034055	0.008010943
100	0x3cbd9d9b	0.023146441
101	0x3e6da0fa	0.23205939
102	0x3ddaf22f	0.10690724
103	0xbc9cdfd8	-0.019149706
104	0x3de1b78e	0.110213384
105	0x3e24764c	0.16060752
106	0x3f8bc5db	1.0919756
107	0x3e9e2d05	0.30893722
108	0x3d86336a	0.06552775
109	0xbf09c68c	-0.53818583
110	0x3f850165	1.039105
111	0x3e0e575b	0.13900511
112	0xbecac103	-0.3960038
113	0x3d4afa67	0.04955521
114	0xbdb5375e	-0.08848451
115	0x3e90850d	0.2822651
116	0xbefea917	-0.4973838
117	0x3cec3712	0.028834853
118	0x3e81d63a	0.25358754
119	0xbf23ac7b	-0.6393506
120	0x3cf943e2	0.030427877
121	0xbf5ba8dc	-0.85804534
122	0x3ed53521	0.41642097
123	0x3f087826	0.5330833
124	0x3f8d03cd	1.1016785
125	0x3ee2a2de	0.44264883
126	0xbf2f9017	-0.6857924
127	0x3f13042d	0.57428247
128	0xbe139666	-0.14412841
129	0x3d6304d6	0.055424534
130	0x3dcdf19a	0.100558475
131	0xbd1850ad	-0.037186313
132	0x3f989d0a	1.1922925
133	0x3ed8f5ba	0.42374974
134	0xbfba2357	-1.4542035
135	0xbe35d6cc	-0.1775772
136	0xbdc44f2f	-0.095854156
137	0x3f9477b9	1.1599036
138	0x3f5c1892	0.8597499
139	0xbf07af8e	-0.5300225
140	0x3eb96bf2	0.36215168
141	0xbe9488a9	-0.29010513
142	0x3dc04dce	0.0938984
143	0xbea5283c	-0.3225726
144	0xbe27694d	-0.16348763
145	0xbf65eba0	-0.8981266
146	0xbeabb3e5	-0.33535686
147	0x3f1ca701	0.6119233
148	0xbf70c950	-0.9405718
149	0xbd306d1a	-0.043072797
150	0xbe0c41c6	-0.13696966
151	0x3ee5bed8	0.44872165
152	0xbf4dd087	-0.8039631
153	0xbe8aaf0d	-0.27086678
154	0xbdf1bb92	-0.11803354
155	0xbe4fdf95	-0.20300134
156	0x3d2b0524	0.04175295
157	0xbe4826fa	-0.19546118
158	0xbf53f19e	-0.82790554
159	0x3eb53a8c	0.3539623
160	0x3dcc79be	0.09984158
161	0x3ec26983	0.37971124
162	0x3e3c87b8	0.18411148
163	0x3e21c1bc	0.1579656
164	0xbe75a32c	-0.23988026
165	0xbeafcd36	-0.3433625
166	0xbf17e6ec	-0.59336734
167	0xbe09f976	-0.13474068
168	0xbe87508b	-0.26428637
169	0xbe043589	-0.12911047
170	0x3f442aa0	0.7662754
171	0xbdeece9d	-0.11660502
172	0xbedf74d5	-0.43643823
173	0x3d434f0e	0.047682814
174	0xbe87f4bc	-0.26553905
175	0x3dc39f83	0.09551909
176	0xbf892869	-1.0715457
177	0xbe25cb9d	-0.16190954
178	0x3e6921b0	0.22766757
179	0xbec29889	-0.38007
180	0x3f755291	0.9582911
181	0x3e38523f	0.18000124
182	0xbf360c86	-0.7111286
183	0xbe699993	-0.2281249
184	0x3ee04cb2	0.43808514
185	0xbe0a808a	-0.13525596
186	0xbe0f0322	-0.13966039
187	0xbe40f34e	-0.18842813
188	0x3ec49954	0.3839823
189	0x3f4faff4	0.8112786
190	0x3b90a4d1	0.004414179
191	0xbeb7d668	-0.35905766
192	0xbf3984a6	-0.7246803
193	0x3df39068	0.11892778
194	0xbe8821b4	-0.26588213
195	0xbf7a7ead	-0.9784954
196	0xbda7565a	-0.08170767
197	0xbdd69495	-0.104775585
198	0xbea2e831	-0.31817773
199	0xbe955998	-0.29169917
200	0xbf401ea7	-0.7504677
201	0xbd2487db	-0.040168624
202	0x3e00820a	0.12549606
203	0xbe20d395	-0.15705712
204	0xbe99146e	-0.298984
205	0xbdf67a50	-0.12035048
206	0x3f04ef6d	0.51927835
207	0x3e81f3a6	0.25381202
208	0x3e429770	0.19003081
209	0x3f2b4841	0.66907126
210	0x3f8e2485	1.1104895
211	0x3ef2d1f6	0.47425812
212	0xbd87282a	-0.065994576
213	0xbe32fd55	-0.17479451
214	0xbeac908d	-0.33704033
215	0xbf1ddb71	-0.61662966
216	0xbdf0b13f	-0.11752557
217	0xbe6e4dfc	-0.23271936
218	0xbf292198	-0.66066885
219	0x3e8821ef	0.2658839
220	0x3ce00757	0.02734725
221	0xbf2fb0b0	-0.6862898
222	0xbe7ea113	-0.24866132
223	0xbea7fdef	-0.32810923
224	0xbdd38a76	-0.10329144
225	0xbdf30796	-0.11866681
226	0x3fd5fc2d	1.6717583
227	0xbe6cfe1b	-0.23143809
228	0x3e6e4865	0.23269804
229	0x3ea137f0	0.3148799
230	0x3f909bbc	1.1297526
231	0x3d7ffda9	0.06249777
232	0xbe22914a	-0.15875736
233	0xbe63af0f	-0.22234748
234	0x3ea1adf1	0.3157802
235	0x3ed98c81	0.42490008
236	0xbf66b11d	-0.90114003
237	0x3f043b1b	0.5165269
238	0xbe156902	-0.14590839
239	0xbdcd55fd	-0.100261666
240	0x3e83e7a5	0.25762668
241	0x3f2d238c	0.67632365
242	0xbf04fda9	-0.51949555
243	0xc00ace95	-2.1688588
244	0xbe9003f8	-0.28128028
245	0x3e3834ae	0.17988846
246	0x3e490300	0.1963005
247	0x3e487dac	0.1957919
248	0x3dc87f3f	0.09789895
249	0xbedf4ece	-0.4361481
250	0xbf875544	-1.0572896
251	0xbee907b2	-0.45513684
252	0x3f1d3fff	0.61425775
253	0xbf39a685	-0.72519714
254	0xbecb8655	-0.39750925
255	0x3edb2ff7	0.42810032

network.4.bias f4 [30]
0	0xbeac7c06	-0.33688372
1	0xbd30b74d	-0.04314356
2	0x3f228fd1	0.63500696
3	0x3d602563	0.054723155
4	0xbee329fa	-0.44367963
5	0x3e48b661	0.19600822
6	0x3ea8bff2	0.32958943
7	0xbbfbb336	-0.0076812757
8	0xbe1820f9	-0.14856328
9	0xbe2c5679	-0.16829862
10	0x3e89c9c8	0.2691176
11	0xbe614402	-0.21998599
12	0x3ebad680	0.36491776
13	0x3d8949cf	0.06703531
14	0xbd1489e4	-0.036264315
15	0xbde499ec	-0.11162171
16	0xbf3ecfc9	-0.74535805
17	0x3e2edc33	0.17076187
18	0xbf20c4ca	-0.62800276
19	0x3e53020a	0.20606247
20	0xbe3865de	-0.18007609
21	0x3f4675fe	0.7752379
22	0x3d292a9b	0.041300397
23	0x3f8a590a	1.0808423
24	0x3f6cfb0b	0.9257056
25	0x3f044441	0.5166665
26	0x3f1a0667	0.6016602
27	0x3ee884c9	0.45413807
28	0x3ccdfed0	0.025145918
29	0xbcb1b76a	-0.021693904

network.6.weight f4 [30, 30]
0	0x3e4775db	0.19478552
1	0xbe827cd1	-0.25485852
2	0x3d7f9142	0.062394388
3	0x3e70fef0	0.23534751
4	0x3e2ce31d	0.16883512
5	0x3dfac7ad	0.122451164
6	0x3e164c79	0.1467761
7	0xbe9806b3	-0.2969261
8	0x3f522b0d	0.8209694
9	0x3d3dbd36	0.046323024
10	0x3ec5ca52	0.3863092
11	0xbbed9a53	-0.007251063
12	0x3da98c82	0.08278753
13	0x3ee39bfa	0.44454938
14	0xbecefe61	-0.4042845
15	0xbea0ac52	-0.3138147
16	0x3e947328	0.28994107
17	0x3e414cf2	0.18877009
18	0xbe36147d	-0.17781253
19	0x3f021d79	0.5082622
20	0x3e860988	0.26179147
21	0x3e5622da	0.20911732
22	0x3c9f1335	0.019418338
23	0x3e853cb5	0.26022878
24	0x3d0a32e4	0.03373994
25	0xbed8a69e	-0.4231462
26	0xbd33664c	-0.04379873
27	0xbf799233	-0.9748871
28	0xbeb8d09b	-0.36096653
29	0x3d4424c2	0.047886617
30	0xbea419f6	-0.32051057
31	0xbe3ee248	-0.18641007
32	0xbe1d3b69	-0.15354694
33	0xbef0c25b	-0.4702328
34	0x3d365342	0.044512995
35	0xbedbaf06	-0.4290697
36	0x3f36e3cd	0.71441346
37	0xbf24c881	-0.64368445
38	0xbe883df1	-0.26609758
39	0x3e14bc53	0.14524965
40	0xbd512a4e	-0.051065736
41	0xbe63465e	-0.22194812
42	0xbe3f7052	-0.1869519
43	0x3ef0ee02	0.47056586
44	0x3f540ff8	0.82836866
45	0xbe025f66	-0.12731704
46	0x3eda96e3	0.42693242
47	0x3e8491e8	0.25892568
48	0x3b058424	0.0020372951
49	0x3ef590b9	0.47961977
50	0xbbdfa9e8	-0.0068256743
51	0xbf67d838	-0.905643
52	0xbc67edf9	-0.014155858
53	0x3f0467bf	0.51720804
54	0x3f11171d	0.56675893
55	0xbdb8eead	-0.09029899
56	0xbe2cc010	-0.16870141
57	0x3ee8b5e5	0.45451275
58	0x3fb875d8	1.4410963
59	0xbe971f8f	-0.29516265
60	0x3e5f76ac	0.21822613
61	0xbe36f9e6	-0.17868766
62	0x3f218e03	0.6310732
63	0xbfb5e4c1	-1.4210435
64	0x3e65a89f	0.22427605
65	0xbee45489	-0.44595745
66	0xbed2b6bc	-0.4115504
67	0x3f497147	0.7868847
68	0xbd0fcc19	-0.035106752
69	0xbeb18874	-0.34674418
70	0xbeb93578	-0.36173606
71	0x3ed2e9b3	0.41193923
72	0x3db7e810	0.08979809
73	0x3ea44c90	0.32089663
74	0xbe7b0580	-0.24513817
75	0x3e2fad98	0.17156065
76	0x3ef1e6d8	0.47246432
77	0x3e08464a	0.13308063
78	0xbde2a891	-0.11067308
79	0x3f23269e	0.637308
80	0xbf96bbb1	-1.1776029
81	0xbe6a1a04	-0.22861487
82	0x3e17a994	0.14810783
83	0x3ece0b5f	0.4024305
84	0xbef6bdb3	-0.48191604
85	0xbe9416ca	-0.28923637
86	0x3f18b6cd	0.5965393
87	0xbeae1acc	-0.3400482
88	0xbea9fe5b	-0.3320187
89	0xbf24c1a8	-0.64357996
90	0x3ead3205	0.33827224
91	0x3cdcc0ae	0.026947346
92	0xbe51c531	-0.20485379
93	0x3e9e558d	0.30924645
94	0x3edfb096	0.43689412
95	0x3f05290a	0.52015746
96	0xbb36b682	-0.002787978
97	0xbe366696	-0.17812571
98	0x3ef92fd8	0.48669314
99	0xbf669cd4	-0.9008305
100	0xbea31049	-0.31848362
101	0xbdc8635c	-0.09784576
102	0xbd331a5b	-0.043726306
103	0x3de766f5	0.11298934
104	0xbec6f3df	-0.38857934
105	0x3f195ccb	0.59907216
106	0xbf10e6c4	-0.5660212
107	0x3f12bb2b	0.57316846
108	0xbdb28914	-0.08717552
109	0x3e602ecf	0.21892856
110	0xbe5c813e	-0.21533677
111	0x3e9a8323	0.30178174
112	0x3d9865c2	0.07441284
113	0xbf215b8e	-0.63030326
114	0x3ec171af	0.37782046
115	0xbaa145e2	-0.0012304152
116	0xbec5f9d7	-0.38667175
117	0xbefe6059	-0.49682882
118	0xbec647a7	-0.3872654
119	0xbe9a1992	-0.30097634
120	0xbc361c87	-0.0111152
121	0xbe043a58	-0.12912881
122	0xbcf3ed9c	-0.029776387
123	0xbb823f00	-0.0039747953
124	0xbe5423e7	-0.2071682
125	0xbcdb5d15	-0.026777783
126	0x3df416a7	0.11918383
127	0xbe212c55	-0.15739568
128	0x3e4764d9	0.19472064
129	0x3d4974ea	0.049183764
130	0xbe0314dc	-0.12800926
131	0xbcedbb63	-0.029020017
132	0x3d56efa3	0.05247463
133	0x3d5f2fe7	0.054489043
134	0xbdd0b7ca	-0.10191305
135	0xbe0100c1	-0.12597944
136	0x3d88f1d1	0.06686748
137	0xbdd52cf1	-0.104089625
138	0xbd8527b5	-0.06501714
139	0xbdcb397d	-0.099230744
140	0xbdacded1	-0.08440936
141	0x3e0c732d	0.13715811
142	0x3e996231	0.29957727
143	0x3e0d566d	0.138025
144	0xbd42505d	-0.04743992
145	0xbd3ba4d6	-0.045811497
146	0x3d0b88b6	0.034065925
147	0xbd7a3cee	-0.061093263
148	0x3cfc6e79	0.030814396
149	0xbe7e46d4	-0.24831706
150	0xbe8f16ab	-0.27946982
151	0xbee50ea4	-0.44737732
152	0x3eba905e	0.36438268
153	0x3f7af80c	0.9803474
154	0x3e9fab66	0.31185454
155	0xbee6716e	-0.45008415
156	0xbf0ff873	-0.5623848
157	0x3eb601fc	0.3554839
158	0xbd1769b1	-0.03696603
159	0x3e69d42d	0.22834845
160	0x3f4f95fe	0.81088245
161	0x3f491c02	0.7855836
162	0x3f66c20c	0.9013984
163	0x3ef70655	0.48247018
164	0x3ec5f7b6	0.3866555
165	0xbe0e3f31	-0.13891293
166	0x3f675328	0.9036126
167	0xbec6d97e	-0.38837808
168	0x3e975c48	0.29562593
169	0xbe04538f	-0.129225
170	0xbe35deaf	-0.17760728
171	0xbf31fb79	-0.6952434
172	0xbdd3d8dc	-0.10344097
173	0xbdc6c465	-0.09705428
174	0x3e03e09e	0.12878653
175	0xbefec729	-0.49761322
176	0x3f61d8de	0.8822154
177	0xbd9cd1f2	-0.076572314
178	0x3e8a9add	0.27071276
179	0x3c9ee14c	0.01939454
180	0x3e8073ce	0.25088352
181	0x3c846a0e	0.016163852
182	0xbe65edef	-0.22454046
183	0xbf3867c5	-0.7203334
184	0xbe8acee8	-0.27110982
185	0x3c015b9f	0.007895379
186	0xbeaef6ff	-0.34172818
187	0xbbaf7d35	-0.005355502
188	0x3e9cf31c	0.30654228
189	0xbec65a26	-0.38740653
190	0xbed64906	-0.41852587
191	0x3e8327a5	0.25616184
192	0xbeef0b4f	-0.46688315
193	0xbe1e5076	-0.15460381
194	0xbe8c9f75	-0.27465406
195	0xbe9f347a	-0.31094724
196	0xbdb3ad58	-0.08773297
197	0xbf37ecc2	-0.7184564
198	0x3eabe263	0.33571157
199	0xbe271021	-0.16314746
200	0xbf372663	-0.7154295
201	0xbe89e55e	-0.26932806
202	0x3ebb95d2	0.3663774
203	0xbec7c2da	-0.39015847
204	0xbe48cedf	-0.19610165
205	0xbdb1110c	-0.086458296
206	0xbebc9911	-0.3683553
207	0xbe71fbab	-0.2363116
208	0xbdd3990c	-0.10331926
209	0x3ece1360	0.40249157
210	0xbda0c851	-0.07850707
211	0xbda18077	-0.07885831
212	0xbd1ec125	-0.038758416
213	0xbc6286f6	-0.0138261225
214	0x3c4f89c1	0.01266712
215	0x3d5bcdbc	0.053663
216	0x3d21fc80	0.039547443
217	0xbdabda7d	-0.08391283
218	0x3d9a76c5	0.07542185
219	0x3da74901	0.08168221
220	0x3d28d50f	0.041218814
221	0xbe29cbe6	-0.16581687
222	0x3c50ed02	0.01275182
223	0xbb838f5b	-0.004014892
224	0x3d772a18	0.060342878
225	0xbddf807a	-0.10913177
226	0xbc88de14	-0.016707458
227	0xbccfd150	-0.025368363
228	0xbc7b660c	-0.015344154
229	0xbd87d106	-0.06631665
230	0xbd1528f6	-0.036416017
231	0xbd3658f2	-0.04451842
232	0x3e1497d8	0.14511049
233	0x3e076fb0	0.13226199
234	0x3cd91914	0.026501216
235	0xbdd3b47b	-0.10337158
236	0x3c8c73b9	0.017145025
237	0x3d7921d0	0.06082326
238	0xbb723d27	-0.003696272
239	0xbe0ae7f0	-0.1356504
240	0xbb117db8	-0.0022200178
241	0xbbf099e4	-0.007342564
242	0xbba0f0a9	-0.0049115014
243	0xbb6162a2	-0.0034391065
244	0x3b5615ca	0.0032666796
245	0xbb09a551	-0.0021003077
246	0x3c7350e1	0.014850826
247	0xba0106ce	-0.00049219735
248	0x3ab98387	0.0014153578
249	0xbbd782c4	-0.006576868
250	0x3b9a3754	0.0047063027
251	0x3b5cddfc	0.003370165
252	0x3c085078	0.0083199665
253	0x3c938628	0.018008307
254	0xbbd5fd6f	-0.006530456
255	0xbb5b7bba	-0.0033490495

network.6.bias f4 [30]
0	0x3db6e745	0.0893083
1	0x3e1c193f	0.15244006
2	0x3f0b5acd	0.54435426
3	0x3d04bf7f	0.032409187
4	0xbe38787b	-0.1801471
5	0x3e83a79b	0.2571381
6	0xbda7b8a4	-0.08189514
7	0xbe794073	-0.24340992
8	0xbd32d011	-0.04365546
9	0xbee4efa1	-0.44714072
10	0xbd4d72ec	-0.050158426
11	0xbe4338e1	-0.19064666
12	0xbe01180f	-0.12606834
13	0x3dad2fcc	0.08456382
14	0x3e512e59	0.20427836
15	0xbe310bf9	-0.17289723
16	0xbe28d393	-0.16486959
17	0x3f04941f	0.51788515
18	0x3f2d056f	0.67586416
19	0xbc83a63e	-0.016070481
20	0x3bd5e026	0.0065269647
21	0xbf3af036	-0.7302278
22	0x3df119e4	0.11772516
23	0xbe68e757	-0.22744499
24	0xbd4762bc	-0.048678145
25	0xbd9c0627	-0.07618361
26	0xbe08379f	-0.13302468
27	0x3f0741ff	0.5283508
28	0x3f0385c4	0.51375985
29	0x3e5281d3	0.20557337

network.8.weight f4 [1, 30]
0	0x3e640703	0.222683
1	0x3de5fb72	0.112296
2	0x3e77db44	0.24204737
3	0x3e18ae80	0.14910316
4	0x3e2da23b	0.16956417
5	0x3e4f6dbf	0.20256709
6	0xbe73f84e	-0.2382519
7	0x3db22587	0.08698564
8	0x39c069fd	0.0003670006
9	0x3e86ebbb	0.26351723
10	0x3e4278bd	0.1899137
11	0x3e55af1e	0.20867583
12	0x3e1cde42	0.1531916
13	0xba8a8b4b	-0.0010570077
14	0x3eb4739e	0.3524446
15	0x3ca6e2cc	0.020371817
16	0x3cb0aa4a	0.021565575
17	0xbdc832dd	-0.097753264
18	0xbddf9d4a	-0.109186724
19	0x394911d4	0.00019175495
20	0x399d8c00	0.00030049682
21	0x3e49fe65	0.1972595
22	0xbe20e289	-0.15711416
23	0x3d571ff7	0.05252072
24	0x3a195aae	0.0005849999
25	0x3ac2297d	0.001481339
26	0x3c5ade35	0.013358642
27	0xbe206597	-0.15663753
28	0xbe326d9f	-0.1742463
29	0xbcc22723	-0.023700302
