injector_surrogate/results/model_2hidden_10nodes_1500epoch_0.01.pth (torch, 3919 bytes, 7 tensors)

network.0.weight f4 [10, 9]
0	0x3e554f9e	0.20831153
1	0x3e6a96b7	0.22909056
2	0x3df2d646	0.11857276
3	0xbee165c5	-0.44022956
4	0xbea97943	-0.33100328
5	0xbdbe45d0	-0.092906594
6	0xbe7f33f0	-0.24922156
7	0xbf9ce20e	-1.2256486
8	0xbf758f1a	-0.9592148
9	0xbdd81257	-0.10550373
10	0x3b87da74	0.0041459147
11	0x3b5dbb21	0.0033833461
12	0x3e8c0947	0.27350828
13	0x3ea7bd79	0.32761744
14	0x3e06c29a	0.13160172
15	0xbedda590	-0.43290377
16	0x402f9531	2.743481
17	0xbe77655e	-0.24159762
18	0x3d968ac2	0.07350685
19	0xbd3f0d8a	-0.04664377
20	0xbcb3c0a2	-0.02194244
21	0xbe25fe3d	-0.16210265
22	0x3a117aec	0.0005549628
23	0xbfb00151	-1.3750402
24	0xc00c5bb7	-2.1930978
25	0x3f7c570e	0.98570335
26	0x3f0743f4	0.52838063
27	0x3e78eeba	0.24309817
28	0x3de73c78	0.112908304
29	0xbd83f6a6	-0.06443529
30	0x3eb5e36a	0.35525066
31	0x3fb189c9	1.3870174
32	0xbdf045b5	-0.117320456
33	0xbd72809c	-0.059204683
34	0x3e89e225	0.26930347
35	0x3f78f689	0.9725118
36	0x3e20cf7c	0.15704149
37	0x3f2b0e30	0.66818523
38	0x3f27bf68	0.6552644
39	0xbe47a655	-0.19497044
40	0xbe84a5f0	-0.2590785
41	0xbd61b8de	-0.055107944
42	0x3e5ecde3	0.21758227
43	0x3f3aaec8	0.72922945
44	0x3f65c661	0.8975583
45	0xbde51a6a	-0.11186679
46	0xbc43af4e	-0.011943651
47	0xbd9dffb0	-0.07714784
48	0xbe049248	-0.12946427
49	0xbeea3185	-0.45740905
50	0x4028ef96	2.6396232
51	0x3f579026	0.8420433
52	0xc054c6f6	-3.3246436
53	0xc0d56afc	-6.6693096
54	0xbed9451c	-0.4243554
55	0x3d8f4ed7	0.069974594
56	0x3d48058a	0.048833407
57	0x3f379b3f	0.7172126
58	0x3f1cb21a	0.6120926
59	0x3dfbd842	0.12297107
60	0x3d726388	0.05917695
61	0xbef2bcb0	-0.47409582
62	0xbf2a10fc	-0.66432166
63	0xbd669475	-0.056293923
64	0xbd183bdd	-0.037166465
65	0x3d93c795	0.072158016
66	0xbe17694e	-0.14786264
67	0xbee0a50e	-0.43875927
68	0xbefb171c	-0.4904107
69	0x3e9f2cff	0.31089017
70	0xbf99cae0	-1.2015038
71	0x3fe45230	1.7837582
72	0x3eafcd2c	0.3433622
73	0x3d31864e	0.043340974
74	0xbd52eabf	-0.051493403
75	0x3d88144d	0.06644497
76	0x3f54e06f	0.8315496
77	0xbeacd4bb	-0.3375605
78	0xbeb512e3	-0.35365972
79	0xbf94aae1	-1.1614648
80	0xbf181f8c	-0.59423137
81	0x3eda7035	0.42663732
82	0x3d4be452	0.04977829
83	0xbd68897f	-0.05677175
84	0xbfd28799	-1.6447631
85	0xbf3b658e	-0.73201835
86	0x3e576d3e	0.21037766
87	0xbe2ce781	-0.16885187
88	0xbec0922b	-0.37611517
89	0xbeb946fd	-0.36186972

network.0.bias f4 [10]
0	0x3f61084c	0.87903285
1	0xbf91829f	-1.1367987
2	0x3f99ea17	1.2024564
3	0xbfde8985	-1.7385718
4	0xbf476adb	-0.77897424
5	0x3e9620f3	0.29322013
6	0x3ecc9047	0.39953825
7	0xbe7fd023	-0.24981742
8	0x3f618429	0.88092285
9	0x3fdb0703	1.7111515

network.2.weight f4 [10, 10]
0	0x3fd5a4c5	1.6690909
1	0xbf81c690	-1.0138721
2	0x4045cd95	3.0906727
3	0xbfb95337	-1.447852
4	0xbebec015	-0.37255922
5	0xbf892fdd	-1.0717732
6	0x3f894f76	1.0727375
7	0x3e8132f1	0.25234178
8	0x400e1c38	2.2204723
9	0xbe11a2a2	-0.14222196
10	0x3ddca2f8	0.10773271
11	0x402e648d	2.7248871
12	0xbf97288c	-1.1809249
13	0xbd25815c	-0.04040657
14	0x3e96bcde	0.2944097
15	0x40504100	3.2539673
16	0xbf46f2ab	-0.7771403
17	0x3d846b62	0.06465794
18	0x3f862d62	1.04826
19	0x3f091cff	0.5355987
20	0xc017c4fe	-2.3713984
21	0x3f403c56	0.75092065
22	0xbce19e28	-0.027541235
23	0xbf931adb	-1.1492571
24	0x3f0e7014	0.5563977
25	0x3f87b2d7	1.0601453
26	0xbf7abe8c	-0.97947
27	0x3e97a011	0.29614308
28	0x3ff725fc	1.9308467
29	0x401f5a74	2.4898958
30	0xbfbcb9bd	-1.4744183
31	0xbe2f1d7a	-0.17101088
32	0xbdd1144f	-0.10208952
33	0xbf2185a0	-0.6309452
34	0xbe199eb2	-0.15001944
35	0x3f0defe8	0.5544419
36	0xbf74284b	-0.9537398
37	0xbe8a6cdd	-0.2703618
38	0x3f9410fa	1.1567681
39	0xbd584098	-0.052795976
40	0xbf9fdaf8	-1.2488699
41	0x3f833967	1.0251893
42	0x3fefad4b	1.872476
43	0xbf58e63e	-0.8472632
44	0x3f2054bf	0.6262931
45	0x40381ca6	2.8767486
46	0xbf07698e	-0.5289544
47	0x3f76cbdf	0.9640483
48	0x3fb6cd2f	1.4281367
49	0xbebc5d04	-0.36789715
50	0xbdea0c6c	-0.114281505
51	0x3f738de5	0.9513839
52	0xbe207f6b	-0.15673606
53	0x407a2813	3.908696
54	0xbdf0fd3a	-0.11767049
55	0x3fb20ef2	1.3910811
56	0x3f87bb42	1.0604022
57	0xbf6bd5a4	-0.92122865
58	0x3fc0ba53	1.5056862
59	0xbf08d4c1	-0.53449637
60	0xbeb530f3	-0.35388908
61	0x3ec9abd3	0.39388904
62	0x3ed6181e	0.41815275
63	0xbd3f8838	-0.046760768
64	0x3e959361	0.29214004
65	0x3f007eb3	0.5019333
66	0x4044faf8	3.077818
67	0x3f3c3d11	0.7353068
68	0x3f732026	0.9497093
69	0xc0105999	-2.2554686
70	0x3f0b81e0	0.5449505
71	0xbc737841	-0.014860214
72	0xbe05b429	-0.13057007
73	0x3e869088	0.26282144
74	0xbea4c4af	-0.32181308
75	0xbf19ea4e	-0.60123146
76	0xbfb31491	-1.3990651
77	0xbd40a836	-0.04703542
78	0x3eb909b7	0.36140224
79	0xbf729b83	-0.9476854
80	0x3fb8a5dc	1.4425616
81	0xc03571f3	-2.83508
82	0x3fb3212f	1.3994502
83	0xbef3cbfa	-0.4761656
84	0xbe9706ac	-0.29497278
85	0xbf34da40	-0.70645523
86	0x3da816e8	0.08207494
87	0xbf9d13dd	-1.2271687
88	0xc00ccb40	-2.1999054
89	0x3eca6fcf	0.39538428
90	0x3e898c26	0.26864737
91	0xbe70fdad	-0.2353427
92	0x3e42a3ba	0.19007769
93	0x3db48b83	0.08815672
94	0x4010deaa	2.2635903
95	0x3f343f21	0.7040883
96	0x3f6dc095	0.9287198
97	0xbeece368	-0.46267247
98	0x3eee3c09	0.46530178
99	0xbeaaf363	-0.33388814

network.2.bias f4 [10]
0	0xbb2a35f3	-0.0025972098
1	0x3fbede75	1.4911638
2	0xbff018b5	-1.875754
3	0x3ea23c17	0.3168647
4	0x3f613b5b	0.87981194
5	0xbf637451	-0.8884936
6	0x3f8584ac	1.0431113
7	0x3ec0119b	0.37513432
8	0x3f567e45	0.8378642
9	0x3e7d14c5	0.24714954

network.4.weight f4 [10, 10]
0	0x3f00abcd	0.5026215
1	0xbf00ce41	-0.5031472
2	0x3d058e94	0.032606676
3	0xbe2e3362	-0.17011788
4	0xbf2983fb	-0.6621701
5	0x3e8deb12	0.27718407
6	0xbefdc780	-0.4956627
7	0x3f80cdea	1.006284
8	0xbf2f3965	-0.6844695
9	0x3ea65b25	0.32491413
10	0x3ebc0c83	0.36728296
11	0xbff65b67	-1.9246644
12	0xc0a07a08	-5.0148964
13	0x4050eb10	3.264347
14	0x3f4cf00f	0.800538
15	0x3fbc6341	1.471779
16	0x404463f5	3.068601
17	0x401ad61a	2.4193177
18	0xbfd6477a	-1.6740563
19	0xbe329190	-0.1743834
20	0xbef3de95	-0.47630754
21	0xbe2ba0c1	-0.16760541
22	0x3f21d315	0.6321271
23	0x3f4fd89f	0.8118991
24	0xbe1570a5	-0.14593752
25	0x3e2a00aa	0.16601816
26	0x3fe89efe	1.817352
27	0x3ef949d0	0.48689127
28	0x3ea78a39	0.32722643
29	0xc00f073c	-2.2348166
30	0x402fdb2e	2.7477527
31	0x3f880448	1.0626307
32	0xbfb31400	-1.3990479
33	0x3f9de74e	1.2336214
34	0x4009e777	2.1547525
35	0xbc3110d6	-0.010807237
36	0xbee67910	-0.45014238
37	0xc0852355	-4.160563
38	0x3e3776d5	0.17916425
39	0xbe32460e	-0.17409536
40	0xbf7022c2	-0.93803036
41	0xbfc6064f	-1.5470675
42	0xbe8fd780	-0.280941
43	0x3f0eacf1	0.5573264
44	0x3f626bc8	0.8844571
45	0xbfa73ab6	-1.3064792
46	0xbf6015c1	-0.87533194
47	0xc01fc7c2	-2.4965672
48	0xbee2b4f2	-0.44278675
49	0xbdf92991	-0.12166131
50	0xbf1e1b50	-0.61760426
51	0xbec903e7	-0.3926079
52	0xbe11d07d	-0.14239688
53	0x3fa823b9	1.3135902
54	0x3f23cbef	0.6398305
55	0xbd1f723c	-0.0389273
56	0xbf0900fb	-0.5351712
57	0x3fabe5bf	1.3429488
58	0x3ea08315	0.31350008
59	0x3f803be5	1.0018278
60	0xbf0f2bf3	-0.55926436
61	0xbf703974	-0.93837667
62	0x3f4bbbee	0.7958363
63	0x3fa73133	1.306189
64	0xc03da4fa	-2.9631944
65	0xbe81daaa	-0.2536214
66	0x3ec11edb	0.37718853
67	0xbf31867a	-0.6934582
68	0xbeb6d4ca	-0.3570922
69	0x3f373ef9	0.71580464
70	0x3f9ef4fc	1.2418513
71	0xbfd19743	-1.6374286
72	0x3eaf6593	0.34257182
73	0x3fe5fb33	1.7967285
74	0x3f5d6358	0.8647971
75	0xbf77048b	-0.9649131
76	0x3e00ff4b	0.12597387
77	0xbed87a83	-0.4228097
78	0xbf1cb16d	-0.6120823
79	0x3eb7b77a	0.3588217
80	0x3fcc5850	1.5964451
81	0x3ee6ce29	0.45079163
82	0x3f905ed6	1.1278942
83	0xc06c1cf2	-3.6892667
84	0xbf1f5f3c	-0.6225469
85	0xbfd15fe9	-1.6357394
86	0x3f8eb13f	1.1147841
87	0xbed0ccc9	-0.4078124
88	0xc0120d84	-2.282075
89	0xbfce803f	-1.6132888
90	0xbfbc3137	-1.4702519
91	0x3f66feb4	0.90232396
92	0x3d7d8b11	0.061900202
93	0xbfe642a6	-1.798909
94	0x3dc1ee6f	0.09469306
95	0x3d50ee5b	0.051008563
96	0x3f83aa09	1.0286266
97	0x40808cd5	4.0171914
98	0x3fb9920b	1.4497694
99	0x3e134f58	0.14385736

network.4.bias f4 [10]
0	0xbef92d5a	-0.48667413
1	0x40064718	2.0980892
2	0x3ef91b95	0.48653856
3	0x3e86f369	0.26357582
4	0xbf3a0fef	-0.7268056
5	0x3e8a9d45	0.27073112
6	0x3fe6b71f	1.8024634
7	0xbf13935d	-0.57646734
8	0xbf1c1d3b	-0.609821
9	0x3f223cb9	0.63373905

network.6.weight f4 [1, 10]
0	0xbe10fbad	-0.14158507
1	0x3d2a2045	0.04153468
2	0xbd3b1172	-0.045670934
3	0xbdaf854b	-0.085703455
4	0xbdc15ff6	-0.09442131
5	0x3e4eccd4	0.20195323
6	0x3e122d58	0.1427511
7	0x3d91941b	0.07108327
8	0xbeaae7b1	-0.33379892
9	0xbdadd744	-0.08488324
