injector_surrogate/results/model1.pth (torch, 4695 bytes, 5 tensors)

network.0.weight f4 [20, 9]
-0.32450247 -2.7311568 -2.6931026 -0.12277658 0.049538463 -0.29261562 -0.14588904 0.120840676
0.074544564 -0.03168927 0.04078783 -0.020012813 0.1444602 0.19344674 -0.35523692 -0.8584201
-1.1720431 1.1728493 -0.580765 -0.10734626 0.16002852 -0.7315275 -1.5621921 -0.3673824
-0.14256473 0.77678853 -0.28557676 -1.7860802 -0.18545616 0.17426585 0.14993773 -1.9551368
0.17328465 0.7268127 -0.7465967 0.7653971 0.12001281 0.507695 0.23989111 0.28195053
0.5132806 -0.84843236 -0.85668766 -0.047120746 -0.110261515 0.22881933 -0.007692818 0.018746296
-0.09341747 0.08129059 -0.23039909 -0.03959159 -2.726632 2.057949 0.051595934 -0.0808544
0.108636126 0.16006215 0.7062805 -0.9231379 -1.884848 -2.1704483 -0.9463669 -0.09481316
-0.0063161524 -0.016704975 0.5723211 0.28446138 -1.8224958 -1.1609308 0.81304103 1.2208482
0.30396846 0.1833596 0.063481934 0.72957873 1.4999998 -1.2069983 2.8472245 -0.96137834
-0.7974346 -1.2306578 -0.30405155 0.31672645 -2.246713 2.71537 -0.24552004 -0.052540977
-0.81741846 -0.75132316 -0.70119184 0.15175416 -0.006066055 2.0600483 1.8565668 -0.2002485
-0.18483299 -0.84589535 -1.1581961 0.31293097 -0.13315004 -0.14312692 1.341097 1.7841145
0.15941145 0.5548751 0.7954404 0.571595 0.55249023 0.21609259 -0.12385649 0.29016972
1.9089161 -0.22335184 -0.4599818 1.1602229 0.5159301 -0.1721357 -1.5869268 -0.9931562
-0.25650764 -0.21839246 -0.42931855 -0.92342496 -0.011018464 -0.39242756 0.5971736 0.012374607
-0.46320263 0.3745685 0.0058255945 -0.202323 -0.50312 -0.2091619 -0.34587875 2.5786645
-0.15254557 0.012819692 0.0015424401 -0.19220212 -0.005250748 0.05478958 -0.9047278 0.1561835
0.4770618 0.098883726 0.056661125 0.37290072 1.1065745 0.33845758 1.1121138 -2.2018805
-1.1789805 -0.4108292 -0.044673804 0.04348917 1.2972912 1.0678643 0.3987952 -0.012881372
-0.6340879 0.33107325 -0.04681491 0.017991193 -0.0750015 0.7708531 0.8662056 -1.4432098
-1.2440053 1.0003574 -0.9273428 -0.023351625 -0.020501994 -0.037651714 0.49554572 0.37139523
-0.072747916 0.41121054 -1.0522213 2.4636595
00000000: 3025 a6be 46cb 2ec0 cb5b 2cc0 4a72 fbbd
00000010: d8e8 4a3d b7d1 95be f063 15be 517b f73d
00000020: d2aa 983d 9ccc 01bd 2411 273d e9f1 a3bc
00000030: 60ed 133e e716 463e 9de1 b5be 6bc1 5bbf
00000040: 8205 96bf ed1f 963f 04ad 14bf 5bd8 dbbd
00000050: 84de 233e 6345 3bbf e9f5 c7bf 8c19 bcbe
00000060: 7dfc 11be 9ddb 463f 1e37 92be 479e e4bf
00000070: 38e8 3dbe bf72 323e 4789 193e ec41 fabf
00000080: 8871 313e 6610 3a3f f620 3fbf 10f1 433f
00000090: 47c9 f53d 4df8 013f 04a6 753e d25b 903e
000000a0: 5b66 033f dd32 59bf e24f 5bbf af01 41bd
000000b0: cad0 e1bd 9d4f 6a3e 0914 fcbb d591 993c
000000c0: a951 bfbd ae7b a63d bded 6bbe cb2a 22bd
000000d0: 2481 2ec0 70b5 0340 4256 533d fe96 a5bd
000000e0: 9e7c de3d 55e7 233e cdce 343f c452 6cbf
000000f0: b342 f1bf a0e8 0ac0 1a45 72bf 672d c2bd
00000100: baf7 cebb dfd8 88bc a383 123f eca4 913e
00000110: 8b47 e9bf 6199 94bf 7523 503f c144 9c3f
00000120: c1a1 9b3e 9ec2 3b3e d102 823d acc5 3a3f
00000130: feff bf3f ec7e 9abf ed38 3640 e41c 76bf
00000140: ad24 4cbf 3286 9dbf a5ac 9bbe f829 a23e
00000150: 25ca 0fc0 9fc8 2d40 9b69 7bbe 3535 57bd
00000160: 5642 51bf b756 40bf 4f81 33bf 7165 1b3e
00000170: c2c5 c6bb d5d7 0340 fba3 ed3f f10d 4dbe
00000180: dc44 3dbe 998c 58bf c53f 94bf 7d38 a03e
00000190: 7c58 08be dd8f 12be 11a9 ab3f dd5d e43f
000001a0: c13c 233e 4b0c 0e3f fba1 4b3f 0d54 123f
000001b0: 0070 0d3f 6047 5d3e 79a8 fdbd 2091 943e
000001c0: 5d57 f43f 58b6 64be bc82 ebbe 2f82 943f
000001d0: ff13 043f 5744 30be 6b20 cbbf 7c3f 7ebf
000001e0: f854 83be 46a2 5fbe a4cf dbbe 9465 6cbf
000001f0: ca86 34bc 44ec c8be 5ee0 183f ddbe 4a3c
00000200: e528 edbe 71c7 bf3e a1e4 be3b c32d 4fbe
00000210: 79cc 00bf 8a2e 56be 0517 b1be d708 2540
00000220: e834 1cbe af09 523c b42b ca3a a2d0 44be
00000230: 770e acbb 0a6b 603d 3e9c 67bf 91ee 1f3e
00000240: 7241 f43e 8d83 ca3d 7f15 683d d8ec be3e
00000250: 3ca4 8d3f 504a ad3e bf59 8e3f 9ceb 0cc0
00000260: d5e8 96bf 3458 d2be e1fb 36bd b321 323d
00000270: a30d a63f c7af 883f e22e cc3e 640c 53bc
00000280: 9653 22bf 6f82 a93e fec0 3fbd 4462 933c
00000290: 639a 99bd a156 453f a6bf 5d3f 19bb b8bf
000002a0: 913b 9fbf b60b 803f 5666 6dbf e84b bfbc
000002b0: ccf3 a7bc af38 1abd 2bb8 fd3e 8427 be3e
000002c0: dcfc 94bd 308a d23e 30af 86bf 99ac 1d40

network.0.bias f4 [20]
1.6908238 1.2620696 0.20999305 0.43443447 -0.6753785 -0.34154034 3.0986512 -0.36304092
0.27959487 0.7857552 0.585015 -1.0746965 -1.0213609 0.11523266 0.81833595 -1.8156312
0.04628579 -1.0601925 0.23106906 -1.0677326
00000000: ea6c d83f 7f8b a13f 6b08 573e 326e de3e
00000010: 9be5 2cbf 60de aebe 4d50 4640 80e0 b9be
00000020: 0f27 8f3e 4127 493f 8bc3 153f a88f 89bf
00000030: f4bb 82bf 1aff eb3d 777e 513f 9a66 e8bf
00000040: 2b96 3d3d 63b4 87bf 5e9d 6c3e 76ab 88bf

network.2.weight f4 [20, 20]
-0.31156984 -0.93833065 -0.85462034 0.06814792 -0.9659537 -0.11840044 0.6465758 0.59457487
0.58424944 -0.58889866 -0.46526283 0.26602495 0.7183102 0.35562766 -0.4009477 -0.49731594
-0.36622888 -0.27883768 -0.94392097 -0.31952435 -0.12294956 1.0895113 0.49572742 -0.90523064
0.45525146 -1.9092239 -0.69112563 0.6667053 -0.033003848 0.9516897 0.09751071 0.4759416
-2.0786822 -0.74852747 1.7243395 0.2755213 0.90427566 1.0667446 0.29989308 0.24584357
-0.3785169 1.361017 0.5016958 -0.19451536 -1.0437117 0.11131806 -1.1053386 1.4947443
-0.23686202 0.654898 -1.0251634 0.81450236 -0.97108704 -1.0887992 1.2588476 0.8637442
0.6328006 1.257221 -0.112480186 -1.0915058 -0.286809 0.78502154 0.027013477 0.12003703
-0.46703997 0.31429768 1.1550642 3.1567545 -0.34591296 0.11799373 -0.8563862 -0.061637066
0.90162575 -0.47295114 0.29792905 0.71962464 -0.80584 -0.3635857 1.0514085 -0.34772825
-0.07193583 -0.5322147 0.20653278 -0.7956253 -0.23540542 1.4498051 0.8414033 -0.9048487
-0.36200637 0.02120334 0.8467699 -0.073823266 -0.2718644 0.31465918 0.22971535 0.03783799
-0.09127709 0.3636479 0.7153889 -1.222688 0.12814207 -0.48462692 -0.27449146 0.47289345
0.4343401 -0.030444372 -0.35478652 -0.511459 0.952242 0.019440332 0.62153214 -0.18160601
0.69247746 0.6177195 -0.134266 -0.05851413 0.68231684 -0.46167007 -0.16301572 0.35748744
-0.16137876 0.021992618 -0.19368902 0.57909405 0.38211095 -0.2553106 2.4233646 2.988533
0.03257371 -0.08312892 -0.7403973 -0.71836543 1.950459 -0.1689552 0.69359004 0.4489268
-1.6261309 -0.49361393 0.38019422 0.5394908 -0.008582065 0.008097595 -0.028055882 0.005066847
0.07452474 -0.027554167 0.005912397 0.0065344325 -0.017770514 -0.01121892 -0.06692245 -0.014890449
0.018242942 0.13281177 -0.033616077 0.038219333 0.01470447 0.04782158 -0.08593193 -0.012507914
-0.00646092 -0.82881206 -0.073660776 -0.1594025 0.16670987 0.12887892 0.9060411 -0.7108189
-0.045534525 -0.48474032 0.7289008 0.27674448 0.42588782 0.8521385 -0.43580386 -0.057875946
-0.7856856 1.152975 0.60737795 0.37479547 0.034265663 0.036456812 0.029510766 -0.022411061
0.058924045 0.03209383 -0.036820963 -0.016114958 -0.0103398105 -0.01359236 0.03628975 0.005342416
-0.037149448 -0.028057473 -0.017289853 -0.030853689 0.014008603 0.005619278 0.011507003 -0.032274883
0.029232573 0.80705655 0.6194364 -0.30133188 0.39449218 0.101445556 0.25254944 -0.6554736
-0.43727875 0.15383415 -0.39889383 -0.5668346 -0.14810814 0.27586854 1.2234694 -0.9665266
1.4556922 -2.0873268 -0.5637757 -0.64964676 -0.0101725515 -0.9687652 1.0967258 1.2138189
0.1787662 1.5585504 1.0243111 -0.7981966 -0.01602896 -0.37139672 -0.29051933 0.5600007
1.559977 0.29168293 -0.12756939 -0.7157246 -0.010129334 -1.006961 -0.5259621 -0.40421385
0.019061007 0.5853675 0.07330391 -0.57178354 -0.15201984 1.5155089 0.5921564 -0.36783448
0.09523167 -0.2349217 0.37096205 0.2381772 -0.059718844 0.23024213 0.018621366 -0.9255341
00000000: 1586 9fbe 7036 70bf 66c8 5abf 2391 8b3d
00000010: be48 77bf ee7b f2bd fe85 253f 0f36 183f
00000020: 5f91 153f 10c2 16bf ee36 eebe 6c34 883e
00000030: 2de3 373f d414 b63e 0449 cdbe 32a0 febe
00000040: 5a82 bbbe d0c3 8ebe cea4 71bf b298 a3be
00000050: fbcc fbbd 1b75 8b3f fccf fd3e 32bd 67bf
00000060: b816 e93e 7361 f4bf 9ced 30bf 33ad 2a3f
00000070: 0b2f 07bd f0a1 733f b2b3 c73d 9eae f33e
00000080: 2109 05c0 7f9f 3fbf 28b7 dc3f 2111 8d3e
00000090: 9c7e 673f 168b 883f 968b 993e 6bbe 7b3e
000000a0: f8cc c1be ce35 ae3f 236f 003f 092f 47be
000000b0: 5898 85bf b9fa e33d bc7b 8dbf c853 bf3f
000000c0: f58b 72be 65a7 273f 8e38 83bf 3a83 503f
000000d0: 2999 78bf c65d 8bbf eb21 a13f 571e 5d3f
000000e0: 38ff 213f 9eec a03f 035c e6bd 76b6 8bbf
000000f0: a1d8 92be 2cf7 483f 5e4b dd3c f9d5 f53d
00000100: dd1f efbe a0eb a03e 25d9 933f 4408 4a40
00000110: 811b b1be b2a6 f13d 203c 5bbf 2677 7cbd
00000120: f2d0 663f a726 f2be 288a 983e 5239 383f
00000130: 884b 4ebf e827 babe 8e94 863f 7009 b2be
00000140: 1853 93bd 393f 08bf 547d 533e 1aae 4bbf
00000150: 1e0e 71be 3793 b93f 3566 573f 2aa4 67bf
00000160: e658 b9be a0b2 ad3c eac5 583f a730 97bd
00000170: d031 8bbe 021b a13e 803a 6b3e 02fc 1a3d
00000180: 7cef babd 0f30 ba3e ba23 373f 0a81 9cbf
00000190: ad37 033e 0521 f8be 258a 8cbe 171f f23e
000001a0: d361 de3e 7a66 f9bc 94a6 b5be faee 02bf
000001b0: 22c6 733f 5541 9f3c bb1c 1f3f edf6 39be
000001c0: 3446 313f dd22 1e3f 077d 09be 83ac 6fbd
000001d0: 51ac 2e3f 0560 ecbe 98ed 26be 9808 b73e
000001e0: 7940 25be dd29 b43c 6a56 46be 823f 143f
000001f0: 0ca4 c33e 12b8 82be 6818 1b40 2044 3f40
00000200: 036c 053d 7f3f aabd ad8a 3dbf cce6 37bf
00000210: a4a8 f93f 9802 2dbe 1e8f 313f bcd9 e53e
00000220: 0f25 d0bf f7ba fcbe d1a8 c23e 121c 0a3f
00000230: ca9b 0cbc c6ab 043c 73d5 e5bc cb07 a63b
00000240: 6da0 983d 47b9 e1bc c8bc c13b cb1e d63b
00000250: 7893 91bc 90cf 37bc a30e 89bd 12f7 73bc
00000260: 3972 953c cfff 073e 03b1 09bd e08b 1c3d
00000270: 04eb 703c 90e0 433d 14fd afbd feed 4cbc
00000280: 20b6 d3bb 072d 54bf 76db 96bd 693a 23be
00000290: feb5 2a3e d6f8 033e 4ff2 673f 3af8 35bf
000002a0: 6982 3abd e22f f8be 3e99 3a3f 74b1 8d3e
000002b0: f80d da3e c025 5a3f af21 dfbe 540f 6dbd
000002c0: b122 49bf af94 933f 1f7d 1b3f 31e5 bf3e
000002d0: 275a 0c3d bd53 153d 90c0 f13c 6797 b7bc
000002e0: 575a 713d d274 033d 94d1 16bd 8403 84bc
000002f0: 4f68 29bc 7db2 5ebc 90a4 143d 6f0f af3b
00000300: 052a 18bd c9d8 e5bc 73a3 8dbc e0c0 fcbc
00000310: 5784 653c ec21 b83b de87 3c3c ab32 04bd
00000320: 2679 ef3c 429b 4e3f 6293 1e3f 2c48 9abe
00000330: e1fa c93e b0c2 cf3d 294e 813e 1ecd 27bf
00000340: 00e3 dfbe b386 1d3e d03b ccbe 131c 11bf
00000350: a9a9 17be a43e 8d3e a59a 9c3f 4a6e 77bf
00000360: 1f54 ba3f c396 05c0 9b53 10bf 404f 26bf
00000370: c6aa 26bc ff00 78bf 8361 8c3f 6b5e 9b3f
00000380: 7d0e 373e 947e c73f a01c 833f 9d56 4cbf
00000390: 2a4f 83bc b627 bebe f3be 94be 355c 0f3f
000003a0: 54ad c73f 7757 953e 8da1 02be ba39 37bf
000003b0: 82f5 25bc 19e4 80bf 74a5 06bf 1ef5 cebe
000003c0: d425 9c3c a5da 153f 5c20 963d 6860 12bf
000003d0: 17ab 1bbe 32fc c13f 9097 173f cd54 bcbe
000003e0: d208 c33d 508f 70be bdee bd3e b9e4 733e
000003f0: bf9b 74bd 98c4 6b3e d68b 983c ceef 6cbf

network.2.bias f4 [20]
-0.37149072 0.492555 1.0399804 0.21025756 0.009904719 -0.68618566 0.44037494 0.19364049
-0.17191598 0.025351599 0.08484404 -0.8445154 -0.39062378 -0.68148065 0.15971282 -0.85064226
0.03936645 -0.51959074 -0.9443037 -0.1482875
00000000: 0834 bebe 2b30 fc3e 141e 853f c24d 573e
00000010: 6747 223c dda9 2fbf d378 e13e b149 463e
00000020: be0a 30be 28ae cf3c b6c2 ad3d 2932 58bf
00000030: d7ff c7be 8475 2ebf c28b 233e b1c3 59bf
00000040: b73e 213d e603 05bf e3bd 71bf aed8 17be

network.4.weight f4 [1, 20]
0.20065169 0.14277741 0.68229276 0.2927838 0.111573204 -0.13422482 -0.24170366 0.004334405
-0.14027448 0.0014568047 -0.110172994 0.21357374 0.21444827 0.3334591 0.0060848603 -0.12319386
0.0049901074 0.10856374 0.10907332 -0.38865682
00000000: a377 4d3e 3e34 123e bdaa 2e3f c2e7 953e
00000010: 7e80 e43d 3b72 09be 2a81 77be a007 8e3b
00000020: 1da4 0fbe 41f2 be3a 61a2 e1bd 13b3 5a3e
00000030: 5498 5b3e 27bb aa3e 8263 c73b 104d fcbd
00000040: 0e84 a33b ab56 de3d d561 df3d 07fe c6be
