injector_surrogate/results/model_1hidden_20nodes_1500epoch_0.01.pth (torch, 4695 bytes, 5 tensors)

network.0.weight f4 [20, 9]
00000000: 2e9c 8fbe 003e 9fbc 3cf1 bb3d 90b0 2b3f
00000010: 1ad9 703f 6a4c 0ac0 2bab 1e40 12c0 b8bf
00000020: 480d 29bf b490 c9bd 90c5 3dbc c256 203e
00000030: 2486 443f 90c6 983f 0425 ff3f a00c 4ebf
00000040: d6a7 a0bf 92e7 473f 80fa 15be 6fb0 c33d
00000050: 7b9f b2bd b016 1f3f 130a f63e 88cc 553e
00000060: 2a0b 963f 6145 93bc 9f81 b840 9dc9 5ebf
00000070: 0e60 04be d5f4 6e3e 03d7 4240 3e1c c53f
00000080: 2aff d8be 0954 8fbd ecc6 65be 8de5 bebe
00000090: 18ec b0bf 0b36 383c e81a af3d 7d98 49be
000000a0: 3995 b2be 8155 093f 529d 493f 9597 7cbd
000000b0: 2702 a2be 2766 1b3f 1131 2f3d 1736 b4bc
000000c0: 04ce 0ec0 6fb5 cdbe c138 99be 638e 973d
000000d0: b0f8 57bf baa5 e2bf 4787 30bf 3eb5 833d
000000e0: 76fc 43bd d41e 0c3e a47a e9be cdb3 ff3e
000000f0: 12ae 4bbf ed08 72bf 35a7 bebf 32d3 17bf
00000100: 2252 ad3c 414a ec3d 479c da3e 13cd 12bf
00000110: e9ef 28bf d352 d2bf 6d70 25be a4df 7c3f
00000120: 8175 5ebf 6238 b9bd f380 af3d 0580 8cbf
00000130: 6a9a 14c0 e00a b7bf 56e1 87c0 1d78 2840
00000140: 18b5 03bb b766 b2bf eb2c ffbe 5fde 003f
00000150: e6f2 16c0 5e47 1040 a47f a4be 267f 6ebe
00000160: 6d62 24bf b6d8 47ba be69 66bf 79b7 f8bd
00000170: 4681 843e d45f 91bf 3f5c f7bf be7d 413b
00000180: 66e9 9abe b4ad a23e cfc6 4a3f fd93 3b3f
00000190: 690b 08be ff06 a3bd 556e 3b3f 825a 0dbf
000001a0: 0147 d2bf 623d dabf c529 8b3f 19cf 503f
000001b0: 5788 763e 2c76 8abf c3fa 4fbf d3e5 29be
000001c0: e41c 85be 1ced 103f 77ef 453f bdfc b03e
000001d0: 0933 b83d ecb9 0fbf de16 3c3e d4eb 6f3c
000001e0: 2631 cd3c e868 7a3e 3285 a8be f70b 74bf
000001f0: 23f0 08c0 8d6e 98be a3df 14bf ceef 73bd
00000200: 2b2c ac3d 40c1 c5bf afc6 5cc0 02e1 8dbc
00000210: 118d 2e3d b926 b9bf 6b71 2dbf 6079 2e3f
00000220: 09a8 16be a503 e63d 5313 df3d db38 203f
00000230: 5da1 0fc0 abd8 8abf 89a3 7340 5592 5240
00000240: 403e af3f ea5e 373e 5ca3 04be 000d 75be
00000250: 982a de3e 8739 0ebe 3f8d 3bbf aa3e a7be
00000260: 36ad ccbe 6ac8 ac3e 74dd 9b3f 36bd 953f
00000270: 9311 903c e97f e7bd 006c 033f f265 4e3f
00000280: f75f 973e 6761 293e aea3 c8be 18f6 3a3e
00000290: e625 5bbe 3f1d dbbe 3e8e 05bd bc82 fb3e
000002a0: fbd4 843f d77e 4840 d0c4 0c40 49be c0bf
000002b0: cee0 d03e b31e 8fbe d8dc 873f daab ce3f
000002c0: 8ddb 6abf dee2 87bf 1cd9 953e 6de1 8dbb
-0.28048843 -0.019438744 0.09176871 0.6706629 0.9408127 -2.160914 2.4791973 -1.4433615
-0.6603589 -0.09842053 -0.011582747 0.15658095 0.7676718 1.1935596 1.9933171 -0.80488014
-1.255122 0.78087723 -0.1464634 0.095551364 -0.08721825 0.62143993 0.4805456 0.20878804
1.1722157 -0.017977418 5.765823 -0.8702639 -0.12927267 0.23335584 3.0443733 1.5399244
-0.42382175 -0.0699845 -0.22439164 -0.37284508 -1.382205 0.011243354 0.08550054 -0.19687076
-0.34879473 0.53646094 0.78755677 -0.061667997 -0.31642267 0.6070275 0.042771403 -0.021998448
-2.2313242 -0.40177485 -0.29926112 0.07400205 -0.8436384 -1.7706826 -0.68956417 0.064310536
-0.047848187 0.13683635 -0.4560138 0.49941865 -0.79562485 -0.9454487 -1.4894778 -0.59306633
0.021157328 0.115376 0.42697355 -0.5734417 -0.65991074 -1.6431526 -0.16156168 0.9877875
-0.86898047 -0.09043957 0.08569517 -1.0976568 -2.3219247 -1.4300194 -4.246257 2.6323311
-0.0020096954 -1.3937596 -0.49838957 0.5033931 -2.3585753 2.254356 -0.32128632 -0.23290691
-0.64212686 -0.000762354 -0.900051 -0.1214437 0.25879878 -1.135737 -1.9325026 0.002952441
-0.30256194 0.3177315 0.7920961 0.7327269 -0.13285603 -0.07960319 0.7321523 -0.5521623
-1.6427919 -1.7049983 1.0872122 0.81566006 0.24075447 -1.0817313 -0.81242007 -0.16591577
-0.25998604 0.566118 0.7731852 0.34567824 0.08994109 -0.5614307 0.18368098 0.014643628
0.02504785 0.24454081 -0.3291412 -0.95330757 -2.1396568 -0.29771844 -0.5815374 -0.059554867
0.08406862 -1.54496 -3.4496267 -0.017319206 0.042615 -1.4464942 -0.6775119 0.68153954
-0.14712538 0.11231164 0.10892358 0.62586755 -2.2442238 -1.0847372 3.8068564 3.2901814
1.3690872 0.179073 -0.12952942 -0.2393074 0.4339187 -0.13889132 -0.732624 -0.32664996
-0.399759 0.33746654 1.2176957 1.1698368 0.017586505 -0.11303694 0.5133667 0.80624306
0.29565403 0.16541062 -0.39187378 0.1825794 -0.21401176 -0.4279575 -0.032606356 0.4912318
1.0377496 3.1327417 2.1995125 -1.505807 0.40796512 -0.2795311 1.0614271 1.6146195
-0.9174126 -1.0616109 0.29267204 -0.0043298514

network.0.bias f4 [20]
00000000: 692d 6ebb dae0 92bf bf51 3ebf 6133 b5bd
00000010: f716 b23f fb61 d43f 4ebb d63f 75a2 e8be
00000020: 22e2 0b40 fa76 503f 76e6 8a3f cefa a73d
00000030: 407f a93f 62bf 0140 9112 5340 e47e 84bf
00000040: c8b1 513f b5dd 53bf 7df7 16c0 c0cd a9bf
-0.0036342985 -1.1474869 -0.74343485 -0.088476904 1.3913258 1.6592401 1.6775911 -0.45436445
2.185677 0.81431544 1.0851581 0.08202134 1.3241959 2.027306 3.2980082 -1.0351224
0.819119 -0.82760173 -2.3588555 -1.3265915

network.2.weight f4 [20, 20]
00000000: 956e 163e 8c96 26bd f377 553f b76e d0be
00000010: f714 bbbe b0d4 213e 7c96 cdbe f99f 753f
00000020: aa8f 063f 45f6 6a3e b3af 2e3e 68d9 7a3f
00000030: 14ea 113f 51e1 6e3e 894c 8cbe 19db cc3f
00000040: 6de4 4bbe 5290 083f d7ef 6abf ff8b 7a3f
00000050: b343 89bf a257 c6bf b1ed 0d40 d854 963d
00000060: 1faf 3f3e 643f 503e 6339 c13f 047a f73e
00000070: d51b c03f 5293 853e 8954 fb3d 01ec 983f
00000080: 2d55 413d 8359 613f 2e54 97bf 51bc 7a40
00000090: bcc0 8cbf e99c 6b3e b505 45bf 7f94 e93a
000000a0: b894 1bbd e751 233d a1da 57bc 64c5 863c
000000b0: bbb9 d0bb 2bad b1bb 3c02 0e3d baaa 92bc
000000c0: 2195 01bd d280 3ebd c456 153d b29a 963c
000000d0: 57cf b6bc 0b55 fcbb 44d8 ecba d49c 463b
000000e0: 660a 89bc 4264 c8bb 777f 103d 5738 9b3c
000000f0: ac82 413e 5a89 20be f1b2 e4be 4dbe d83e
00000100: 7f4d 0d3e 1041 93bf 9086 d43f 6f93 05bf
00000110: fff2 35be 8866 ec3e e98b 0b3e ee2e 093d
00000120: 0519 a3be aea9 75be 8c6e 763f 8242 063e
00000130: 713b ef3f cd55 c7be 3d76 923f d5a7 c2be
00000140: 8a26 5abf 795d 3cbf 938c 9abf 7c68 58bf
00000150: ebbd fd3b aea2 bbbf f2d7 c63e b536 26bf
00000160: 749f 78be bf75 0fbe a22e ec3f 3dda a43e
00000170: 5e7b debe 553e e9bf 9481 eabf 1ed8 b0bd
00000180: 9236 afbe 3af4 45be 6e0b 573f 7685 2c3f
00000190: 00d7 a63c dc16 19bc 4b85 66bc fc0e 11bc
000001a0: 600e 8c3c 3dff dbbc 8081 c83a ee10 01bb
000001b0: 9729 633c 2a94 c039 a2f3 bb3c 7646 86bc
000001c0: c92b c6bc 1a82 dfba 2d7d a13b e2f5 c5bb
000001d0: 9e71 5cbc 56bf 993a a851 7d3b 5715 4fbc
000001e0: e7b0 56bf 0970 b4bf c71d f9bf 7fa0 ef3e
000001f0: a62f b33e e85a f83e 37b4 1abd 364d 833e
00000200: 3cf7 6abf 1c01 9dbf eead fd3f 40e5 a1bf
00000210: 255f 7bbf fbdf 893e c036 3ac0 8030 72bd
00000220: d8eb 4cbf 1adf 4bbf 1ed4 163b 2c17 86bf
00000230: 09a0 55bf d4a2 c93e 9f72 2a3f 0c14 71bf
00000240: 8609 0bbf 80d1 c0bf 499b 53c0 4bb6 77be
00000250: dbe5 ed3d e5c1 873e e376 933f 2ee1 dd3e
00000260: 21a5 be3e 984e 4b3f 0cfc f33e faa5 513f
00000270: c6cb 073d 359e a83e d72b 463f 095f 633f
00000280: fdf8 36bf cfe0 7a3e 1454 173f b267 0e3f
00000290: 4a27 adbd c1ba 8bbe e5f0 27c0 0f8f abbf
000002a0: 709c ef3d ccb6 4a3d 1344 973f 222d 193f
000002b0: 9b68 0abf 7e74 993f 7e97 d83e eb4d 303f
000002c0: f952 cc3b 6636 0dbf ee14 a03f 1c67 d13e
000002d0: 6529 2fbf 73f3 b83e fa32 af3d 054d d23f
000002e0: 82fa 9a3f de35 0340 1c4a 1ebe c813 0abf
000002f0: 9e64 a2be 7a35 d7be b1f4 57be eb27 69be
00000300: f7c9 8cbf fda9 2c3f 81bb 84be 3e13 d43d
00000310: e2b2 fabe 5ae7 83bf e47f 063f 8dce a8bf
00000320: 5bc9 b23f 5abe c43f 98f9 1abf f110 383f
00000330: 8bb6 d7be 4f04 723d f08b 713e cc74 e9be
00000340: e1b9 953f 2301 6bbe b7e6 c13f b080 9abf
00000350: b95f 88bf b5a6 933e 2892 edbe 5000 283e
00000360: dec4 b03f 6b85 9abf d15a d73e b1b4 2dbf
00000370: 81a1 433c e60b fa3e 6118 16be 9b1f 04bf
00000380: 3bf1 5cbf a18b 84be d05e 58be dd10 483d
00000390: cd33 463e 92cc f53c 8063 69be 0293 abbe
000003a0: c81f 46be 2724 68bf 7607 3a3f 2dea c4be
000003b0: 79d9 51bd c90d 83bc 6196 b5be 19de 1c3e
000003c0: 5e66 a23f a802 0bbf 4dd0 163f 2dba 8d3e
000003d0: 9211 b53e 5db7 49bf 92da bc3f 0d59 823f
000003e0: 1e2c 4c3f ee13 103f f240 1240 9a34 7bbf
000003f0: 8d31 00bf ef01 e9be 73c0 ca3e 8d64 2abf
0.14690621 -0.040670916 0.83386153 -0.4070947 -0.36539432 0.1580379 -0.40153873 0.95947224
0.52562964 0.22945507 0.17059211 0.97987986 0.569978 0.23328139 -0.27402142 1.6004363
-0.19911356 0.53345215 -0.91772217 0.9786987 -1.0723785 -1.5495493 2.2176325 0.073404014
0.18719147 0.20336682 1.5095638 0.48335278 1.5008494 0.2608896 0.12271983 1.1947023
0.04720037 0.8802721 -1.1822565 3.917744 -1.0996318 0.23009075 -0.76961833 0.0017820745
-0.037983626 0.03987303 -0.013174684 0.016451545 -0.006369797 -0.0054222546 0.0346701 -0.017903674
-0.03163636 -0.04650957 0.0364597 0.018384311 -0.022315664 -0.0077005676 -0.0018069823 0.003030588
-0.016728591 -0.0061154673 0.03527781 0.018947763 0.18897504 -0.15677395 -0.4466777 0.42332688
0.13799094 -1.150423 1.6603565 -0.5217809 -0.17768477 0.46171975 0.1362759 0.03349202
-0.31855026 -0.23990509 0.9626243 0.13111308 1.8690015 -0.38932648 1.1442333 -0.3801867
-0.85215056 -0.7358013 -1.207415 -0.8453443 0.0077435873 -1.4659021 0.38836628 -0.64927226
-0.24279577 -0.1400976 1.8451731 0.32197753 -0.43453497 -1.8222147 -1.8320794 -0.08634971
-0.3422132 -0.19331446 0.84001815 0.67391145 0.020366192 -0.009343829 -0.014069865 -0.00885367
0.017096698 -0.026855106 0.0015297383 -0.0019693929 0.013864896 0.00036731485 0.022943322 -0.01639102
-0.0241908 -0.0017052323 0.004928252 -0.0060412744 -0.013454823 0.0011729996 0.0038653407 -0.012639365
-0.8386368 -1.409669 -1.9462212 0.46802136 0.3499729 0.48506856 -0.037769523 0.25644845
-0.917835 -1.2265964 1.9818704 -1.2648087 -0.98192054 0.26928696 -2.9095917 -0.059128284
-0.8004737 -0.796373 0.0023014615 -1.0475821 -0.8344732 0.3938204 0.6658115 -0.94171214
-0.54311407 -1.5063934 -3.3063529 -0.24190633 0.11616107 0.26515117 1.1520656 0.4333586
0.37235358 0.794168 0.47653234 0.81893885 0.033153318 0.32933202 0.77410644 0.8881689
-0.71473676 0.2449982 0.5911267 0.55626976 -0.084547594 -0.2729092 -2.624078 -1.3403033
0.1169976 0.049490735 1.181765 0.5983449 -0.54065865 1.1988676 0.4230308 0.68868893
0.006235477 -0.5516113 1.2506387 0.4089898 -0.6842254 0.36123237 0.08554645 1.6429754
1.2107699 2.0501628 -0.15457958 -0.53936434 -0.3171739 -0.42032987 -0.21089436 -0.22769134
-1.0999135 0.6744688 -0.25924304 0.10355233 -0.48964602 -1.0304978 0.52538896 -1.3188034
1.3967699 1.5370591 -0.605371 0.7190085 -0.42131457 0.05908614 0.23588538 -0.4559692
1.1697351 -0.22949652 1.5148534 -1.2070522 -1.0654212 0.28838125 -0.4640057 0.16406369
1.3810079 -1.2071966 0.42061475 -0.6785384 0.011940361 0.48837203 -0.14657737 -0.51610726
-0.8630559 -0.25887778 -0.21129918 0.048844207 0.19355698 0.030004773 -0.22791862 -0.33510596
-0.19348061 -0.90680164 0.72667634 -0.38459912 -0.05123279 -0.015997784 -0.35466293 0.15319099
1.268749 -0.5430093 0.5891159 0.27681103 0.35364968 -0.78795415 1.4754202 1.0183426
0.7975482 0.5628041 2.285214 -0.9812714 -0.5007561 -0.45509288 0.39599952 -0.6655968

network.2.bias f4 [20]
00000000: 7390 4bbc 4e1a debe 661a 27bc 9370 9abe
00000010: 675e b6bf b070 8e3c 4667 dcbf 653b 6f3f
00000020: 1642 113f d37d 85bd 73b5 6abf 98b1 983e
00000030: 1b47 4b3f 09c9 0bbf 8019 bf3e dee6 da3e
00000040: 6d5c ffb9 02b8 edbe fb38 07bf 7e80 4c3f
-0.012424576 -0.43379444 -0.010199165 -0.30164012 -1.4247559 0.017387718 -1.7219017 0.93450004
0.56741464 -0.0651814 -0.9168312 0.29822993 0.79405373 -0.5460363 0.37324142 0.42754263
-0.00048706253 -0.4642945 -0.5282132 0.79883564

network.4.weight f4 [1, 20]
00000000: a51e 653e 3e75 debd e494 543b 2411 1a3e
00000010: a382 7c3e f637 943a 5ec7 aebe 0950 c63e
00000020: 0afd e3be a1df 083e e277 cbbd 404d 65be
00000030: e85e 923d d97d ecbd 02ad 363e 3ede 4b3e
00000040: 8b64 bcbd 7d56 0bbe d00f bd3d 7f33 9a3e
0.22374971 -0.10862206 0.0032437379 0.15045601 0.24659209 0.0011308182 -0.3413648 0.38732937
-0.4452899 0.13366558 -0.09934975 -0.2239275 0.07147008 -0.11547441 0.17839435 0.19908997
-0.091988645 -0.13607211 0.092315316 0.30117413
