injector_surrogate/results/model4_2hidden_30nodes_1500epoch_0.001.pth (torch, 11279 bytes, 7 tensors)

network.0.weight f4 [30, 9]
-2.0864618 0.20807621 -0.065421976 -0.40312654 -0.13822469 0.14783452 0.10002923 0.43173152
0.33478993 -0.16765945 0.031822693 -0.019226901 -0.00048536953 0.03660322 1.8886179 0.79554826
-0.22121061 -0.1293592 0.026598984 -0.06190885 0.021173507 0.19777432 0.24698417 0.4601101
0.075656764 0.9787025 0.74991024 1.3482152 -0.023219533 -0.014284975 -2.7151983 -1.7313281
0.22605667 0.09595678 -0.12601063 -0.22436112 2.2367737 -0.2625401 0.35088116 -0.18434294
-0.51055235 0.34960008 0.38076898 0.24181311 0.16789697 0.2720766 -0.34523267 0.0038598871
-0.36355767 -0.68825656 0.66986006 0.6075204 -0.32855907 -0.38746464 0.6687064 0.25512633
-0.36595106 0.16765364 -0.018263038 0.26337686 0.042890154 -0.46120894 -0.30945185 -0.6193241
-0.28901845 0.45434067 1.0912079 -0.9372303 0.29277185 0.9309572 0.46230853 0.4619877
-0.00917255 -0.08066854 0.011551243 0.11057573 0.037684534 -2.0683153 -2.793 0.22904396
0.23721005 -0.16434643 -0.47126353 0.29589218 1.917891 2.8363483 -0.010211171 -0.037822794
0.38246503 -0.034987953 -0.39256054 0.022646027 0.06844879 -0.04316659 -0.31727743 0.167115
2.4661853 -0.7827559 -0.41989943 0.26346946 -0.077758476 0.096199445 -0.12157477 -0.17829551
0.050082877 0.28241274 1.1892743 1.9254854 0.22584505 0.1106225 -0.085359424 1.0576752
2.1033504 -0.3464805 -0.44398543 -0.36006248 -0.36157912 0.7425329 -0.12488973 0.27193147
-0.6909447 -0.5074089 -1.3664163 -0.8664232 0.42222288 0.26029092 -0.8803256 0.08007893
-0.07527123 1.6902434 1.0273305 0.65105414 0.17673239 -0.40571862 -0.9016896 -0.58530957
0.4089716 -0.34419176 -0.31052437 0.007215453 0.1995174 0.23741844 0.017775552 -0.29954842
0.09290933 -0.05623038 -0.015540125 -0.06822591 -0.21496087 -1.1201707 -1.9393351 -2.509998
-1.100894 0.21902369 0.8796554 -0.036061186 0.42187315 1.3363022 0.26823106 0.50267994
-0.17115766 -0.32469815 -0.46547326 -0.5058147 -0.48435616 0.043575216 0.26032564 -0.31759238
-0.4880045 0.05457068 0.057924666 0.28128225 0.043889243 0.012640624 0.06437129 0.34366968
0.03940606 0.46198052 -1.8506402 0.7006607 0.06302766 -0.052624296 -0.012898969 -0.6338719
-1.0145031 -0.8805954 -1.4915432 0.45013094 0.059588704 3.242732 0.29815903 -0.3852537
-0.4187684 -0.39242604 0.08313398 0.057117958 -0.16029662 -0.20116323 0.9668453 -0.15608332
0.013139014 0.65869707 1.5529283 0.26236415 0.85590965 1.0992686 0.8638725 0.078978606
0.015170095 0.11479348 0.34537017 0.39411736 0.11846677 -0.40458223 1.0171304 0.9170674
-0.10742916 0.24240902 -0.13335153 -0.14488783 0.0093997335 -0.41579032 -0.90326595 3.945484
2.7254195 0.5752968 -0.011069337 -0.026046438 0.330451 0.3347753 0.25355658 0.3250449
-0.67235863 3.3686707 -0.26597962 -1.6177516 -1.1862258 -0.013792282 0.10128081 0.05986819
0.0561292 -0.006089589 0.0063964375 -0.86473805 0.11633131 0.3285255 0.1922808 -0.21148868
0.328264 0.21218087 -0.065567754 -0.10163865 7.4012594 0.045944624 0.025264934 0.63467336
00000000: 9788 05c0 ee11 553e f5fb 85bd 9a66 cebe
00000010: c68a 0dbe ef61 173e 20dc cc3d ea0b dd3e
00000020: 9669 ab3e ebae 2bbe 8358 023d bc81 9dbc
00000030: 3279 feb9 42ed 153d 3bbe f13f 0da9 4b3f
00000040: 0985 62be bd76 04be 1de6 d93c 2294 7dbd
00000050: 1074 ad3c 5a85 4a3e 6be9 7c3e 8d93 eb3e
00000060: eff1 9a3d 3f8c 7a3f 1efa 3f3f 5192 ac3f
00000070: e436 bebc 870b 6abc cfc5 2dc0 299c ddbf
00000080: 667b 673e fd84 c43d ee08 01be ecbe 65be
00000090: 4d27 0f40 a86b 86be b2a6 b33e 65c4 3cbe
000000a0: 8fb3 02bf c8fe b23e 27f4 c23e db9d 773e
000000b0: 2fed 2b3e a04d 8b3e 56c2 b0be 29f6 7c3b
000000c0: 3b24 babe 9531 30bf f37b 2b3f 7586 1b3f
000000d0: e538 a8be c461 c6be 5830 2b3f eb9f 823e
000000e0: f05d bbbe 65ad 2b3e 5e9c 95bc 55d9 863e
000000f0: 96ad 2f3d 9423 ecbe 7970 9ebe 068c 1ebf
00000100: 3afa 93be 579f e83e b3ac 8b3f 53ee 6fbf
00000110: 31e6 953e 3653 6e3f b4b3 ec3e a789 ec3e
00000120: 7748 16bc 8c35 a5bd 6d41 3d3c 8775 e23d
00000130: 195b 1a3d 475f 04c0 83c0 32c0 808a 6a3e
00000140: 31e7 723e 6e4a 28be 7449 f1be 2e7f 973e
00000150: 747d f53f bb86 3540 c14c 27bc 13ec 1abd
00000160: 75d2 c33e 874f 0fbd b2fd c8be 2984 b93c
00000170: e12e 8c3d 73cf 30bd 3072 a2be 3220 2b3e
00000180: fbd5 1d40 b162 48bf 0ffd d6be 78e5 863e
00000190: d63f 9fbd 3704 c53d 31fc f8bd 1993 36be
000001a0: b423 4d3d 6798 903e 243a 983f 4e76 f63f
000001b0: ed43 673e 0d8e e23d ecd0 aebd e761 873f
000001c0: 4b9d 0640 e465 b1be 0f52 e3be 1c5a b8be
000001d0: e620 b9be a316 3e3f 30c6 ffbd 9a3a 8b3e
000001e0: c0e1 30bf 8de5 01bf bbe6 aebf e9cd 5dbf
000001f0: 992d d83e da44 853e 055d 61bf 6c00 a43d
00000200: cd27 9abd e559 d83f 917f 833f 7cab 263f
00000210: 56f9 343e 5aba cfbe 21d5 66bf d9d6 15bf
00000220: ba64 d13e e739 b0be 0dfd 9ebe 9b6f ec3b
00000230: 4a4e 4c3e d21d 733e 099e 913c 695e 99be
00000240: 3f47 be3d d451 66bd 029c 7ebc 07ba 8bbd
00000250: b41e 5cbe c161 8fbf 223c f8bf cfa3 20c0
00000260: 18ea 8cbf bf47 603e 1931 613f e5b4 13bd
00000270: c2ff d73e f30b ab3f 9555 893e a2af 003f
00000280: f443 2fbe d63e a6be 8352 eebe 127d 01bf
00000290: 88fd f7be ed7b 323d 6749 853e 789b a2be
000002a0: badb f9be 8185 5f3d 6a42 6d3d 3a04 903e
000002b0: 35c5 333d 9f1a 4f3c 18d5 833d 79f5 af3e
000002c0: 4068 213d b688 ec3e c7e1 ecbf 805e 333f
000002d0: a514 813d 938c 57bd 3356 53bc 6e45 22bf
000002e0: 3ddb 81bf b36e 61bf e3ea bebf 9077 e63e
000002f0: 4913 743d ec88 4f40 4da8 983e f93f c5be
00000300: d068 d6be 11ec c8be 2642 aa3d 85f4 693d
00000310: cc24 24be bcfd 4dbe 2c83 773f 4ed4 1fbe
00000320: 0545 573c 5fa0 283f 5bc6 c63f 9854 863e
00000330: e51c 5b3f d5b4 8c3f c026 5d3f 89bf a13d
00000340: fd8b 783c d818 eb3d 5cd4 b03e c0c9 c93e
00000350: b59e f23d 6725 cfbe 5431 823f eec4 6a3f
00000360: d203 dcbd 123a 783e 4e8d 08be 7a5d 14be
00000370: 5701 1a3c 78e2 d4be 703c 67bf cf82 7c40
00000380: 466d 2e40 a746 133f 2a5c 35bc 575f d5bc
00000390: e030 a93e ab67 ab3e 2bd2 813e 496c a63e
000003a0: b21f 2cbf 4d98 5740 7b2e 88be 7c12 cfbf
000003b0: 3fd6 97bf 06f9 61bc 506c cf3d 5938 753d
000003c0: bbe7 653d 2d8b c7bb 3599 d13b 795f 5dbf
000003d0: 1c3f ee3d 7f34 a83e 42e5 443e 7d90 58be
000003e0: 3812 a83e f145 593e 6348 86bd ed27 d0bd
000003f0: 1ed7 ec40 6e30 3c3d 68f8 ce3c f479 223f

network.0.bias f4 [30]
0.072010316 -0.48262045 -1.2330905 0.33889216 -0.06279648 0.42904902 -0.19936398 0.43490368
2.39645 -2.1086636 -1.3673201 -1.1306255 -1.2990031 1.6810114 -0.5007388 0.32915092
2.7916343 -1.0564395 1.028518 0.6929076 1.0392174 -0.10218255 -1.4230086 -2.0403569
-0.68135095 -0.8685655 0.474312 -0.12693493 -0.7871035 -0.6871357
00000000: 257a 933d 071a f7be e9d5 9dbf 4683 ad3e
00000010: 719b 80bd 50ac db3e 1226 4cbe b2ab de3e
00000020: 705f 1940 58f4 06c0 5804 afbf 56b8 90bf
00000030: bc45 a6bf 622b d73f 6b30 00bf 7886 a83e
00000040: 23aa 3240 6939 87bf 7aa6 833f 6462 313f
00000050: 1305 853f 1645 d1bd 2525 b6bf 3595 02c0
00000060: 046d 2ebf 4f5a 5ebf 06d9 f23e 3bfb 01be
00000070: 9d7f 49bf 20e8 2fbf

network.2.weight f4 [30, 30]
-0.24259466 0.46473065 -2.3522556 -0.19927046 0.7825594 0.16162129 0.78017473 0.57922006
0.2552512 -1.0525858 -0.26429915 -0.33119884 -2.4467444 -0.17113258 0.34845296 -1.0812143
-0.69862396 0.5366682 0.5328207 0.1008766 1.63121 -1.5368735 -1.3388742 -0.33465192
0.3333316 0.19478667 -0.18592964 -0.36388138 0.5549408 -0.36329 0.7944845 -0.17777444
1.455205 -0.033683624 0.5014675 -0.2268346 1.4229212 0.2671458 -0.7215295 -0.16354755
-0.07235871 1.0553827 0.07987967 -0.82109755 -1.0860668 -0.87820697 -0.6704236 -0.19491479
0.33789986 -0.17883211 -0.03780213 -0.1696374 0.8623696 0.60539734 -0.14528991 0.5006956
-0.24701534 0.18166801 -0.07045661 -0.45672396 -0.45140305 -0.29476506 -2.0142508 -0.013555839
0.14092666 0.049497925 -0.32834047 -0.42174 -1.2275106 -0.4157405 1.15722 -0.17991695
0.05745977 0.7549084 0.4304375 -0.10554736 0.13508786 0.28103966 0.4326619 0.47688097
-0.45352247 0.17874049 0.54445446 0.7652975 0.49901968 -0.51617235 0.16202347 0.98823375
-0.26784018 0.5689877 -0.16935216 0.14817305 -0.98100966 0.28421414 0.76317996 0.22845247
0.5134645 0.6495144 0.055338036 -0.5511248 -0.31566307 0.22978531 -1.5923669 0.4075511
0.10325218 -0.26650718 -1.035308 0.44354764 0.71298254 0.17515865 1.7644559 -0.84047973
-1.021921 -1.2694017 -0.32429177 0.093302175 -0.12423312 0.94591343 0.23372957 0.37879598
0.03441501 0.38596493 0.2570937 -0.26244432 0.31460214 0.3171906 -0.42108545 0.09846968
0.24081792 -0.14744768 -0.28977436 -1.4645011 -0.19797084 -0.7386036 -0.32075807 -0.34889618
0.030949507 0.14135186 0.2287768 0.18022303 -0.008875868 0.07785948 0.38805255 -0.278152
0.15594731 0.049031764 -0.19717607 -0.026886525 0.0062425663 0.17799161 1.0379462 -0.6607952
-0.13555376 -1.0561725 -0.32450497 0.5162617 -0.19466642 -0.52960354 -0.232445 0.032386433
0.00058347645 0.061982386 -0.06807314 -0.30144066 0.2663358 -1.3150527 0.10825069 0.26877546
0.42173594 -0.09798126 -0.36395666 0.29856834 0.23234499 0.18700852 0.055713635 0.28107667
-0.20620708 0.7437469 0.3306249 0.8149865 -0.31657344 -0.6005485 0.4269727 0.8267479
0.17799102 0.9868294 0.7136061 -0.1706826 -0.42120737 0.07954363 0.04882893 -0.8286145
0.36961675 -0.47880748 0.25376746 -0.28160816 0.19096209 0.09449725 0.43413112 0.34453222
0.55847967 -0.45387837 -0.22327012 -0.60809946 -0.08422911 -0.29904908 -0.5429853 0.4556951
0.1207798 -0.0825377 0.6621162 -2.025232 1.4806753 0.90835446 -0.5277416 -0.3920301
0.55561084 -0.18817808 1.4414632 -0.28988478 0.89125365 0.18747263 -0.121157624 1.1586215
0.9619086 -1.3146174 -0.21132058 -0.4595839 0.9179444 0.65378726 -0.047558375 -0.25493833
0.04127857 -0.78519636 -0.27048635 -0.12303674 -0.9965545 -0.5405891 0.14249508 0.935051
0.23597488 0.09744117 2.5712276 0.22851321 0.5574683 0.27157873 1.2178574 0.50795543
0.8208988 -0.6039448 -0.12523502 -0.56634533 -0.93049735 1.0409691 -0.2993652 -0.18571877
00000000: bc6a 78be 2df1 ed3e 5b8b 16c0 8e0d 4cbe
00000010: d055 483f 0d80 253e 88b9 473f c447 143f
00000020: 49b0 823e 22bb 86bf 3852 87be e592 a9be
00000030: 7697 1cc0 613d 2fbe 6d68 b23e 3b65 8abf
00000040: 05d9 32bf 1663 093f f066 083f 6498 ce3d
00000050: 7dcb d03f 45b8 c4bf 3b60 abbf 7f57 abbe
00000060: 71aa aa3e 2876 473e 5764 3ebe a94e babe
00000070: 9a10 0e3f 2601 babe 5663 4b3f 810a 36be
00000080: 2844 ba3f d7f7 09bd 2d60 003f 5447 68be
00000090: 4822 b63f 56c7 883e 28b6 38bf 0279 27be
000000a0: ce30 94bd c816 873f f497 a33d 7333 52bf
000000b0: 3d04 8bbf 2cd2 60bf e2a0 2bbf be97 47be
000000c0: 3601 ad3e c41f 37be 68d6 1abd 6db5 2dbe
000000d0: 41c4 5c3f 52fb 1a3f e1c6 14be 962d 003f
000000e0: 97f1 7cbe 2e07 3a3e 8e4b 90bd b9d7 e9be
000000f0: 4d1e e7be 72eb 96be 7ce9 00c0 4f19 5ebc
00000100: 144f 103e 56be 4a3d 3e1c a8be 4eee d7be
00000110: 111f 9dbf f0db d4be c91f 943f 263c 38be
00000120: f05a 6b3d ad41 413f 4e62 dc3e 3729 d8bd
00000130: 7954 0a3e 6ee4 8f3e dc85 dd3e be29 f43e
00000140: 1934 e8be bf07 373e 5e61 0b3f 89ea 433f
00000150: 827f ff3e df23 04bf 7be9 253e e3fc 7c3f
00000160: 5922 89be 2ea9 113f a76a 2dbe adba 173e
00000170: 7323 7bbf 8484 913e c35f 433f 72ef 693e
00000180: 6972 033f 9346 263f 23aa 623d 8416 0dbf
00000190: 979e a1be d74c 6b3e aed2 cbbf 8aaa d03e
000001a0: e175 d33d a173 88be f984 84bf ad18 e33e
000001b0: 0686 363f ca5c 333e b1d9 e13f ae29 57bf
000001c0: 4fce 82bf c17b a2bf 9209 a6be 3615 bf3d
000001d0: ef6d febd 6227 723f ce56 6f3e 8cf1 c13e
000001e0: c1f6 0c3d 329d c53e c9a1 833e 1a5f 86be
000001f0: 8813 a13e ce66 a23e 8398 d7be 79aa c93d
00000200: f998 763e 86fc 16be 4e5d 94be c674 bbbf
00000210: deb8 4abe 2015 3dbf 673a a4be 85a2 b2be
00000220: d289 fd3c 8bbe 103e 7744 6a3e 638c 383e
00000230: 176c 11bc cb74 9f3d d3ae c63e f069 8ebe
00000240: a7b0 1f3e 88d5 483d 86e8 49be 2141 dcbc
00000250: 718e cc3b 6f43 363e 6cdb 843f e029 29bf
00000260: 9bce 0abe a930 87bf 8425 a6be ba29 043f
00000270: a256 47be 1994 07bf 1006 6ebe a3a7 043d
00000280: 71f4 183a 3ee1 7d3d ee69 8bbd 6e56 9abe
00000290: 2a5d 883e a653 a8bf 8ab2 dd3d f09c 893e
000002a0: c6ed d73e 66aa c8bd 8758 babe f3dd 983e
000002b0: d8eb 6d3e 297f 3f3e fb33 643d 48e9 8f3e
000002c0: f327 53be 3266 3e3f ab47 a93e f5a2 503f
000002d0: ea15 a2be 8cbd 19bf 2a9c da3e c0a5 533f
000002e0: 4743 363e daa0 7c3f e4ae 363f 6bc7 2ebe
000002f0: 7ea8 d7be c5e7 a23d d800 483d 1420 54bf
00000300: 683e bd3e 4126 f5be cfed 813e f22e 90be
00000310: 918b 433e c687 c13d 6f46 de3e 8766 b03e
00000320: 86f8 0e3f bf62 e8be eca0 64be 68ac 1bbf
00000330: 5080 acbd f61c 99be 1601 0bbf de50 e93e
00000340: 665b f73d 8709 a9bd 7380 293f 679d 01c0
00000350: c586 bd3f eb89 683f 131a 07bf 2bb8 c8be
00000360: 833c 0e3f c1b1 40be de81 b83f c76b 94be
00000370: 3329 643f d3f8 3f3e 7d21 f8bd b64d 943f
00000380: a43f 763f 6245 a8bf 6c64 58be 954e ebbe
00000390: 67fe 6a3f 9a5e 273f 92cc 42bd 4787 82be
000003a0: b813 293d a102 49bf 307d 8abe b0fa fbbd
000003b0: 321e 7fbf 0c64 0abf 3bea 113e 815f 6f3f
000003c0: 66a3 713e 3c8f c73d fe8e 2440 5eff 693e
000003d0: 3eb6 0e3f 5e0c 8b3e c0e2 9b3f 5e09 023f
000003e0: 6c26 523f 209c 1abf 9c3d 00be 02fc 10bf
000003f0: 1335 6ebf 7a3e 853f 6546 99be 102d 3ebe

network.2.bias f4 [30]
-0.030968152 -0.67950475 0.67635316 -0.35962117 -0.6276141 -1.8983196 0.005800014 -0.310215
-1.0615815 -0.4324262 1.354088 0.48085314 -0.52263844 -0.38057593 -0.20962727 1.5475047
0.75200635 -0.38675642 -0.8309273 -1.0201087 -1.3992987 -0.21206458 -1.8500091 -0.49863538
0.8903909 -0.92584765 -0.47612932 0.23717609 -0.70747423 -0.20066096
00000000: ecb0 fdbc 06f4 2dbf 7b25 2d3f 4420 b8be
00000010: 51ab 20bf 23fc f2bf 0b0e be3b 80d4 9ebe
00000020: e7e1 87bf f866 ddbe c152 ad3f 6232 f63e
00000030: a2cb 05bf d9da c2be 88a8 56be a214 c63f
00000040: 7d83 403f f004 c6be a7b7 54bf ec92 82bf
00000050: 381c b3bf 7527 59be 19cd ecbf 234d ffbe
00000060: a8f0 633f 5a04 6dbf 39c7 f3be 4ade 723e
00000070: 081d 35bf 117a 4dbe

network.4.weight f4 [30, 30]
0.3596411 -0.07440079 0.109924704 -0.9736989 -0.79972535 -0.2169464 0.4161517 -0.07684407
0.17908777 0.12597004 -0.16490197 -0.22450449 -0.06886001 0.06633762 -0.34956852 -0.1770829
0.22191618 0.11363457 0.14068948 -0.42051938 0.23021096 -0.36470902 -0.1364867 -0.122209445
0.074667245 0.28479096 -0.69685256 0.37584 0.3488169 -0.37177488 -0.50153136 -0.5061266
0.28518763 0.48995993 0.6817216 0.2523722 0.55891144 0.13982044 -0.072166726 0.119861394
0.045059506 0.20307994 0.11314186 -0.99246764 0.6738254 0.17994441 0.2636777 0.35462058
-0.07225711 -0.047986437 -0.22364622 0.48498565 -0.21592289 0.28817505 -0.2923816 -0.0026320321
0.39446357 0.009727939 1.2324219 -0.11307868 0.65734416 0.028180793 0.46847993 -0.89848274
-0.5865246 0.043791234 0.15928851 -0.04798144 -0.76632047 -0.4024412 0.26231453 0.26992255
-0.048929285 0.21518491 -0.059739724 0.053644873 -1.3250662 -0.22360963 0.5041381 0.48083675
0.043121178 -0.16987865 -0.63049734 -0.17135061 0.20444867 -0.69744134 -0.049080055 -0.057598468
-0.29564357 0.08305864 -0.9981842 -0.02125895 -0.04101315 -0.46768498 0.3108404 0.39714107
0.10059824 -0.11078732 -0.12096095 -0.55339044 -0.25742543 -0.14478695 0.09154799 -0.17647204
-0.28809524 0.29581827 -0.15191305 0.80309063 -0.57991576 -0.46727666 -0.09414437 0.03212669
-0.7707721 0.01717651 0.17582121 -0.9648792 -0.17020054 0.089026704 -0.35671186 -0.1175838
0.30129263 -0.23358758 0.53605807 0.34941334 0.5984221 -0.16229236 -0.54998404 -0.22345951
1.297437 0.27459314 0.19591832 -0.4061298 -0.19647886 -0.3470354 0.868366 -0.4875419
0.1013242 -0.0024783262 -1.2505116 -1.1167771 -0.10547547 0.4277551 1.2525284 -0.30281082
-1.3427345 1.9509872 -0.6281388 -0.033857048 0.7220329 0.26319048 -1.1126168 -0.22084554
0.72496617 0.43574366 0.2648421 0.7187299 0.53955436 0.11406831 0.115662456 1.1283311
-0.6313568 0.35861123 0.08533664 0.36814114 0.1787464 -0.03581695 0.6447531 -0.8722782
0.6518511 0.28975788 -0.14841565 -0.2795658 0.46828264 0.6432096 0.100480326 0.52800316
-0.17949754 0.028275726 -1.1675011 0.2608007 0.39703172 0.55606145 -0.3323083 -0.8296146
1.5836592 -0.14629689 -0.3967294 0.23598282 -0.10535622 -0.6104761 0.34538367 1.1322216
-0.18340941 0.59467494 1.1762059 -0.086128145 -0.25657636 -0.2436592 0.34484482 0.630124
0.095339544 -0.69866735 0.23140268 0.61662096 -0.601423 -1.2092153 1.7438865 0.17284392
-0.8032222 -0.008247223 0.6212056 0.59217495 -0.12697932 -0.52063376 -0.73408365 0.35224494
-0.38368058 0.22344348 0.2896192 -1.5398449 -0.12112245 0.3239102 0.06683958 0.13671939
0.40430942 -0.6666053 0.36728454 -0.52837425 -0.2585069 0.2149826 -0.1307198 0.021668376
0.07756884 -1.0079536 -0.18704739 -0.69956267 -0.10545041 0.20222872 0.4491825 -0.60663784
0.6053265 -0.17569761 -0.6913919 -0.49017617 -1.3186312 -0.35923472 -0.21228807 0.30345467
-0.17528142 -0.040387053 0.34041458 0.19509153 0.2828794 0.05774583 -0.11305592 -0.17048296
00000000: e122 b83e 715f 98bd 3420 e13d 5544 79bf
00000010: cdba 4cbf 3227 5ebe d611 d53e 6c60 9dbd
00000020: c962 373e 4afe 003e 10dc 28be 81e4 65be
00000030: 7a06 8dbd 05dc 873d a5fa b2be 3855 35be
00000040: ff3d 633e 3eb9 e83d e710 103e 514e d7be
00000050: 6cbc 6b3e 24bb babe 2bc3 0bbe f248 fabd
00000060: 24eb 983d 1fd0 913e ee64 32bf 1a6e c03e
00000070: 2198 b23e 4759 bebe 5c64 00bf 8391 01bf
00000080: 1d04 923e 07dc fa3e 4f85 2e3f ee36 813e
00000090: d214 0f3f 172d 0f3e 26cc 93bd e479 f53d
000000a0: 5190 383d 30f4 4f3e ebb6 e73d 5c12 7ebf
000000b0: d27f 2c3f 5943 383e c300 873e d490 b53e
000000c0: 89fb 93bd 6d8d 44bd 8403 65be 0a50 f83e
000000d0: e41a 5dbe ae8b 933e 0bb3 95be 2c7e 2cbb
000000e0: 21f7 c93e ef61 1f3c 00c0 9d3f cc95 e7bd
000000f0: b547 283f 68db e63c 9adc ef3e f702 66bf
00000100: 7a26 16bf 705e 333d 871c 233e 3088 44bd
00000110: 942d 44bf c60c cebe 174e 863e 4a33 8a3e
00000120: 136a 48bd 6f59 5c3e a4b1 74bd baba 5b3d
00000130: c59b a9bf ecf9 64be 320f 013f 3c30 f63e
00000140: d59f 303d abf4 2dbe 4668 21bf 8976 2fbe
00000150: fe5a 513e 848b 32bf 2b08 49bd 5fec 6bbd
00000160: 985e 97be a61a aa3d 0089 7fbf 4027 aebc
00000170: 68fd 27bd 6874 efbe 7926 9f3e 1356 cb3e
00000180: 7306 ce3d 76e4 e2bd 60ba f7bd ffaa 0dbf
00000190: 44cd 83be 0843 14be 837d bb3d 16b5 34be
000001a0: 3881 93be 7e75 973e 188f 1bbe 5997 4d3f
000001b0: 5c75 14bf e33e efbe c3ce c0bd 4797 033d
000001c0: 5251 45bf c1b5 8c3c 7a0a 343e 5302 77bf
000001d0: 0d49 2ebe a253 b63d f0a2 b6be c6cf f0bd
000001e0: 0743 9a3e 9531 6fbe 1a3b 093f 4ee6 b23e
000001f0: 3132 193f f82f 26be c1cb 0cbf 92d2 64be
00000200: 6a12 a63f 7997 8c3e d09e 483e 3ff0 cfbe
00000210: c131 49be a0ae b1be 3c4d 5e3f 189f f9be
00000220: 1083 cf3d 6a6b 22bb c410 a0bf 8df2 8ebf
00000230: 8603 d8bd b702 db3e da52 a03f 050a 9bbe
00000240: b9de abbf f3b9 f93f b4cd 20bf b0ad 0abd
00000250: 26d7 383f e7c0 863e 3a6a 8ebf 5525 62be
00000260: 6297 393f cb19 df3e 6299 873e affe 373f
00000270: 3c20 0a3f a59c e93d 70e0 ec3d 276d 903f
00000280: 99a0 21bf e49b b73e fac4 ae3d ff7c bc3e
00000290: 4c09 373e cbb4 12bd 8a0e 253f a04d 5fbf
000002a0: b7df 263f 255b 943e 46fa 17be 4023 8fbe
000002b0: bec2 ef3e 62a9 243f a1c8 cd3d 372b 073f
000002c0: 34ce 37be 7fa2 e73c ad70 95bf ab87 853e
000002d0: be47 cb3e 0b5a 0e3f 5024 aabe 9f61 54bf
000002e0: 58b5 ca3f dace 15be 1e20 cbbe 7ba5 713e
000002f0: 00c5 d7bd 2948 1cbf 21d6 b03e a3ec 903f
00000300: adcf 3bbe 9e3c 183f ea8d 963f f463 b0bd
00000310: fa5d 83be cc81 79be 808f b03e ce4f 213f
00000320: 6141 c33d dddb 32bf d3f4 6c3e dfda 1d3f
00000330: dcf6 19bf 91c7 9abf ac37 df3f fffd 303e
00000340: f89f 4dbf 5c1f 07bc 5507 1f3f c798 173f
00000350: de06 02be 4148 05bf e8ec 3bbf 7359 b43e
00000360: c871 c4be 5ece 643e f848 943e a319 c5bf
00000370: 0c0f f8bd 8fd7 a53e 31e3 883d 2b00 0c3e
00000380: a501 cf3e a5a6 2abf b80c bc3e 8943 07bf
00000390: 045b 84be 6624 5c3e 69db 05be e181 b13c
000003a0: 69dc 9e3d a004 81bf 5a89 3fbe 8a16 33bf
000003b0: 62f6 d7bd 0c15 4f3e 40fb e53e 9e4c 1bbf
000003c0: adf6 1a3f 13ea 33be 0fff 30bf 5ff8 fabe
000003d0: e8c8 a8bf 9ded b7be 0b62 59be 695e 9b3e
000003e0: f97c 33be e56c 25bd d24a ae3e 13c6 473e
000003f0: 92d5 903e e486 6c3d dd89 e7bd 1693 2ebe

network.4.bias f4 [30]
-0.10757063 -0.18904768 -0.022442283 0.018010251 -0.1389257 -0.99454063 -0.24285856 -0.4182548
-0.12502201 -0.5253494 -1.1051551 1.4557335 -0.007765905 0.22979441 -0.5732269 0.7795576
-0.30310458 -0.56133735 -0.40083346 0.18964517 0.7231257 0.2813418 0.5343669 0.8555027
-0.21474075 -1.2431343 -0.14204112 -0.022416534 -1.4001244 -0.26240999
00000000: fe4d dcbd b795 41be e1d8 b7bc 3c8a 933c
00000010: 8a42 0ebe 379a 7ebf eaaf 78be 7e25 d6be
00000020: c505 00be 4c7d 06bf b975 8dbf 7a55 ba3f
00000030: 2279 febb 3a4f 6b3e 00bf 12bf 1691 473f
00000040: 8630 9bbe ceb3 0fbf 0b3a cdbe 5832 423e
00000050: c41e 393f 080c 903e 45cc 083f 3a02 5b3f
00000060: 00e5 5bbe 061f 9fbf 3a73 11be e1a2 b7bc
00000070: 4737 b3bf 9a5a 86be

network.6.weight f4 [1, 30]
-0.3666489 0.16447222 -0.16584936 0.27513507 -0.087292545 -0.09409106 -0.09403183 0.09648337
-0.19458212 -0.3973451 -0.14144592 0.08940256 -0.0015682225 0.15458684 -0.14729522 0.17159021
-0.39651725 -0.18941492 0.13153958 0.19690576 0.109642826 -0.26644865 -0.33337128 -0.18304938
0.23563534 -0.6764072 0.036290925 -0.33103555 -0.17220506 -0.14470683
00000000: 68b9 bbbe 686b 283e 6ad4 29be 81de 8c3e
00000010: 6fc6 b2bd d0b2 c0bd c393 c0bd 1399 c53d
00000020: 8940 47be d170 cbbe 33d7 10be b018 b73d
00000030: d18c cdba 034c 1e3e 8fd4 16be 58b5 2f3e
00000040: 4f04 cbbe fcf5 41be 50b2 063e aaa1 493e
00000050: 6b8c e03d f56b 88be a4af aabe 4c71 3bbe
00000060: 644a 713e 0629 2dbf cba5 143d 7e7d a9be
00000070: 8656 30be 072e 14be
