injector_surrogate/results/model5_3hidden_30nodes_500epoch_0.01.pth (torch, 15495 bytes, 9 tensors)

network.0.weight f4 [30, 9]
0.44700325 0.6955661 -0.7265875 1.2177057 0.8410355 0.05482099 0.3495733 0.35362235
0.7088493 0.26727447 0.09039097 0.0003082348 0.2434092 0.13132808 3.3077793 2.6583729
0.8030984 1.2226771 0.06931872 0.032803398 -0.0734342 -0.031573225 -0.14877437 -0.3779316
-0.49670726 4.0514965 1.5476123 -2.090269 0.7151447 -0.69219565 -1.4455516 -1.011122
0.12942299 0.007868442 0.13074227 0.27270827 -0.20909247 -0.17099735 0.02516391 -0.20855574
-0.5187912 -0.19776057 -1.0571165 3.1725984 1.8205577 0.04545146 0.0941704 -0.08094912
-0.09712181 -0.19863068 0.12974529 -0.27480054 -4.9282923 -5.5348706 0.40598655 0.36936694
-0.56801444 1.6077204 4.854052 0.009799356 -0.4368252 -0.35338894 -0.2866978 0.04223865
-1.5937861 -1.2017697 -0.19017206 -0.25919276 -0.09403485 -0.1824659 -0.14117087 -0.15846369
0.20517176 -0.15732643 -0.095295765 -0.13784145 -0.1463761 -0.8972924 -2.0183263 -2.8407104
-1.7454605 0.119224265 -0.03303848 -0.1529926 -0.17584935 -0.4618317 -1.2270613 -2.312762
0.26182994 0.45204115 -0.26356176 -0.6888651 0.18778871 0.6218253 1.4985566 0.4430508
0.8400662 1.0770987 1.5132945 -0.34332654 -0.0052612973 -0.22852653 0.6119916 1.1347998
0.71519 1.4133265 1.9149934 1.2119945 0.79523337 0.2823551 -0.14164603 1.2402908
3.5421274 -0.07814938 -0.29823932 -0.27046153 -0.0101722665 -0.07621878 -0.0689849 -0.07339342
-0.050074536 -0.051160596 -2.8341975 -1.9136636 0.011228531 0.14051105 -0.31494844 -0.41359502
0.7416114 2.174868 1.0831558 -0.13738108 -0.11521477 0.013831775 0.01706435 -6.4562554
0.014607221 -0.043790072 -0.5611138 -0.14650238 -0.012382134 0.0062811426 0.004236661 -0.10561775
0.7386528 -0.021863185 -0.5218577 0.3547849 0.2559957 -0.14575131 -0.37740302 -0.8789735
-1.0128309 0.10606116 0.023651533 -0.008536417 -0.121023834 -0.16738972 1.6881045 4.7609286
-0.38888133 -0.26860705 -0.17413469 0.12031788 0.05663041 0.056589454 -0.1802489 -2.0873492
-1.5289623 0.53598917 0.62483346 4.581464 0.27695006 -0.06729378 -0.010069961 -0.30655432
-0.22761106 -0.25487205 0.07772044 0.007719822 -1.5536246 0.6067079 -0.2197238 0.7794665
1.405055 0.089945436 0.09929471 -0.5375516 -0.80737734 -0.10447562 0.40994462 -0.18096326
1.6124933 2.0909617 -0.22591698 0.122862265 1.4605683 1.6644549 2.445483 0.07614869
-0.28880998 -3.1781857 -1.638279 0.1270255 0.06310555 -0.0899683 -0.10376895 0.23561761
-0.15551516 0.1264697 2.0727568 4.0309167 0.41179794 0.56149006 0.015694708 0.100605674
-1.8647431 0.7665059 -0.7713818 0.032657135 -0.25229853 0.023672262 0.0043752305 0.031086214
0.25483608 0.9435085 0.10162761 -0.5528545 1.5538582 3.1775734 0.5520937 0.92685145
1.2198236 0.40682128 -0.12101775 -1.7969413 -1.6022755 0.04118435 -0.15216228 0.06609458
0.14134395 0.424819 0.3606405 -0.5289028 0.2879247 -0.52403265 2.9250238 1.1047536
-0.08273265 0.050037198 0.119930714 0.1723238 0.056905407 -0.019246692 0.039885852 0.092093006
00000000: 9cdd e43e 9f10 323f a301 3abf c8dd 9b3f
00000010: 1a4e 573f f98b 603d 46fb b23e fd0d b53e
00000020: 2677 353f 33d8 883e e71e b93d 939a a139
00000030: 4340 793e de7a 063e a8b2 5340 c822 2a40
00000040: db97 4d3f af80 9c3f f9f6 8d3d db5c 063d
00000050: ab64 96bd ed52 01bd 4f58 18be 4080 c1be
00000060: 6a50 febe dca5 8140 2918 c63f f8c6 05c0
00000070: b913 373f bc33 31bf d607 b9bf 726c 81bf
00000080: 7687 043e a3ea 003c 4de1 053e 6ba0 8b3e
00000090: 561c 56be ee19 2fbe 8b24 ce3c a38f 55be
000000a0: 80cf 04bf bf81 4abe 984f 87bf da0b 4b40
000000b0: 0908 e93f 4f2b 3a3d 69dc c03d a7c8 a5bd
000000c0: cde7 c6bd d765 4bbe f3db 043e a8b2 8cbe
000000d0: 92b4 9dc0 a91d b1c0 78dd cf3e aa1d bd3e
000000e0: 6569 11bf c8c9 cd3f 6554 9b40 7a8d 203c
000000f0: 8da7 dfbe 65ef b4be 0eca 92be 6f02 2d3d
00000100: 2f01 ccbf 97d3 99bf 77bc 42be eab4 84be
00000110: 5895 c0bd 57d8 3abe 198f 10be 4e44 22be
00000120: 8c18 523e 2e1a 21be 6d2a c3bd 4f26 0dbe
00000130: 9ee3 15be f4b4 65bf 422c 01c0 33ce 35c0
00000140: 406b dfbf da2b f43d 5b53 07bd 18aa 1cbe
00000150: da11 34be 3475 ecbe 5810 9dbf 4b04 14c0
00000160: 930e 863e f071 e73e 91f1 86be 7759 30bf
00000170: af4b 403e f12f 1f3f b4d0 bf3f 8ed7 e23e
00000180: 940e 573f 5fde 893f a2b3 c13f 7fc8 afbe
00000190: f666 acbb dc02 6abe 7bab 1c3f 1f41 913f
000001a0: b116 373f e2e7 b43f 811e f53f a322 9b3f
000001b0: 6a94 4b3f d990 903e a80b 11be d9c1 9e3f
000001c0: 37b2 6240 c80c a0bd d3b2 98be ef79 8abe
000001d0: 94a9 26bc 9718 9cbd f547 8dbd 4a4f 96bd
000001e0: f51a 4dbd c68d 51bd 7e63 35c0 eef2 f4bf
000001f0: dff7 373c 21e2 0f3e ec40 a1be bac2 d3be
00000200: 3fda 3d3f 0a31 0b40 d9a4 8a3f a0ad 0cbe
00000210: b9f5 ebbd ab9e 623c 89ca 8b3c a599 cec0
00000220: 2053 6f3c 385d 33bd 27a5 0fbf b804 16be
00000230: 6fde 4abc 0bd2 cd3b b0d3 8a3b 1e4e d8bd
00000240: 5a18 3d3f 6c1a b3bc 7798 05bf 5ea6 b53e
00000250: de11 833e d53f 15be f83a c1be 6804 61bf
00000260: 71a4 81bf 9836 d93d dcc0 c13c 54dc 0bbc
00000270: 58db f7bd 3668 2bbe cf13 d83f 8759 9840
00000280: 741b c7be dd86 89be 5d50 32be 3869 f63d
00000290: 4af5 673d 58ca 673d 2b93 38be 2197 05c0
000002a0: 09b5 c3bf 9636 093f 16f5 1f3f 5a9b 9240
000002b0: 66cc 8d3e 52d1 89bd 7afc 24bc b0f4 9cbe
000002c0: e012 69be 977e 82be e52b 9f3d 90f6 fc3b
000002d0: 2cdd c6bf 3551 1b3f 47ff 60be 1e8b 473f
000002e0: d8d8 b33f 5035 b83d 065b cb3d fb9c 09bf
000002f0: 48b0 4ebf 50f7 d5bd 43e4 d13e 6f4e 39be
00000300: 2e66 ce3f 51d2 0540 c856 67be 369f fb3d
00000310: e7f3 ba3f dc0c d53f cb82 1c40 d8f3 9b3d
00000320: e7de 93be 6567 4bc0 20b3 d1bf f912 023e
00000330: 7c3d 813d 4d41 b8bd d184 d4bd be45 713e
00000340: 5e3f 1fbe 4681 013e 0ca8 0440 45fd 8040
00000350: 2ed7 d23e d0bd 0f3f 3092 803c 590a ce3d
00000360: e7af eebf bb39 443f 4779 45bf 7dc3 053d
00000370: 462d 81be 55ec c13c 185e 8f3b 84a8 fe3c
00000380: e079 823e c689 713f 2322 d03d df87 0dbf
00000390: d3e4 c63f 5d5d 4b40 0356 0d3f 2346 6d3f
000003a0: 2e23 9c3f e14a d03e 27d8 f7bd 2c02 e6bf
000003b0: 5d17 cdbf ecb0 283d 6ed0 1bbe 985c 873d
000003c0: 78bc 103e e081 d93e dfa5 b83e 2d66 07bf
000003d0: de6a 933e 0127 06bf 9733 3b40 9168 8d3f
000003e0: bc6f a9bd cef3 4c3d 3c9e f53d a675 303e
000003f0: a515 693d 3dab 9dbc 595f 233d 429b bc3d

network.0.bias f4 [30]
-1.4084452 -5.0942893 -3.6716788 2.6336782 -1.5836555 3.9956384 -3.38525 2.5294755
3.6684551 1.1371809 -2.707834 -1.425048 -3.8687289 1.741994 -2.095371 5.548689
1.5173583 -4.1810293 2.173257 -2.0435288 0.21452905 -3.8476534 -0.31397876 -2.9988568
0.4822247 -4.761588 0.40723982 -0.6079267 5.080219 -1.7567184
00000000: ef47 b4bf 6b04 a3c0 c9fc 6ac0 2f8e 2840
00000010: 39b5 cabf 8ab8 7f40 f0a7 58c0 ede2 2140
00000020: f8c7 6a40 258f 913f 274d 2dc0 f967 b6bf
00000030: 4199 77c0 a9f9 de3f 8f1a 06c0 dc8e b140
00000040: cc38 c23f feca 85c0 a516 0b40 2dc9 02c0
00000050: 81ad 5b3e f43f 76c0 d3c1 a0be 45ed 3fc0
00000060: 28e6 f63e ee5e 98c0 bd81 d03e 16a1 1bbf
00000070: 2791 a240 26dc e0bf

network.2.weight f4 [30, 30]
-0.62830424 -0.24390212 -0.587795 -0.6912033 1.1967026 0.15560146 1.2281889 -0.8751963
1.7241455 -1.1183523 1.3237091 0.40299377 0.094445765 -0.2168723 0.103364766 0.25021535
1.3933856 -0.2729195 0.5838993 0.19848534 0.032188516 0.5219713 -0.3917422 0.87114435
0.426386 0.17356035 0.10977998 -0.44194436 -0.2084537 -0.55889696 0.11942143 -0.2949199
-0.74297637 -0.15441096 0.7178435 -0.6642987 -0.29141012 0.015252571 0.2739991 -0.40280575
-0.14199528 0.6075717 -0.937203 -0.25426003 -0.5865372 0.4334891 -0.19986409 0.1716241
0.36634094 0.21840549 0.6447573 -0.27394047 0.28538918 0.38946587 -0.5695021 0.70242083
-0.32681853 0.37748307 0.27546364 0.11186595 0.34082028 0.046557408 5.4935384 -0.32108748
0.17313276 0.44237208 0.3731709 0.4894239 -2.587361 -0.26681727 0.4872354 4.4388766
-0.9222183 0.27876666 -0.39953068 0.11034835 -0.8349119 6.347586 -1.7172866 0.107123
-0.18998581 0.6021338 0.040959984 0.5550014 -0.025078991 -0.34993458 -0.38894626 -0.21578208
-1.5543396 -0.28391656 0.24885598 -0.2859193 0.035634216 -0.3611217 -0.21149546 -0.34499094
-0.06712839 -0.23377745 -0.35518864 0.40949044 0.08267279 0.44473198 -0.20304944 0.31514058
0.56159973 -0.3243806 0.13554664 -0.16220525 -0.9641896 -0.5187108 -0.0051530288 -0.23795386
-1.6905161 0.44063905 0.35007632 -0.09807102 -0.0106664635 2.1780803 -0.024859093 0.26022813
0.17385204 0.048667464 0.5005793 -0.5613523 -0.68497604 -0.24646346 1.8122668 0.1460725
-0.036395535 -0.13129026 -0.35136443 0.66222554 -1.4051806 0.29733172 1.1297958 0.75164366
0.8128519 0.2743124 -0.07794521 -0.257382 -1.4639624 0.011553705 -0.57244587 0.4020847
-0.5935857 -0.30941746 -0.15561585 -1.0179486 0.0106656775 -0.09984776 -0.029650394 -0.11066486
-0.042274695 -0.08867189 0.46257478 0.09666853 -0.13326539 -0.25259903 -0.09720545 0.19235806
0.43361762 0.17459692 -0.33577508 0.04490133 0.27648327 0.775899 0.35539818 0.1944024
0.18981797 -2.1554708 0.57670766 0.044036258 0.4990428 0.04959673 -0.5283581 -0.1361579
-0.16743737 0.7110372 0.211071 0.13146858 0.18300481 -0.29887834 -2.22348 0.43284118
-1.2270114 -0.3838368 0.1604619 -0.2275118 0.4073307 1.0242394 -0.6753963 -1.1308429
-1.092705 -0.32515505 0.1198328 -0.09819489 -0.11813709 -1.7079182 0.07807631 0.08765811
0.42124122 -0.3157723 0.2416093 0.87197995 -0.56734234 -0.12293508 0.3922356 0.23939142
0.501982 0.29899696 -0.3852869 -0.12458306 -0.26780924 0.12031007 0.21482107 -0.046062727
-0.37170625 -1.5482447 0.05642056 -0.065265365 -0.20291394 -0.16247812 -0.20799895 0.06889179
-0.037751723 -0.3628217 -0.831373 0.11523317 0.11251548 0.0040423563 0.93516666 -0.15338144
0.017648658 0.011085756 -0.3990162 0.46811542 1.1510686 -0.044877905 0.14048815 0.08462259
-0.13635169 0.24127711 0.19571617 0.59635997 0.047989476 0.40008882 0.019023515 -0.061477862
0.23647876 -0.4634515 0.14824137 -0.9134794 -0.0659846 0.36070436 -0.5845915 1.2702361
00000000: 8cd8 20bf 7ac1 79be bc79 16bf b3f2 30bf
00000010: 8d2d 993f fd55 1f3e 4b35 9d3f dd0c 60bf
00000020: cdb0 dc3f 2b26 8fbf 4d6f a93f 3355 ce3e
00000030: c86c c13d c613 5ebe e8b0 d33d 3a1c 803e
00000040: 765a b23f 1bbc 8bbe 6d7a 153f be3f 4b3e
00000050: 1bd8 033d e99f 053f 6f92 c8be 5103 5f3f
00000060: 444f da3e ceb9 313e 53d4 e03d 8846 e2be
00000070: e374 55be df13 0fbf 3993 f43d beff 96be
00000080: b333 3ebf e81d 1ebe 97c4 373f 7b0f 2abf
00000090: b533 95be ebe5 793c 9c49 8c3e 8e3c cebe
000000a0: 3667 11be d289 1b3f 89ec 6fbf 5f2e 82be
000000b0: 4d27 16bf 49f2 dd3e 2ca9 4cbe 3abe 2f3e
000000c0: 0a91 bb3e b0a5 5f3e d00e 253f ed41 8cbe
000000d0: 881e 923e 1268 c73e e4ca 11bf dad1 333f
000000e0: c254 a7be 7645 c13e 9209 8d3e fa19 e53d
000000f0: ff7f ae3e fbb2 3e3d 11cb af40 9465 a4be
00000100: b749 313e 987e e23e 4210 bf3e c595 fa3e
00000110: 5397 25c0 469c 88be eb76 f93e 470b 8e40
00000120: 8016 6cbf 81ba 8e3e 498f ccbe 51fe e13d
00000130: c9bc 55bf 6d1f cb40 0cd0 dbbf 4e63 db3d
00000140: a48b 42be 7125 1a3f a8c5 273d 9214 0e3f
00000150: 7572 cdbc a02a b3be f723 c7be faf5 5cbe
00000160: 9af4 c6bf 835d 91be 1ad4 7e3e 0464 92be
00000170: 2ff5 113d f2e4 b8be 4492 58be a7a2 b0be
00000180: 9c7a 89bd 5b63 6fbe 49db b5be bba8 d13e
00000190: 5a50 a93d e9b3 e33e 31ec 4fbe 1b5a a13e
000001a0: 00c5 0f3f 3715 a6be bdcc 0a3e 2219 26be
000001b0: 21d5 76bf 3bca 04bf bdda a8bb 2daa 73be
000001c0: d562 d8bf 719b e13e 343d b33e 75d9 c8bd
000001d0: 64c2 2ebc ab65 0b40 4ca5 cbbc 9f3c 853e
000001e0: 4506 323e 8957 473d f725 003f c9b4 0fbf
000001f0: 975a 2fbf eb60 7cbe 5cf8 e73f 0894 153e
00000200: 7c13 15bd f470 06be 0ae6 b3be 9d87 293f
00000210: f5dc b3bf dd3b 983e 269d 903f b86b 403f
00000220: 1017 503f ad72 8c3e bda1 9fbd 93c7 83be
00000230: 1f63 bbbf c04b 3d3c d08b 12bf 0cde cd3e
00000240: 3cf5 17bf f76b 9ebe c359 1fbe 244c 82bf
00000250: 18bf 2e3c fb7c ccbd 62e5 f2bc 42a4 e2bd
00000260: 3b28 2dbd 9c99 b5bd 9ad6 ec3e 26fa c53d
00000270: b976 08be a954 81be a713 c7bd 83f9 443e
00000280: 2103 de3e 89c9 323e b6ea abbe 75ea 373d
00000290: 378f 8d3e 51a1 463f c0f6 b53e 6c11 473e
000002a0: a45f 423e 3cf3 09c0 1da3 133f 5d5f 343d
000002b0: 8a82 ff3e f125 4b3d 7a42 07bf fa6c 0bbe
000002c0: b474 2bbe 8906 363f ff22 583e b39f 063e
000002d0: 9d65 3b3e 9506 99be 7f4d 0ec0 5c9d dd3e
000002e0: b60e 9dbf 4286 c4be 2050 243e daf8 68be
000002f0: a68d d03e 471a 833f c6e6 2cbf 76bf 90bf
00000300: c2dd 8bbf b97a a6be e66a f53d 671a c9bd
00000310: dcf1 f1bd 109d dabf 79e6 9f3d 1886 b33d
00000320: eeac d73e e8ac a1be 6e68 773e 143a 5f3f
00000330: 593d 11bf 63c5 fbbd 1bd3 c83e 0623 753e
00000340: e481 003f 2116 993e 5344 c5be 6725 ffbd
00000350: 4b1e 89be 2065 f63d 0efa 5b3e 45ac 3cbd
00000360: 4850 bebe e22c c6bf 3f19 673d d9a9 85bd
00000370: acc8 4fbe aa60 26be adfd 54be 2417 8d3d
00000380: 8da1 1abd c4c3 b9be dcd4 54bf 5eff eb3d
00000390: 846e e63d be75 843b 1567 6f3f 0610 1dbe
000003a0: eb93 903c 08a1 353c da4b ccbe d3ac ef3e
000003b0: 3756 933f e5d1 37bd 20dc 0f3e 9c4e ad3d
000003c0: c79f 0bbe 5911 773e d269 483e 0cab 183f
000003d0: 9d90 443d 71d8 cc3e 34d7 9b3c 36d0 7bbd
000003e0: 7d27 723e 8449 edbe 96cc 173e c9d9 69bf
000003f0: ef22 87bd 3eae b83e caa7 15bf 1997 a23f

network.2.bias f4 [30]
-0.1436352 -2.1680908 6.4678903 -3.4672165 -0.97316307 0.943768 -2.4899075 1.1235089
3.2917418 -3.524712 -1.1627086 -2.3382366 1.5007426 -3.213159 0.5903292 -0.35106185
-0.24945885 -3.9410455 -1.0658468 -4.048419 9.129869 0.4168344 1.4832257 -2.8292992
0.7987395 3.7358108 -5.5249023 4.547161 3.4491863 3.9167633
00000000: 1b15 13be 00c2 0ac0 f5f8 ce40 e0e6 5dc0
00000010: 3721 79bf c89a 713f a55a 1fc0 24cf 8f3f
00000020: e6ab 5240 e294 61c0 a3d3 94bf aba5 15c0
00000030: 5518 c03f 66a4 4dc0 d01f 173f 61be b3be
00000040: 2472 7fbe 173a 7cc0 ab6d 88bf a68c 81c0
00000050: f213 1241 526b d53e 57da bd3f 3d13 35c0
00000060: 317a 4c3f 8617 6f40 00cc b0c0 5882 9140
00000070: 78bf 5c40 40ac 7a40

network.4.weight f4 [30, 30]
0.1499938 0.5232647 -0.3304982 0.64275193 0.019271297 -0.25456095 0.05960393 0.24328077
1.2889498 0.10206873 -0.105905205 -0.28407314 0.13918053 -0.9711691 -0.17015754 -0.5425348
3.974249 0.14618102 1.2656763 -0.13974676 -0.2887745 -0.061958108 0.9503112 0.7247217
-0.22675267 -0.20524068 -0.22698909 0.8418505 -0.24015632 0.5297052 -0.12358892 -0.32389012
-0.11973634 0.50263864 -0.013484809 -0.03704726 -0.02359241 0.17637052 0.98776597 -0.19980499
0.1124692 0.16362345 -0.69893175 -3.1718702 0.13997802 -0.15130967 -0.056370743 -0.33216366
-0.39024842 -0.09267945 -5.8426948 0.07644832 -0.8322775 0.17207603 -0.0053203227 0.100862354
0.5594683 -4.1466174 0.07087746 0.09826799 0.14369635 -0.113949455 0.09633363 1.4968041
-0.012402489 -0.097141996 0.44202632 -0.060503833 -0.2117098 0.5805163 0.061913997 -0.12581603
0.21121956 0.4199709 0.021216776 0.040333584 -1.7937512 -0.12311992 0.99840546 0.08901278
3.7813163 0.19565624 -0.0006220597 -0.12585519 0.8164671 -0.018571876 0.5911076 0.99761736
0.07026714 -0.082503825 -0.64842427 -0.31110835 -2.0347943 -0.25372392 -1.0464051 -0.3108385
-0.36153373 -0.38497913 0.25156343 0.060671497 2.064521 0.24439028 0.5089265 0.03571246
-2.273937 0.33730063 0.39878637 0.91838014 -0.5027208 -0.06292202 -1.9917138 -0.45344627
-0.0657682 0.42278367 0.3261922 -0.0399244 -0.36581075 -0.42911783 0.09526509 1.7473438
-0.6339657 0.12712982 1.0269173 -0.29250714 -0.23641631 -0.3547345 -0.29389423 0.11640808
0.26816246 -0.4678569 3.4101362 -0.13940725 -0.38584206 0.03208379 -0.58027667 1.0621251
0.60106885 -0.579803 0.5594437 -1.3932563 1.1515075 -0.40482253 0.2340982 0.012792539
-0.12927242 0.99819434 0.124661125 0.26245558 0.15046395 -0.15774652 0.11331786 -0.7186963
-0.2797089 0.91521543 -0.12729691 -0.51405466 0.3139455 0.2938527 0.093175046 0.04211422
-0.15642539 -0.0119977435 -4.0908933 1.2906358 0.06893011 -0.04454687 -0.6309281 0.1770842
0.5412625 0.026984554 0.57203746 -0.013921325 3.0228918 0.022616193 0.30067685 0.4060262
1.3186135 0.112860024 0.08886293 0.36756775 0.26815322 -0.31041372 0.2550623 0.105081774
0.746238 0.538116 -1.7636164 -0.38708133 -0.38121107 1.8671796 -0.77809906 0.9272495
0.39026624 -0.41161454 -0.5124858 -0.7183809 -0.015147277 -0.05658201 0.91174924 -0.4185608
1.7353513 0.1652415 0.3004445 -0.22103125 -0.48671585 0.048804194 -0.44119984 -0.26957086
0.33508864 0.06535182 -0.10982949 0.8369474 0.41085276 0.0058463067 0.25358102 -0.015791345
-0.18262826 -0.72114474 -0.07390151 0.12642217 -0.11250232 0.12512001 -0.40391445 0.18973073
0.012129831 -0.10056569 0.056122936 0.093620524 0.28150058 -0.13268676 0.4453268 0.0510829
0.38958842 -0.010232115 0.12866282 -0.062350795 0.104964636 -0.013885717 0.41028452 -0.6213338
-0.18700816 0.21012387 -0.20608257 0.3392208 0.011257714 -1.3707438 0.40141013 0.56640846
0.54444987 -0.66323423 0.063888684 0.29976892 0.23137534 0.49586573 0.05781051 -0.024298472
00000000: fa97 193e adf4 053f 0f37 a9be 648b 243f
00000010: d7de 9d3c d055 82be 4023 743d 981e 793e
00000020: 4ffc a43f 6909 d13d d4e4 d8bd 0972 91be
00000030: 5785 0e3e 8a9e 78bf c73d 2ebe 90e3 0abf
00000040: 185a 7e40 7ab0 153e ae01 a23f c619 0fbe
00000050: 40da 93be c9c7 7dbd 9847 733f 5d87 393f
00000060: da31 68be 9d2a 52be d46f 68be 8483 573f
00000070: 8aeb 75be c39a 073f 301c fdbd edd4 a5be
00000080: 5438 f5bd edac 003f 63ef 5cbc debe 17bd
00000090: df44 c1bc 799a 343e 3bde 7c3f ae99 4cbe
000000a0: 4056 e63d e88c 273e 31ed 32bf ecff 4ac0
000000b0: 6656 0f3e ecf0 1abe 02e5 66bd 5b11 aabe
000000c0: a4ce c7be b9ce bdbd 5bf7 bac0 f090 9c3d
000000d0: 2310 55bf b334 303e 1a56 aebb ec90 ce3d
000000e0: 5139 0f3f 17b1 84c0 3428 913d ba40 c93d
000000f0: 2325 133e 555e e9bd 914a c53d 4797 bf3f
00000100: cf33 4bbc 62f2 c6bd 4651 e23e ded2 77bd
00000110: 74ca 58be b79c 143f 8899 7d3d ebd5 00be
00000120: f149 583e 6d06 d73e cece ad3c d434 253d
00000130: a499 e5bf 4c26 fcbd 8097 7f3f 554c b63d
00000140: 1601 7240 1c5a 483e b811 23ba 2fe0 00be
00000150: fd03 513f 0c24 98bc d452 173f da63 7f3f
00000160: 38e8 8f3d c4f7 a8bd 22ff 25bf 9849 9fbe
00000170: 123a 02c0 1ae8 81be 9af0 85bf 3926 9fbe
00000180: f31a b9be fc1b c5be eccc 803e ad82 783d
00000190: 1d21 0440 7241 7a3e 0249 023f 3a47 123d
000001a0: 2f88 11c0 abb2 ac3e ba2d cc3e f61a 6b3f
000001b0: 4fb2 00bf 43dd 80bd 7af0 febf 1c2a e8be
000001c0: 7ab1 86bd 1a77 d83e aa02 a73e c587 23bd
000001d0: 8c4b bbbe 55b5 dbbe 581a c33d f6a8 df3f
000001e0: 934b 22bf 522e 023e 0772 833f 7fc3 95be
000001f0: 1e17 72be c39f b5be 4e79 96be 5c67 ee3d
00000200: 974c 893e f18a efbe ac3f 5a40 c6c0 0ebe
00000210: 178d c5be 4b6a 033d 038d 14bf b7f3 873f
00000220: a6df 193f f86d 14bf b437 0f3f 3956 b2bf
00000230: 9964 933f e644 cfbe 70b7 6f3e cc97 513c
00000240: fd5f 04be aa89 7f3f 554e ff3d 9460 863e
00000250: 3913 1a3e 4e88 21be 3213 e83d 7bfc 37bf
00000260: 0136 8fbe 8f4b 6a3f 1f5a 02be 1699 03bf
00000270: 77bd a03e dc73 963e 8fd2 be3d f67f 2c3d
00000280: fa2d 20be 2f92 44bc 99e8 82c0 8e33 a53f
00000290: 3b2b 8d3d c776 36bd 8184 21bf 8f55 353e
000002a0: 2e90 0a3f b60e dd3c 0c71 123f 4516 64bc
000002b0: 0f77 4140 9845 b93c 51f2 993e abe2 cf3e
000002c0: 54c8 a83f 2823 e73d c5fd b53d d731 bc3e
000002d0: 614b 893e 8cee 9ebe 8797 823e 1d35 d73d
000002e0: 7409 3f3f f8c1 093f 2fbe e1bf 862f c6be
000002f0: 192e c3be beff ee3f 8031 47bf 3960 6d3f
00000300: fad0 c73e 24bf d2be 4532 03bf d0e7 37bf
00000310: 492c 78bc 8ac2 67bd 6668 693f 9a4d d6be
00000320: fe1f de3f 1135 293e ddd3 993e 0456 62be
00000330: d232 f9be e8e6 473d f2e4 e1be 3105 8abe
00000340: bd90 ab3e 2dd7 853d 49ee e0bd 2f42 563f
00000350: 4b5b d23e 6092 bf3b 5fd5 813e da5c 81bc
00000360: e702 3bbe f19c 38bf ad59 97bd d074 013e
00000370: 9e67 e6bd 761f 003e e0cd cebe c648 423e
00000380: 33bc 463c 62f5 cdbd 2ae1 653d 1ebc bf3d
00000390: d820 903e 0adf 07be e001 e43e 4e3c 513d
000003a0: 2278 c73e 9aa4 27bc 30c0 033e 8c63 7fbd
000003b0: b3f7 d63d eb80 63bc d010 d23e bb0f 1fbf
000003c0: 117f 3fbe b62a 573e 4f07 53be 59ae ad3e
000003d0: 4672 383c 8874 afbf a185 cd3e 2500 113f
000003e0: 1161 0b3f b8c9 29bf 12d8 823d 507b 993e
000003f0: a8ed 6c3e 1de2 fd3e b7ca 6c3d 970d c7bc

network.4.bias f4 [30]
-1.3355494 -2.3583028 -0.39352214 -0.33483505 -1.4113668 -1.033878 2.195117 -0.10987308
0.43964604 2.9252234 -6.423303 3.8405719 13.145705 -1.9513747 -3.1982534 -0.8619516
-0.87891275 -6.7664638 2.3309128 -1.4321028 1.4203706 2.7371137 2.6862757 0.7857661
-2.0513093 -2.803882 1.4917487 -7.9251456 -0.8669576 -2.5073075
00000000: 48f3 aabf 6fee 16c0 bc7b c9be 806f abbe
00000010: aba7 b4bf 1d56 84bf cc7c 0c40 2305 e1bd
00000020: 4919 e13e dc36 3b40 b38b cdc0 eecb 7540
00000030: cf54 5241 a5c6 f9bf 2fb0 4cc0 dca8 5cbf
00000040: 6d00 61bf df86 d8c0 ad2d 1540 254f b7bf
00000050: b4ce b53f df2c 2f40 f1eb 2b40 f827 493f
00000060: a748 03c0 cd72 33c0 9ff1 be3f cb9a fdc0
00000070: eff0 5dbf ba77 20c0

network.6.weight f4 [30, 30]
-0.024341837 -0.03137182 -0.026196387 0.04951983 0.0057645254 -0.017583236 -0.028667424 0.04229894
-0.04635931 0.015044514 -0.03230302 -0.024568431 -0.02527684 0.01872305 0.05039676 -0.0042228643
0.020135526 -0.018708147 -0.006024908 0.016689684 0.025749762 0.003569628 0.0072417785 0.0042889887
0.018730659 0.017456982 -0.04530837 -0.08993126 0.0035187963 0.01738044 0.13941367 -0.040287696
0.023143984 -0.57218575 0.08950144 -0.71502644 0.17785792 0.6234541 -0.6111821 -0.27251258
-0.031119924 -0.20964809 -0.13761076 0.24717787 -0.3025248 -0.2980735 -0.6013894 -0.36881223
0.18163212 -0.20257924 0.08168916 0.017740153 -0.3116857 -0.1983823 -0.03623302 0.18590125
-0.28960946 0.32315838 0.54570705 0.042304195 0.06366092 -0.8813354 0.11612273 -0.22826293
0.16298817 -0.29601288 -0.417439 0.47672266 0.09005989 -0.7968091 1.3992395 -0.079900846
0.3488058 0.04951474 -0.12202326 -0.6519427 -0.48507842 -0.57826674 -0.2471346 -0.19367726
-0.19875291 -0.45551652 -0.055488743 -0.20318656 -0.04921416 -0.5868565 -0.4865756 0.6737317
0.28420538 0.40607435 0.00042032817 -0.0020935023 0.032381292 0.011224067 0.0021707902 -0.02820177
-0.0029658284 -0.030727984 0.039966572 0.0023703412 -0.014066427 -0.011195231 -0.02304827 -0.029910162
-0.014990313 -0.010421113 0.04154518 0.021988275 -0.011265972 -0.032669984 0.008783479 0.07450977
-0.004040551 -0.020356454 0.058358837 0.022629412 -0.021032423 0.01678028 -0.043722495 -0.00071917026
-0.5236253 -2.2887595 -0.48991314 0.91678154 1.2447022 0.46460596 -0.21214761 0.17349903
-0.2564571 -1.3889704 0.3423129 -0.6006351 -1.0051973 0.38161263 0.124559894 -1.4476804
0.002321058 -0.54049504 -1.6604565 0.11832398 0.36965793 0.12000304 3.6618288 1.0303197
-0.66854566 1.3945519 0.72460127 0.66447616 0.16118522 0.51763093 0.018580293 0.015498322
0.06531707 0.012151929 0.0020039163 0.0341358 -0.014768784 -0.06798518 0.02263185 -0.03698604
-0.00505079 0.0051818574 -0.014429548 -0.014632635 -0.027799817 -0.023997277 0.0066807666 0.02649468
-0.019554745 -0.037370145 -0.0024844245 0.042021886 0.05553519 0.018589715 0.03702359 0.057075214
0.022466611 -0.06496655 -0.025250668 0.010733796 -1.4147811 2.7233417 0.3425668 0.010221183
0.39352134 -1.8889414 0.1413972 -0.15866922 0.59222925 -0.10301968 -2.750447 -0.08062963
-0.241812 -0.27553478 -0.31524673 0.13087527 0.0076199556 0.25896773 -0.23757385 -0.024188064
0.4736884 0.028320514 0.24799351 0.35605976 -0.17974558 0.046578012 0.51551485 0.67327875
0.14461632 -0.5283142 0.6625901 -2.6133766 -0.81301105 0.39734632 -0.4526559 -0.3033978
-0.669777 0.33258614 1.7708961 -1.4040619 0.4678433 -0.6908891 -0.20736559 -0.83704764
0.45284832 -0.8423665 0.6491693 -0.58545995 -1.6370492 -0.8086766 -0.9064575 -0.9713886
0.10627553 0.32039908 -0.72981167 0.51140106 -0.310945 0.5973427 0.33044395 0.18292652
-0.037214518 -0.0005049065 0.07875923 -0.015079155 0.039112177 -0.03491281 -0.06089815 -0.090902284
0.009264916 0.03592355 -0.010636312 0.023158245 -0.018916385 0.014167406 0.014086689 -0.046799783
00000000: 8868 c7bc bd7f 00bd ce99 d6bc 4ed5 4a3d
00000010: 58e4 bc3b b80a 90bc f2d7 eabc a741 2d3d
00000020: 43e3 3dbd 447d 763c 2c50 04bd bc43 c9bc
00000030: 6011 cfbc 1561 993c d56c 4e3d f45f 8abb
00000040: 42f3 a43c d441 99bc 976c c5bb ceb8 883c
00000050: 2af1 d23c 6cf0 693b 714c ed3b a58a 8c3b
00000060: 0a71 993c f201 8f3c 4595 39bd e12d b8bd
00000070: 9b9b 663b 6d61 8e3c 75c2 0e3e b604 25bd
00000080: 7498 bd3c c47a 12bf 884c b73d f90b 37bf
00000090: 6320 363e b09a 1f3f 6e76 1cbf c586 8bbe
000000a0: 36ef febc fdad 56be d6e9 0cbe 321c 7d3e
000000b0: 88e4 9abe 179d 98be a8f4 19bf f5d4 bcbe
000000c0: c5fd 393e ef70 4fbe a54c a73d cc53 913c
000000d0: 4595 9fbe bb24 4bbe 1369 14bd e65c 3e3e
000000e0: b147 94be 0475 a53e 75b3 0b3f 2a47 2d3d
000000f0: a860 823d 329f 61bf c1d1 ed3d c2bd 69be
00000100: 5fe6 263e 008f 97be 91ba d5be fe14 f43e
00000110: 5271 b83d aefb 4bbf 481a b33f 0ea3 a3bd
00000120: ac96 b23e f8cf 4a3d 55e7 f9bd b7e5 26bf
00000130: 335c f8be 4a09 14bf da10 7dbe 5553 46be
00000140: e285 4bbe 7639 e9be 2a48 63bd 2310 50be
00000150: c994 49bd 3a3c 16bf 7020 f9be ae79 2c3f
00000160: 5e83 913e fae8 cf3e 7e5f dc39 2433 09bb
00000170: 3fa2 043d 26e5 373c d143 0e3b 6607 e7bc
00000180: 585e 42bb 41b9 fbbc fdb3 233d ba57 1b3b
00000190: df76 66bc 346c 37bc bacf bcbc 2806 f5bc
000001a0: ee99 75bc 51bd 2abc 472b 2a3d c120 b43c
000001b0: e994 38bc f6d0 05bd 95e8 0f3c 9498 983d
000001c0: 9966 84bb 94c2 a6bc ad09 6f3d 5161 b93c
000001d0: 304c acbc cc76 893c 5c16 33bd b386 3cba
000001e0: 4f0c 06bf 097b 12c0 e5d5 fabe 32b2 6a3f
000001f0: 6752 9f3f d5e0 ed3e 393d 59be bba9 313e
00000200: 584e 83be c8c9 b1bf a343 af3e 39c3 19bf
00000210: 4eaa 80bf bb62 c33e 4219 ff3d 974d b9bf
00000220: e41c 183b e25d 0abf d789 d4bf d853 f23d
00000230: ce43 bd3e 27c4 f53d 675b 6a40 84e1 833f
00000240: cf25 2bbf ad80 b23f 787f 393f 1c1b 2a3f
00000250: bd0d 253e 7683 043f b335 983c adec 7d3c
00000260: f5c4 853d e218 473c 2354 033b fbd1 0b3d
00000270: c5f8 71bc d03b 8bbd 6e66 b93c ad7e 17bd
00000280: 1981 a5bb 92cc a93b e969 6cbc b8bd 6fbc
00000290: 71bc e3bc f095 c4bc 55ea da3b 5f0b d93c
000002a0: 4631 a0bc 7011 19bd bad1 22bb 241f 2c3d
000002b0: de78 633d 7549 983c 0ca6 173d b3c7 693d
000002c0: e60b b83c 2f0d 85bd 7dda cebc cedc 2f3c
000002d0: 8c17 b5bf 3b4b 2e40 ea64 af3e c076 273c
000002e0: a17b c93e d5c8 f1bf 6dca 103e 2f7a 22be
000002f0: 569c 173f fbfb d2bd 5307 30c0 2621 a5bd
00000300: 919d 77be e512 8dbe 0568 a1be 2b04 063e
00000310: d2b0 f93b 6b97 843e 8f46 73be 0c26 c6bc
00000320: 4987 f23e 6c00 e83c 03f2 7d3e 774d b63e
00000330: 3a0f 38be 96c8 3e3d c8f8 033f ff5b 2c3f
00000340: 4d16 143e 993f 07bf 819f 293f 9041 27c0
00000350: 7e21 50bf fa70 cb3e 84c2 e7be f556 9bbe
00000360: 8176 2bbf bb48 aa3e b9ac e23f 4db8 b3bf
00000370: 2889 ef3e 1cde 30bf a557 54be c148 56bf
00000380: bcdb e73e 55a5 57bf f62f 263f b4e0 15bf
00000390: d48a d1bf 6e05 4fbf 990d 68bf ecac 78bf
000003a0: fca6 d93d 590b a43e f0d4 3abf 2eeb 023f
000003b0: 2f34 9fbe 74eb 183f f32f a93e 1751 3b3e
000003c0: 406e 18bd b45b 04ba 854c a13d 8f0e 77bc
000003d0: 1734 203d bc00 0fbd 5770 79bd fa2a babd
000003e0: e0cb 173c 9324 133d ed43 2ebc 5cb6 bd3c
000003f0: 89f6 9abc 681e 683c dbcb 663c 21b1 3fbd

network.6.bias f4 [30]
-0.00084341643 -0.11230353 4.0236797 -0.023735512 -7.390004 0.00815657 -2.3583941 -6.988331
0.0065921624 -0.054712128 1.1445985 0.71087044 0.042765044 -0.01944503 10.617252 0.009875187
-1.1525648 0.011092137 -1.1279707 -1.9863355 -0.022169672 -1.927095 2.0713294 2.2506502
-1.4587927 -5.1586347 -4.321128 -9.492067 -7.058457 0.03908186
00000000: b818 5dba 65ff e5bd fcc1 8040 fa70 c2bc
00000010: ea7a ecc0 22a3 053c eeef 16c0 68a0 dfc0
00000020: 1103 d83b d319 60bd 3482 923f 9bfb 353f
00000030: 662a 2f3d 2f4b 9fbc 44e0 2941 89cb 213c
00000040: 3e87 93bf cbbb 353c 5861 90bf 3e40 febf
00000050: 2c9d b5bc 0dab f6bf a990 0440 a70a 1040
00000060: b8b9 babf 8913 a5c0 ae46 8ac0 82df 17c1
00000070: e1de e1c0 4d14 203d

network.8.weight f4 [1, 30]
-0.0020099315 0.022046011 0.091795936 -0.0010084274 -0.053947907 -0.0008921868 0.019251846 -0.15348296
-0.0051119654 0.0006245265 -0.052386615 -0.02919249 0.0030388278 0.004040489 0.057865225 -0.0034175771
-0.03671077 -0.0071790977 -0.03515894 -0.055366404 -0.0021847787 -0.09666464 -0.016575279 -0.01894517
0.012829784 0.026569996 -0.13132568 -0.036643393 -0.19176723 0.0033470877
00000000: 0eb9 03bb d699 b43c 82ff bb3d 352d 84ba
00000010: 7bf8 5cbd a5e1 69ba 0cb6 9d3c a32a 1dbe
00000020: 4682 a7bb 44b7 233a 5993 56bd 1725 efbc
00000030: 1227 473b 1466 843b 1604 6d3d 6ef9 5fbb
00000040: 085e 16bd a33e ebbb d202 10bd e2c7 62bd
00000050: 812e 0fbb 1cf8 c5bd e1c8 87bc e732 9bbc
00000060: 0434 523c 52a9 d93c 3d7a 06be 6217 16bd
00000070: a15e 44be d05a 5b3b
